Sunspots_with_DecomposedData&LSTM/data/model.pt (torch, 342343 bytes, 14 tensors)

weight_ih_l0 f4 [256, 4]
0	0x3e8c4cb3	0.27402267
1	0x3da0564e	0.07828961
2	0x3e2c0f78	0.16802776
3	0x3e15ab12	0.1461604
4	0x3bc9f8c2	0.0061636874
5	0x3eae07e2	0.3399039
6	0x3e387fd0	0.18017507
7	0x3e8c312d	0.27381268
8	0xbcb0380e	-0.021511104
9	0x3d9d5cc8	0.07683712
10	0x3ea15f5c	0.31518066
11	0x3e727254	0.23676425
12	0x3cb21bf4	0.021741845
13	0x3e3aad75	0.18230231
14	0x3dee92b9	0.11649079
15	0x3e2b9fbc	0.16760153
16	0x3da0cbc1	0.07851363
17	0x3d97e78a	0.074172094
18	0x3ea29e1f	0.31761262
19	0x3e0dc41e	0.13844344
20	0x3e0c8888	0.13723958
21	0x3ecf87c1	0.4053326
22	0x3e4277a3	0.1899095
23	0x3e31e172	0.17371157
24	0x3e318984	0.17337614
25	0x3e5e760c	0.21724719
26	0x3e9a2b4c	0.30111158
27	0x3e38d745	0.18050869
28	0x3de93c44	0.11388448
29	0x3e274ce6	0.16337928
30	0x3e9082e5	0.28224865
31	0x3e238fa3	0.15972762
32	0x3abdbda1	0.001447607
33	0x3e72befb	0.23705666
34	0x3e6f479a	0.23367158
35	0xbd4b2853	-0.049599003
36	0x3e101ba2	0.14073041
37	0x3df9a563	0.12189748
38	0x3ea5907e	0.323368
39	0x3e69d563	0.22835307
40	0x3e376036	0.17907795
41	0x3e7b8811	0.24563624
42	0x3e964885	0.29352203
43	0x3d9ad1d1	0.075595506
44	0x3d72d6dc	0.059286937
45	0x3dacac5f	0.08431315
46	0x3eb2fae7	0.34957048
47	0x3d59f6a0	0.053213716
48	0xbc64e3f5	-0.013970365
49	0x3e238231	0.15967633
50	0x3e25477c	0.1614055
51	0x3c8e2904	0.017353542
52	0x3b449622	0.0029996713
53	0x3deaa84a	0.1145788
54	0x3e0d939a	0.13825837
55	0x3d2777ed	0.040885855
56	0x3d8c0c48	0.0683828
57	0xbde8903a	-0.11355634
58	0x3e936b33	0.28792724
59	0x3dd4fde3	0.103999875
60	0x3e0d1441	0.13777258
61	0x3c2c9c0f	0.010535254
62	0x3e4751c6	0.19464788
63	0xbc95c6ac	-0.01828321
64	0x3e58bbbf	0.2116537
65	0x3d9fe358	0.07807034
66	0x3e19ced4	0.15020305
67	0x3e46948f	0.19392608
68	0x3e8325fb	0.25614914
69	0x3ec81ce8	0.39084554
70	0x3e40b016	0.18817171
71	0x3e2dd73c	0.16976637
72	0x3e3f13a4	0.18659836
73	0x3e6bdf39	0.23034371
74	0x3e636687	0.2220708
75	0x3e3ff9fb	0.18747704
76	0x3e12cc70	0.14335799
77	0xbdcf7b86	-0.10130982
78	0x3e9414b4	0.28922045
79	0x3e285332	0.16437986
80	0x3dc7f987	0.097643904
81	0x3ea1efe6	0.3162834
82	0x3e3df019	0.18548621
83	0x3e15a9a8	0.146155
84	0x3e1532dc	0.14570183
85	0x3e9ce30a	0.30641967
86	0x3e957138	0.29187942
87	0x3e591c7b	0.2120227
88	0x3e57d2cd	0.21076508
89	0x3e8281df	0.2548971
90	0x3e98f546	0.2987463
91	0x3eb9497a	0.3618887
92	0x3e1280a5	0.14306886
93	0x3a39c21d	0.0007086115
94	0x3e9a783a	0.3016985
95	0xbbcc2913	-0.0062304824
96	0x3d78c46f	0.06073421
97	0x3e2fbca6	0.17161807
98	0x3e6b319c	0.22968143
99	0x3d9132ae	0.070897445
100	0x3da36fa1	0.07980276
101	0x3e4d4cff	0.20048903
102	0x3e149d78	0.14513195
103	0x3e538a55	0.20658238
104	0x3dfe0b69	0.1240452
105	0x3d9fd830	0.07804906
106	0x3e8fca8d	0.2808422
107	0x3e9c268d	0.30498162
108	0x3e1b2274	0.15149862
109	0x3e5ac206	0.21363077
110	0x3eb52a53	0.35383853
111	0x3e79b47f	0.2438526
112	0x3e0b9afa	0.13633338
113	0x3e486442	0.19569495
114	0x3eba175e	0.36345953
115	0x3e6b33ae	0.22968933
116	0x3c6978f4	0.014250029
117	0x3b9e9438	0.0048394464
118	0x3e9b198e	0.30292934
119	0x3de994ef	0.1140536
120	0x3dc89d5a	0.097956374
121	0x3e443f40	0.19164753
122	0x3e916b51	0.28402188
123	0x3e43ae32	0.19109419
124	0x3e17ddc9	0.14830698
125	0x3dd585d4	0.10425916
126	0x3e3e8cee	0.18608448
127	0x3d895fa5	0.06707696
128	0x3e63e9d2	0.22257164
129	0x3e46272b	0.19350879
130	0x3eaed7e3	0.34149083
131	0x3e1cee20	0.15325212
132	0x3e093f23	0.13402991
133	0x3e9fd97e	0.3122062
134	0x3e2f3ad1	0.1711228
135	0x3e3b1318	0.18269002
136	0x3e2ac843	0.16677956
137	0xbd09f32e	-0.03367918
138	0x3e9495e9	0.29020622
139	0xbd17b3d1	-0.03703672
140	0x3e5e534c	0.21711463
141	0x3e957aa4	0.2919513
142	0x3e93a5b0	0.28837347
143	0x3e2aa7c6	0.16665563
144	0x3e1a0195	0.15039666
145	0x3e94e202	0.2907868
146	0x3e022c92	0.12712315
147	0x3da463ec	0.08026871
148	0x3dfad36a	0.12247355
149	0xbc7d26f7	-0.0154511845
150	0x3d9c388e	0.076279745
151	0xbc4db0d6	-0.012554368
152	0x3e05ad51	0.13054396
153	0x3f03e49c	0.51520705
154	0x3e2f4339	0.17115487
155	0x3e18004c	0.14843863
156	0x3e069bed	0.13145418
157	0xbcf581f3	-0.029969191
158	0x3ea1614d	0.31519547
159	0x3d596f62	0.05308474
160	0x3e1b5445	0.15168865
161	0x3eb19e45	0.34691063
162	0x3e985e8f	0.29759642
163	0x3c902b71	0.01759884
164	0x3e9d7a6c	0.30757463
165	0x3e8d3610	0.2758031
166	0x3e65917a	0.22418776
167	0x3e34b17b	0.17645828
168	0x3daafe4d	0.08349285
169	0x3bf0babb	0.0073464788
170	0x3e83b932	0.2572723
171	0x3e85b195	0.26112047
172	0xbd1b0598	-0.03784713
173	0x3e9feeb3	0.312368
174	0x3e540a43	0.2070704
175	0x3da7948b	0.08182629
176	0x3e12b8b3	0.1432827
177	0x3e35412e	0.17700645
178	0x3e3cd677	0.18441187
179	0x3d925cd7	0.07146614
180	0x3d55f4b4	0.05223532
181	0x3e6c97a6	0.23104724
182	0x3eb5d6f9	0.35515574
183	0x3ea1bbd0	0.31588602
184	0x3e711ac0	0.2354536
185	0x3ea0f041	0.314333
186	0x3e102003	0.14074712
187	0x3e836a15	0.25666872
188	0x3e30080a	0.17190567
189	0x3eac908d	0.33704033
190	0x3dffd74b	0.12492236
191	0x3e3b6971	0.18301941
192	0x3d1cef7b	0.038314324
193	0xbe5b11bb	-0.21393482
194	0x3e80d949	0.25165775
195	0xbd883975	-0.06651584
196	0x3de306dc	0.11085293
197	0x3ea8cc57	0.329684
198	0x3e398fcf	0.18121265
199	0x3ead322d	0.33827344
200	0x3e59388e	0.2121298
201	0x3c70e1f7	0.014702312
202	0x3e80df26	0.2517025
203	0x3dac7fca	0.08422811
204	0x3e2b5356	0.16731009
205	0x3ea529bf	0.32258412
206	0x3e864585	0.26224914
207	0x3d9b1057	0.07571476
208	0x3dfacec4	0.12246469
209	0x3e9d8dde	0.307723
210	0x3e2339aa	0.15939966
211	0x3e9cc894	0.3062178
212	0x3e686160	0.22693396
213	0x3e43d562	0.19124368
214	0x3eb3efee	0.3514399
215	0x3e21bdf7	0.15795122
216	0x3d7fd607	0.06245997
217	0x3e355a81	0.17710306
218	0x3e5645db	0.20925085
219	0x3e0461d2	0.1292794
220	0x3e79b7fb	0.24386589
221	0x3e50e54a	0.20399967
222	0x3e9ab226	0.3021404
223	0x3e50d8a4	0.20395142
224	0x3ded10db	0.115754806
225	0x3e3bedee	0.18352482
226	0x3e814c03	0.25253305
227	0x3e343a33	0.17600326
228	0x3d8de181	0.06927777
229	0xbde080ac	-0.10962042
230	0x3eb73438	0.35782027
231	0xbb8d7613	-0.004317054
232	0x3e0c3f4d	0.13696022
233	0x3a01b8a6	0.0004948474
234	0x3eaa7d43	0.33298692
235	0x3dac5652	0.08414902
236	0x3e4976f5	0.19674285
237	0x3e80d1ea	0.25160152
238	0x3e920211	0.28517202
239	0x3e8227b5	0.2542092
240	0xbc1c2d68	-0.00953231
241	0x3d848364	0.06470373
242	0x3e9a3ce8	0.30124593
243	0x3e25c1cb	0.16187207
244	0x3e40807f	0.18799017
245	0x3e21fff1	0.1582029
246	0x3e945ded	0.2897791
247	0x3e7c4388	0.24635136
248	0x3d52493d	0.051339377
249	0x3dad1b65	0.08452491
250	0x3e962b62	0.29329973
251	0x3e9d4805	0.3071901
252	0x3dd0ead3	0.10201039
253	0x3e86f434	0.26358187
254	0x3deada79	0.114674516
255	0x3e0b8094	0.13623267

weight_hh_l0 f4 [256, 64]
0	0x3d1cf68c	0.038321063
1	0x3d92ab50	0.071615815
2	0xbd9b8d5c	-0.075953215
3	0xbc39d4a0	-0.011342198
4	0x3d2a680c	0.041603133
5	0x3d9294be	0.071572766
6	0xbc56b8c0	-0.013105571
7	0xbd00d744	-0.031455293
8	0xbd67cb98	-0.056590647
9	0x3dff3e80	0.12463093
10	0xbdb89b22	-0.09013964
11	0xbd63e23c	-0.055635676
12	0x3d884d2c	0.06655344
13	0xbdbad5bc	-0.09122798
14	0xbd9ec0ee	-0.07751642
15	0x3c984d60	0.018591583
16	0xbdf0d070	-0.11758506
17	0x3c9819f0	0.018567055
18	0x3c417d70	0.011809692
19	0xbd2abc34	-0.04168339
20	0xbd6e992c	-0.058251545
21	0xbc8f0f00	-0.017463207
22	0xbca0e8b8	-0.019642219
23	0x3d51c608	0.051214248
24	0x3de7f91c	0.11326811
25	0xbd713bdc	-0.058894977
26	0x3d90de06	0.070735976
27	0xbd2d6f98	-0.042342752
28	0x3cc11f50	0.023574501
29	0xbc86b3c0	-0.016443133
30	0xbc1a4e70	-0.009418115
31	0x3d7c9ac8	0.06167105
32	0xbd8fa328	-0.070135415
33	0xbd852f80	-0.065032005
34	0xbc198720	-0.009370595
35	0xbdf90768	-0.12159616
36	0x3c5a27a0	0.013315111
37	0xbd15013c	-0.03637813
38	0x3c055aa0	0.008139282
39	0xbd86e3d2	-0.06586422
40	0x3ddd34f0	0.10801113
41	0xbdae313c	-0.085054845
42	0xbc9972d8	-0.01873152
43	0x3dfb4120	0.12268281
44	0x3df8f0a6	0.12155275
45	0xbca3f270	-0.020013064
46	0xbdef2970	-0.116778255
47	0x3dd3764c	0.10325298
48	0x3d66e428	0.05636993
49	0xbb87abc0	-0.0041403472
50	0x3d25ad58	0.040448517
51	0xbcb8dd88	-0.022566572
52	0xbda1600a	-0.07879646
53	0xbd85a8ac	-0.06526312
54	0xbdc3a866	-0.09553604
55	0xbc5aaff0	-0.013347611
56	0x3b837740	0.0040120184
57	0xbd7fd960	-0.062463164
58	0xbdd5c3b0	-0.10437715
59	0x3987d000	0.0002590418
60	0x3dc001f6	0.09375374
61	0x3dd79d5a	0.10528059
62	0xbd98e18c	-0.07464895
63	0x3cbd1638	0.023081884
64	0x3ba972a0	0.005171135
65	0x3dc3a538	0.09552997
66	0x3dbd6aa8	0.09248859
67	0xbd8325e0	-0.064037085
68	0x3d903710	0.07041752
69	0xbdbd378a	-0.09239109
70	0xbd8dcd24	-0.06923893
71	0xbdf828c2	-0.12117149
72	0x3d98e716	0.07465951
73	0xbdf1b6a0	-0.11802411
74	0x3b6d2c80	0.0036189854
75	0x3dd80dc2	0.10549499
76	0x3dde1b14	0.108450085
77	0x3daa7540	0.08323145
78	0x3de36320	0.11102891
79	0xbdc81d6c	-0.09771237
80	0x3db8f9e2	0.09032036
81	0xbd867548	-0.065653384
82	0x3df2fb22	0.11864306
83	0xbc5cdf60	-0.013480991
84	0x3d6c27c8	0.057655126
85	0xbd2638bc	-0.04058145
86	0xbc849bc8	-0.016187564
87	0x3d71d7c0	0.059043646
88	0xbdbcb46c	-0.092141
89	0x3cf30278	0.029664263
90	0xbdb99edc	-0.09063503
91	0x3a415800	0.0007375479
92	0x3dde5ee8	0.10857946
93	0x3d565d50	0.052335083
94	0xbcc1f448	-0.023676053
95	0xbdc48b0e	-0.09596835
96	0x3d8c6612	0.06855406
97	0x3dcf4f6e	0.10122572
98	0xbd22d804	-0.03975679
99	0xbc8b0e78	-0.016974673
100	0xbdb89256	-0.09012286
101	0xbd62bee8	-0.055357844
102	0x3d7440a8	0.059631974
103	0x3d801a82	0.06255056
104	0xbde8d526	-0.1136878
105	0xbdebe214	-0.1151773
106	0x3b965ca0	0.0045886785
107	0xbc9764e8	-0.018480733
108	0xbd421ccc	-0.047390744
109	0xbd06ec68	-0.0329403
110	0xbd6110a0	-0.054947495
111	0xbde80c9a	-0.113305286
112	0xbdd3e33a	-0.103460744
113	0xbd60bfe0	-0.054870486
114	0x3cbfb468	0.023401454
115	0x3de39552	0.11112465
116	0xbd6581b8	-0.056031913
117	0xbd90cbce	-0.07070123
118	0xbdfb93aa	-0.12284024
119	0x3d1c1844	0.03810908
120	0x3c8ebf90	0.017425328
121	0x3c2383c0	0.009980142
122	0xbdcb664c	-0.09931621
123	0x3cf00680	0.029299974
124	0x3c9cb8c0	0.019131064
125	0x3df45e54	0.11932054
126	0xbddc15ec	-0.10746369
127	0xbd9bbcfe	-0.07604407
128	0x3c2d1c10	0.010565773
129	0x3dceafa6	0.10092096
130	0xbd154e44	-0.036451593
131	0x3cae7d48	0.021299973
132	0x3df61de8	0.12017423
133	0x3c4406e0	0.01196453
134	0xbd2b9cdc	-0.04189764
135	0xbd940a72	-0.07228555
136	0xbd954e86	-0.07290368
137	0x3d30b738	0.04314348
138	0xbd812620	-0.063061
139	0x3df0e434	0.11762276
140	0x3d873d40	0.066034794
141	0x3dca543c	0.09879348
142	0x3df6e426	0.120552346
143	0x3c950a48	0.018193379
144	0xbd47c0a8	-0.048767716
145	0x3d25a1d8	0.04043755
146	0x3d656558	0.056004852
147	0xbd2eb248	-0.04265049
148	0x3df1468a	0.117810324
149	0xbdf0c408	-0.1175614
150	0xbc85b648	-0.01632227
151	0xbcfec878	-0.03110145
152	0x3de37c46	0.11107688
153	0x3dc8aee6	0.09798984
154	0x3dd530a0	0.10409665
155	0xbdc63888	-0.09678751
156	0xbda56756	-0.080763504
157	0x3dc8d838	0.098068655
158	0xbba2b640	-0.0049655735
159	0xbd7a7c28	-0.06115356
160	0x3de7a3ce	0.1131054
161	0xbdd2604e	-0.10272275
162	0x3dc1c794	0.09461895
163	0x3deabec0	0.11462164
164	0xbd84fa9a	-0.06493111
165	0xbda5eeca	-0.08102186
166	0xbb6e3400	-0.0036346912
167	0xbc5cb390	-0.013470545
168	0x3dd9ff48	0.10644394
169	0x3de7ce40	0.11318636
170	0x3dd34a4e	0.10316907
171	0xbccbe120	-0.024887621
172	0x3dd289de	0.10280202
173	0xbca719b8	-0.020398006
174	0xbd9d37ea	-0.076766804
175	0x3da4103e	0.080109105
176	0xbce28a00	-0.027653694
177	0x3d101f5c	0.035186157
178	0xbdbe0ae4	-0.09279421
179	0xbd407ef0	-0.046996057
180	0xbdd3e008	-0.10345465
181	0xbdb32480	-0.08747196
182	0xbd3d59d0	-0.04622823
183	0x3dfb21a4	0.12262276
184	0xbdf52aac	-0.1197103
185	0xbdbbf1a2	-0.09176947
186	0xbd8240a8	-0.063599885
187	0x3d92c858	0.07167119
188	0x3da009ee	0.07814394
189	0x3d806400	0.062690735
190	0xbdbdca7a	-0.09267135
191	0xbdfb9c7e	-0.12285708
192	0xbd03b65c	-0.032156333
193	0xbdeaaada	-0.114583686
194	0xbc8a44f8	-0.01687859
195	0xbdc6d0ae	-0.09707771
196	0x3b8efc60	0.0043635815
197	0xbd8381bc	-0.06421229
198	0x3dd07c58	0.10179967
199	0x3da73366	0.081641
200	0x3df1dd04	0.118097335
201	0x3d17becc	0.037047192
202	0xbddbe454	-0.107369095
203	0xbd9fe256	-0.07806842
204	0xbcda93c0	-0.02668178
205	0x3c170af0	0.009218916
206	0x3ccc7800	0.024959564
207	0x3d0e004c	0.034668252
208	0xbd816d90	-0.063197255
209	0x3dc9988a	0.09843548
210	0x3b910420	0.0044255406
211	0x3ddda1ae	0.108218536
212	0x3d155f68	0.03646794
213	0xbdbe719c	-0.09299013
214	0x3d563e84	0.052305713
215	0xbdf26a56	-0.11836688
216	0xbc7f9140	-0.015598595
217	0x3c8b1810	0.016979247
218	0x3d89072a	0.066908196
219	0xbd7445c8	-0.05963686
220	0xbd83e21c	-0.06439611
221	0x3dac12ea	0.08402045
222	0xbde7af6a	-0.113127545
223	0xbd5e7c7c	-0.054317936
224	0xbbf90f40	-0.007600695
225	0xbd043554	-0.03227742
226	0xbdd77edc	-0.105222434
227	0x3de2a8cc	0.11067352
228	0xbd6fd07c	-0.058548436
229	0xbdfd6ff8	-0.12374872
230	0xbd4c67ec	-0.049903795
231	0x3d866f9e	0.06564258
232	0x3df07e08	0.117427886
233	0xbdbc904c	-0.0920721
234	0x3dc00c3c	0.093773335
235	0x3c501f30	0.012702748
236	0xbd318e58	-0.04334864
237	0xbd1a5088	-0.037674457
238	0xbc4ee3e0	-0.012627572
239	0x3cdccae8	0.026952222
240	0xbd87414c	-0.06604251
241	0x3dca85ba	0.098887876
242	0xbd6d695c	-0.057961807
243	0xbd9aacea	-0.07552512
244	0xbd079dd8	-0.033109516
245	0x3c8b9b08	0.017041698
246	0xbd677c28	-0.05651489
247	0x3d8b84a6	0.0681241
248	0x3dcd06e0	0.10011077
249	0x3d9d0aa6	0.07668047
250	0x3d85b17e	0.065279946
251	0x3df46640	0.11933565
252	0xbd972a4c	-0.07381114
253	0xbd70af80	-0.05876112
254	0x3d640bd0	0.055675328
255	0xbdb20856	-0.08692996

bias_ih_l0 f4 [256]
0	0x3e52b71f	0.20577668
1	0x3e4a41a0	0.19751596
2	0x3de0dc73	0.10979547
3	0x3de0d306	0.109777495
4	0x3d01b5fb	0.03166769
5	0x3e2c9464	0.16853482
6	0xbccb89bb	-0.024845948
7	0x3d851f6c	0.06500134
8	0xbcfd8d6f	-0.03095123
9	0x3ddc7897	0.10765188
10	0x3e9c51d7	0.3053119
11	0xbdbfb9ef	-0.09361636
12	0xbc6f9955	-0.01462396
13	0x3c140ce9	0.009036281
14	0x3d97d5b6	0.07413809
15	0x3ddee184	0.108828574
16	0x3e73fcd7	0.2382692
17	0x3ccf158c	0.025278829
18	0x3e5a984b	0.21347158
19	0x3de3094f	0.1108576
20	0x3e1c88e8	0.152866
21	0xbc071981	-0.008245827
22	0x3e8d1f41	0.27562907
23	0xbcfa6bc0	-0.030568957
24	0x3d84846a	0.064705685
25	0x3d9ab8ea	0.07554801
26	0x3e8163ca	0.25271446
27	0x3e337f71	0.17529084
28	0x3e848280	0.25880814
29	0x3e78dfbc	0.24304098
30	0x3e2a3f6a	0.16625753
31	0x3d6b8374	0.05749841
32	0x3b37f917	0.0028072053
33	0x3dd1b5a0	0.1023972
34	0xbd65045f	-0.05591237
35	0x3e8b684a	0.27228004
36	0x3e707bd1	0.23484732
37	0x3dc519d8	0.0962407
38	0x3d1ccc77	0.03828093
39	0x3c47550d	0.012166274
40	0x3d43df47	0.047820356
41	0x3e90a465	0.28250423
42	0x3e55734a	0.2084476
43	0x3e1e014d	0.15430184
44	0x3e4f0ed6	0.20220503
45	0x3ded1838	0.11576885
46	0x3d518227	0.051149514
47	0x3e46ce72	0.1941469
48	0x3d1f9d8c	0.038968608
49	0x3e33f551	0.1757405
50	0x3e874e6b	0.26427016
51	0x3c227145	0.009914701
52	0x3d8d6836	0.06904642
53	0x3d9e01c5	0.07715181
54	0x3c6a775d	0.014310685
55	0x3e937e6d	0.28807393
56	0x3e02b2b2	0.1276348
57	0xbd76fc99	-0.06029949
58	0x3e25d565	0.16194685
59	0x3e8359fd	0.25654593
60	0x3e0378e7	0.1283909
61	0x3e243ae9	0.16038097
62	0x3e838778	0.25689292
63	0x3e99abd4	0.30013907
64	0xbc9f0b50	-0.019414574
65	0xbd966eaa	-0.07345326
66	0xbd0dc78c	-0.03461413
67	0x3d994414	0.07483688
68	0x3c4de120	0.012565881
69	0x3c0f5c70	0.008750066
70	0x3dff900c	0.12478647
71	0x3c00fa20	0.007872134
72	0xbde4b2da	-0.11166926
73	0xbd7d56f0	-0.06185049
74	0xbdc223dc	-0.09479496
75	0x3da1c158	0.078982055
76	0xbcaae920	-0.020863116
77	0x3d7857e4	0.060630694
78	0x3ce38528	0.027773455
79	0xbdd7a858	-0.10530156
80	0x3d8377ca	0.06419332
81	0xbce1bac8	-0.027554885
82	0x3c8a6138	0.01689206
83	0xbcc47350	-0.023980767
84	0x3ac1f480	0.0014797598
85	0xbca42ca0	-0.02004081
86	0xbdde618e	-0.10858451
87	0xbd41fb64	-0.047358885
88	0xbcb65908	-0.02225925
89	0x3d820478	0.063485086
90	0x3df35c96	0.11882894
91	0xbc1f5400	-0.009724617
92	0x3de3759e	0.11106418
93	0x3d7fbcb8	0.062435836
94	0xbd178470	-0.036991537
95	0x3bbf0ec0	0.0058306158
96	0x3d5dd660	0.054159522
97	0xbc9c6d18	-0.019094989
98	0xbdc9a9dc	-0.09846851
99	0x3d638598	0.055547327
100	0xbbbbaec0	-0.005727619
101	0x3d9a6d46	0.075403735
102	0x3db47122	0.08810641
103	0x3ccb1678	0.024790987
104	0x3de73d68	0.11291009
105	0xbc7aa240	-0.0152974725
106	0x3d66e7e4	0.056373492
107	0xbca18630	-0.019717306
108	0xbcc15f30	-0.02360496
109	0x3ddf2572	0.10895814
110	0x3d0a5714	0.03377445
111	0x3cefdae0	0.029279172
112	0xbd25138c	-0.040301844
113	0x3d453600	0.0481472
114	0x3de6b01e	0.112640604
115	0xbd319538	-0.043355197
116	0xbd681e58	-0.056669563
117	0xbd5b7fc4	-0.053588644
118	0xbc8b2950	-0.016987473
119	0x3cc53938	0.024075136
120	0x3d989fa4	0.07452324
121	0xbd728c14	-0.05921562
122	0xbd64d8a4	-0.055870667
123	0x3ce13498	0.027490899
124	0x3d4e0948	0.05030182
125	0xbdaadb60	-0.08342624
126	0x3de5506a	0.111969784
127	0x3cc465a8	0.023974255
128	0xbd1590b6	-0.03651496
129	0x3e081182	0.13287929
130	0x3c878eff	0.016547678
131	0xbd7ac7dd	-0.06122576
132	0xbcbeeadf	-0.023305355
133	0xbd26d18c	-0.040727183
134	0xbd465d97	-0.048429098
135	0xbd84082e	-0.06446873
136	0xbb9a583c	-0.0047102254
137	0x3d8033e0	0.06259894
138	0xbdb5ec3a	-0.08882947
139	0xbcfa5b5c	-0.030561142
140	0xbd6a863e	-0.05725693
141	0x3cd61769	0.02613421
142	0x3b853262	0.004064844
143	0xbd806dd2	-0.062709466
144	0xbe36334e	-0.17793009
145	0x3dcdb430	0.10044134
146	0xbdcd04e0	-0.100106955
147	0x3d76beda	0.060240604
148	0x3bea407e	0.0071488013
149	0xbd10b71e	-0.035330884
150	0xbc1e8102	-0.009674313
151	0x3ce04777	0.027377827
152	0x3e3e3c6d	0.18577738
153	0xbe2885bc	-0.16457266
154	0xbd8e27dc	-0.06941196
155	0x3beb107e	0.007173597
156	0x3cbfdc68	0.023420528
157	0x3d58decb	0.052946847
158	0x3d7a4db0	0.061109245
159	0x3be7b6a0	0.007071331
160	0x3deabdaf	0.114619605
161	0xbd2f642e	-0.04282015
162	0xbb6d43d7	-0.0036203766
163	0x3d05b7a6	0.032645844
164	0x3cca09f0	0.024662942
165	0xbb79fcde	-0.0038145105
166	0x3d182854	0.037147835
167	0xbc748f14	-0.014926691
168	0xbd99f8d2	-0.07518162
169	0x3df87a27	0.12132674
170	0xbdb75e28	-0.08953506
171	0x3cdbf000	0.02684784
172	0xbcb43143	-0.021996146
173	0xbc09aaf9	-0.008402579
174	0x3da0380b	0.07823189
175	0x3e0789bd	0.13236137
176	0xbc4f886c	-0.012666803
177	0xbe24a048	-0.16076767
178	0xbd641d85	-0.055692215
179	0x3c798ace	0.0152308475
180	0x3c836d95	0.016043464
181	0xbd2eb1de	-0.042650096
182	0xbd77782a	-0.06041733
183	0x3d1f39f7	0.03887364
184	0xba3ebde3	-0.000727622
185	0x3de6e56b	0.11274227
186	0x3d326318	0.043551534
187	0xbdbe1a7e	-0.09282397
188	0xbc91d145	-0.017799983
189	0x3d96b13c	0.073580235
190	0xba6d39a9	-0.00090494246
191	0x3dd62c82	0.10457708
192	0x3e141b97	0.1446365
193	0x3daa292a	0.08308633
194	0x3d6c8e9b	0.057753187
195	0x3b2b2d2f	0.002611946
196	0x3d970bb3	0.07375278
197	0x3ddd920b	0.10818871
198	0x3e4bc3d7	0.19898926
199	0x3ddc62da	0.10761042
200	0xbc7b5c19	-0.015341782
201	0x3e80c1b3	0.2514778
202	0x3e560803	0.20901494
203	0x3d7448f6	0.059639893
204	0x3db7130f	0.08939182
205	0x3cb40bf5	0.021978358
206	0x3d0ae105	0.033906
207	0xbcf42756	-0.029803913
208	0x3e7909e3	0.24320178
209	0x3e412351	0.18861128
210	0x3e04738a	0.129347
211	0x3e2cbb91	0.16868426
212	0x3dc86a14	0.09785858
213	0x3bd8c3f7	0.0066151577
214	0x3e9a6e59	0.30162314
215	0x3e1ade62	0.15123895
216	0x3dcc1cd7	0.09966438
217	0x3d9dbfc5	0.07702593
218	0x3ec4fdd7	0.38474914
219	0x3c8e8817	0.017398877
220	0x3e3079fc	0.17234033
221	0x3e1c08ec	0.15237778
222	0x3e6a109d	0.228579
223	0x3e417ff8	0.18896472
224	0x3d9ddab9	0.07707734
225	0x3e39c532	0.1814163
226	0x3dc29b3a	0.09502263
227	0x3e3c6898	0.18399274
228	0x3d707846	0.05870845
229	0x3d676f23	0.056502473
230	0x3de8f56c	0.113749355
231	0xbce4c52a	-0.027926046
232	0xbcb4eb14	-0.02208475
233	0x3e352dc3	0.17693238
234	0x3e028ebc	0.12749761
235	0x399ee416	0.00030306046
236	0x3e829223	0.25502118
237	0x3e346dc4	0.17619997
238	0x3dbbb6b7	0.091657095
239	0x3e32615d	0.17419954
240	0xbd405d2c	-0.046963856
241	0x3eaff064	0.3436309
242	0x3e5d5c46	0.21617231
243	0x3d18cf9c	0.037307367
244	0x3e584490	0.21119905
245	0x3e06540a	0.13117996
246	0x3e3f9964	0.18710858
247	0x3e89258d	0.2678646
248	0x3e3da0e2	0.18518403
249	0x3d4c2037	0.04983541
250	0xbd1b62c7	-0.037936
251	0x3e8556c7	0.26042768
252	0x3d93e21f	0.072208636
253	0x3e2ecd68	0.17070544
254	0x3ea951bd	0.33070174
255	0x3da855ea	0.08219512

bias_hh_l0 f4 [256]
0	0x3e83947f	0.2569923
1	0x3e16564f	0.14681362
2	0x3dc0cd39	0.09414143
3	0x3e0176ca	0.1264297
4	0xbb7e0c7d	-0.0038764768
5	0x3e50b13a	0.20380107
6	0x3d8a3295	0.06747929
7	0xbc1d3cd3	-0.009597021
8	0x3ce92209	0.028458612
9	0x3e431a63	0.19053034
10	0x3e1d8f4f	0.15386699
11	0xbd17fb03	-0.037104618
12	0x3dad07f2	0.08448781
13	0x3d9cfcb4	0.07665387
14	0x3e228045	0.15869243
15	0x3e12f5a7	0.14351521
16	0x3e3bd9b1	0.18344761
17	0x3e43f1f6	0.1913527
18	0x3d5c9bd3	0.053859543
19	0xbc44afd7	-0.012004814
20	0x3e74e62b	0.23915927
21	0x3bd484f1	0.0064855744
22	0x3e285b49	0.16441073
23	0xbb065460	-0.0020497069
24	0x3dfcd5e4	0.12345484
25	0x3e0c47be	0.13699242
26	0x3ea314e8	0.31851888
27	0x3e64aa05	0.22330482
28	0x3e317b7a	0.17332259
29	0x3e45e0f4	0.19324094
30	0x3e69070a	0.22756591
31	0x3e241ca3	0.16026549
32	0x3e5590a3	0.20855956
33	0x3e058d22	0.13042119
34	0x3e26baef	0.16282247
35	0x3e65913c	0.22418684
36	0x3e67d115	0.22638352
37	0x3e0ce6ef	0.13759969
38	0x3c47cbbd	0.012194571
39	0xbcbcbcb7	-0.023039205
40	0xbd91e31b	-0.07123395
41	0x3e07d0b6	0.1326321
42	0x3e7e508e	0.24835417
43	0x3e25da42	0.1619654
44	0x3df1b92a	0.11802895
45	0x3e74224a	0.23841205
46	0x3d9f713f	0.07785272
47	0x3dbb3254	0.09140459
48	0x3d38e350	0.045138657
49	0x3e341719	0.17586936
50	0x3e2011b5	0.15631755
51	0x3dcf528b	0.10123166
52	0x3e1297af	0.14315675
53	0x3d9a8fbf	0.07546949
54	0x3d4e5258	0.050371498
55	0x3dc8b240	0.097996235
56	0x3e597d09	0.21239103
57	0xbd49d840	-0.049278498
58	0x3cb57b6c	0.022153579
59	0x3e456aed	0.1927907
60	0x3d7bcac2	0.06147266
61	0x3e738f05	0.23785026
62	0x3e7aef35	0.24505313
63	0x3e2b88ae	0.16751358
64	0xbd87f5aa	-0.066386536
65	0xbdf0d2c6	-0.11758952
66	0x3b04e700	0.0020279288
67	0x3d907644	0.070538074
68	0x3dc21c76	0.09478085
69	0xbb1319c0	-0.0022445768
70	0xbdecd3a8	-0.11563808
71	0xbd163b3c	-0.036677584
72	0x3c8092a8	0.015694931
73	0x3dd55044	0.104157
74	0x3ca9a880	0.02071023
75	0x3d1cf804	0.038322464
76	0xbcec3768	-0.028835014
77	0xbdbe820e	-0.0930215
78	0x3cb5a240	0.022172093
79	0xbd405e9c	-0.046965227
80	0xbddb6cdc	-0.10714123
81	0xbcd260d8	-0.025680944
82	0x3d8ff824	0.07029751
83	0xbdb20ea4	-0.08694199
84	0xbc0d6860	-0.008630842
85	0xbd752164	-0.059846297
86	0x3cc610d0	0.024177939
87	0xbdc4f534	-0.09617081
88	0xbdd34716	-0.10316293
89	0xbdb8f1de	-0.090305075
90	0x3c8edce8	0.01743932
91	0x3ccfb450	0.025354534
92	0x3dbb916e	0.09158598
93	0x3d649ee0	0.055815578
94	0x3d5183f4	0.05115123
95	0x3de66d48	0.112513125
96	0xbd5eb694	-0.05437334
97	0x3d923e02	0.07140733
98	0xbda81f04	-0.08209041
99	0x3dbe8938	0.09303516
100	0x3d09a0c8	0.0336006
101	0xbdef3090	-0.116791844
102	0xbc736cd0	-0.014857486
103	0x3dad6844	0.08467153
104	0xbded45a0	-0.115855455
105	0xbcbf8db8	-0.023383006
106	0xbdb60880	-0.0888834
107	0xbd1870b8	-0.037216872
108	0xbdf42a1a	-0.11922093
109	0xbdbef188	-0.09323412
110	0xbc5316b0	-0.012883827
111	0x3d4e37c0	0.050346136
112	0xbc99a900	-0.018757343
113	0xbd4c181c	-0.04982768
114	0x3c2a9630	0.010411784
115	0xbcb42388	-0.021989599
116	0xbbcdbf80	-0.006278932
117	0x3d91b8f0	0.07115352
118	0xbd9fdca4	-0.07805756
119	0xbc929d10	-0.017897159
120	0xbd9ea7d4	-0.077468544
121	0x3d9652d4	0.07340017
122	0x3deb334a	0.11484392
123	0xbdad900e	-0.08474742
124	0xbdbfd80a	-0.09367378
125	0x3d66c1b8	0.05633709
126	0xbdff02ae	-0.12451683
127	0xbdfcae5a	-0.123379424
128	0x3dd45c43	0.1036916
129	0xbd79e120	-0.06100571
130	0xbca301c5	-0.019898305
131	0xbd7ea651	-0.06217033
132	0x3da2a708	0.07942015
133	0xbcc57ce0	-0.024107397
134	0x3cfae2c2	0.030625705
135	0x3cbcf96f	0.023068158
136	0x3d5e6670	0.05429691
137	0x3dda3155	0.106539406
138	0xba2f4d48	-0.0006687236
139	0x3cbca859	0.023029493
140	0x3db24492	0.08704485
141	0x3c385723	0.011251244
142	0xbc6272cd	-0.013821316
143	0x3cf64a3f	0.0300647
144	0x3cce4a7b	0.025182
145	0xbc94b303	-0.018151766
146	0xbd306115	-0.043061335
147	0x3ce4d594	0.027933873
148	0x3e43b5e9	0.19112362
149	0xbd42ace3	-0.04752816
150	0x3da2f666	0.07957153
151	0x3d80f17b	0.06296059
152	0xbc074508	-0.008256204
153	0xba3ed788	-0.00072800415
154	0x3d568827	0.05237594
155	0xbe17416d	-0.14771052
156	0xbd09b9d9	-0.033624504
157	0x3d9a35ad	0.07529769
158	0xbc7a11eb	-0.015263061
159	0x3d457713	0.04820926
160	0xbcc4af13	-0.024009263
161	0xbde01775	-0.10941974
162	0xbc84ef82	-0.016227487
163	0x3dad1ed8	0.084531486
164	0x3d3e610b	0.046479266
165	0xbb4e5165	-0.003148162
166	0x3d02e5b0	0.03195733
167	0xbd75205e	-0.05984532
168	0x3d8abf03	0.06774714
169	0x3cff250f	0.0311456
170	0xbc10827e	-0.008820174
171	0xbb3a25b1	-0.0028403813
172	0xbdb120d2	-0.08648838
173	0xbdd40ef3	-0.10354414
174	0x3d822d9b	0.06356355
175	0xbb8ea52f	-0.0043531875
176	0xbd8f3be2	-0.069938436
177	0xbd0ea056	-0.034820877
178	0xbdac7eb9	-0.08422608
179	0xbd6806ec	-0.056647226
180	0xbda2b244	-0.07944158
181	0xbdd80359	-0.105475135
182	0xbceba419	-0.028764771
183	0xbe04d21b	-0.12970774
184	0xbe07433b	-0.1320924
185	0xbd315519	-0.043294046
186	0x3cbc1d94	0.022963323
187	0x3cee148c	0.029062532
188	0xbcbb7b90	-0.022886068
189	0x3d9b45c9	0.0758167
190	0x3db8e303	0.09027674
191	0x3c8d3f64	0.017242141
192	0x3e724b93	0.23661642
193	0x3e026736	0.12734684
194	0xbd51feb0	-0.05126828
195	0x3dc68a0f	0.09694301
196	0x3d7d406a	0.06182901
197	0x3d86c049	0.06579644
198	0x3d95e07a	0.07318206
199	0x3e061e80	0.13097572
200	0x3dd9f4e5	0.10642413
201	0x3e37011f	0.17871521
202	0x3e8ef0e5	0.27918163
203	0xbd94497e	-0.0724058
204	0x3de1cd2c	0.110254616
205	0x3d233220	0.039842725
206	0x3e214e69	0.15752567
207	0x3e0290c6	0.12750539
208	0x3e2bdf46	0.16784391
209	0x3e69cfec	0.22833222
210	0x3e0b12ff	0.13581465
211	0x3dd1403f	0.10217332
212	0x3e37352c	0.17891377
213	0xbd0adfd0	-0.03390485
214	0x3ed29905	0.4113237
215	0x3e4d35cb	0.20040052
216	0x3dd6017b	0.10449501
217	0x3d87503f	0.066071026
218	0x3eb275d3	0.34855518
219	0x3e52844f	0.20558284
220	0x3e2ac54d	0.16676827
221	0x3e461f7c	0.19347948
222	0x3eabc3ba	0.33547765
223	0x3e5cc053	0.21557741
224	0x3e325d91	0.17418505
225	0x3e675308	0.22590268
226	0x3c668684	0.014070157
227	0x3e2a6755	0.1664098
228	0x3e456969	0.19278492
229	0xbd0d1978	-0.034448117
230	0x3d8f5491	0.06998552
231	0x3dcf2f07	0.10116392
232	0xbcee4471	-0.02908537
233	0x3e149631	0.14510418
234	0x3e8e157c	0.27750766
235	0xbd8e2d92	-0.069422856
236	0x3d29dee8	0.041472346
237	0x3e45df94	0.1932357
238	0x3dc7e31d	0.09760115
239	0x3e097660	0.13424063
240	0xbd6c25e8	-0.057653338
241	0x3e433fd7	0.19067322
242	0x3dd2fc04	0.103019744
243	0x3d3bf835	0.045891006
244	0x3dd406da	0.10352869
245	0x3e0a91eb	0.13532226
246	0x3deb5c53	0.11492219
247	0x3e5f71e5	0.21820791
248	0x3d769b2b	0.060206573
249	0xbcdec70a	-0.027194519
250	0x3e394e81	0.18096353
251	0x3e2c3729	0.16817917
252	0xbd54b1e2	-0.051927455
253	0x3e671fa4	0.22570664
254	0x3e67bbc5	0.22630222
255	0x3e051f5c	0.13000244

weight_ih_l1 f4 [256, 64]
0	0xbe62bd34	-0.22142488
1	0x3ae16169	0.0017195168
2	0xbde6a069	-0.112610646
3	0x3d89a197	0.06720274
4	0xbde56edc	-0.112027854
5	0xbca6db7b	-0.020368328
6	0x3d705176	0.058671437
7	0xbc8faf61	-0.017539682
8	0x3dc5fcd1	0.096673615
9	0xbe35cb51	-0.1775334
10	0x3e060ddc	0.13091224
11	0xbd200669	-0.039068613
12	0x3d1124a1	0.035435323
13	0xbdcb6cfd	-0.09932897
14	0x3e24ec8b	0.16105859
15	0xbb1bfa13	-0.002380018
16	0x3e027ce6	0.12742957
17	0xbd5d2895	-0.05399378
18	0xbbfcd65f	-0.0077159847
19	0x3e1cfd7d	0.15331073
20	0xbc848f4d	-0.016181612
21	0xbdb6df63	-0.089293264
22	0xbe56708e	-0.20941374
23	0xbda93d2d	-0.082636215
24	0xbd59e2d7	-0.053194847
25	0x3dc3e08d	0.09564314
26	0x3d3e29ba	0.046426512
27	0x3e500eb8	0.20318115
28	0x3e43edfc	0.19133753
29	0xbe708a5b	-0.23490278
30	0xbe1ff1bd	-0.1561956
31	0x3bfe2995	0.007756422
32	0xbe765de5	-0.24059255
33	0xbc5ead1d	-0.013591078
34	0xbdd2cea8	-0.10293323
35	0xbdeb591c	-0.11491606
36	0xbd0e0cd4	-0.034680203
37	0xbb3234dd	-0.0027192154
38	0x3df2d04c	0.11856136
39	0xbcd10a9a	-0.02551775
40	0xbe274726	-0.16335735
41	0xbe270a81	-0.163126
42	0x3e266153	0.16248064
43	0x3d8dc5f7	0.069225244
44	0xbc0b7600	-0.00851202
45	0x3d9f82d7	0.077886276
46	0xbd5afd6f	-0.05346435
47	0xbe28fc49	-0.16502489
48	0xbdaa68cb	-0.08320769
49	0x3db10c82	0.08644964
50	0x3e4a2573	0.19740848
51	0x3d81f389	0.06345279
52	0x3da0df23	0.0785506
53	0x3d10987f	0.03530168
54	0xbcc1d1cc	-0.02365961
55	0xbcf37dd4	-0.029723085
56	0x3e0844ae	0.13307449
57	0x3d71ffe6	0.059081934
58	0xbcec1ecf	-0.028823284
59	0x3c6a0a4c	0.0142846815
60	0xbcf5a940	-0.029987931
61	0xbe1bb73f	-0.15206622
62	0xbe472e72	-0.19451311
63	0xbe047745	-0.12936123
64	0x3da393b0	0.079871535
65	0x3e35a484	0.17738539
66	0xbbf0269f	-0.0073288227
67	0x3d683c4c	0.05669813
68	0xbd970076	-0.07373135
69	0x3e385211	0.18000056
70	0x3df533e8	0.11972791
71	0xbc042c23	-0.008067164
72	0x3d4ef606	0.050527595
73	0xbe0c8b50	-0.13725019
74	0x3c887874	0.016658999
75	0x3cbf35a9	0.023341017
76	0x3d0e3a0b	0.034723323
77	0xbdfa14a4	-0.12210968
78	0xbc846fd8	-0.016166613
79	0x3d860ba1	0.06545187
80	0x3e5fb3e4	0.21845967
81	0xbdd8b03a	-0.105804875
82	0xbc41746e	-0.011807544
83	0x3dbc3fe4	0.09191874
84	0xbd97fe0e	-0.07421504
85	0xbe0750ef	-0.13214467
86	0xbccaeefb	-0.024772158
87	0xbcd5f465	-0.026117513
88	0xbe20ebe9	-0.15714993
89	0x3dfff62e	0.12498127
90	0x3e06068c	0.13088435
91	0x3cc47c89	0.023985164
92	0x3d7a2a62	0.061075576
93	0xbda679cd	-0.081287004
94	0xbd381aba	-0.044947363
95	0x3d537137	0.051621642
96	0x3d0b2fbf	0.03398108
97	0x3d557a8f	0.052118834
98	0xbe064633	-0.13112716
99	0xbdc717a3	-0.09721305
100	0xbdfadec0	-0.122495174
101	0xbd452839	-0.048134062
102	0x3e355929	0.17709793
103	0x3d485d81	0.048917297
104	0xbdeb93a1	-0.11502767
105	0xbdd3862d	-0.103283264
106	0x3d3eca3c	0.046579584
107	0x3df0c684	0.11756614
108	0x3e1c6dd8	0.15276277
109	0xbc49e788	-0.012323268
110	0xbd852a78	-0.06502241
111	0xbe2a3be9	-0.16624416
112	0xbe200efe	-0.15630719
113	0x3e062a04	0.13101965
114	0xbda1647b	-0.07880493
115	0xbe350d91	-0.17680956
116	0x3d819dd1	0.06328929
117	0x3e46f886	0.19430742
118	0xbdc1755f	-0.09446215
119	0x3e2733d1	0.1632836
120	0x3d760c8f	0.06007057
121	0x3c87e965	0.016590783
122	0x3da3bec0	0.07995367
123	0x3e4d791a	0.20065728
124	0x3e1d6ccd	0.15373535
125	0xbdb1aa52	-0.08675064
126	0x3dcb2e98	0.099209964
127	0xbe7171a0	-0.23578501
128	0xbdb59971	-0.08867157
129	0x3cff3d14	0.031157054
130	0xbe1d62e6	-0.15369758
131	0x3d0d1314	0.034442022
132	0xbde1718b	-0.11007985
133	0x3e057381	0.13032342
134	0x3d05ad84	0.03263618
135	0xbcbb460f	-0.022860555
136	0x3e0c23ed	0.1368558
137	0xbddcbd05	-0.1077824
138	0x3e53d5ad	0.2068698
139	0xbe2917ce	-0.16512987
140	0x3cd3e94b	0.025868079
141	0xbd8e593a	-0.06950612
142	0xbcb4a7b7	-0.022052629
143	0x3cca54d8	0.02469866
144	0x3dfc3752	0.12315239
145	0xbb83f9c1	-0.0040275757
146	0x3e2fd8e3	0.1717258
147	0x3b159c23	0.002282866
148	0xbd8e21ca	-0.069400385
149	0xbda4e3e0	-0.08051276
150	0xbde84d6e	-0.113428935
151	0xbaac7336	-0.0013156894
152	0xbd900387	-0.07031923
153	0x3e48fa47	0.19626723
154	0xbe0c5445	-0.13704021
155	0x3e150e00	0.14556122
156	0x3e5c64b4	0.2152279
157	0xbe0b76d5	-0.1361955
158	0xbe7985bf	-0.24367426
159	0xbd06ac81	-0.032879356
160	0xbe401877	-0.18759333
161	0xbd79455a	-0.060857154
162	0x3cb6882b	0.022281727
163	0xbe025fd1	-0.12731864
164	0xbe1d60ce	-0.1536896
165	0xbe05aea8	-0.13054907
166	0xbd1f39b1	-0.03887338
167	0x3e421f27	0.18957196
168	0xbd9cd073	-0.07656946
169	0xbd1ab7ae	-0.037772827
170	0x3e122854	0.14273196
171	0xbd1c7fe6	-0.03820791
172	0x3e067265	0.13129576
173	0x3e24c860	0.16092062
174	0x3ca57228	0.020196036
175	0xbd339955	-0.0438474
176	0xbe33b25e	-0.1754851
177	0x3d52845e	0.051395766
178	0x3d396bfe	0.045269005
179	0xbe303c6f	-0.17210554
180	0xbd82e537	-0.063913755
181	0x3d4fc5ed	0.050725866
182	0x3c5f472f	0.013627811
183	0xbcb34d5b	-0.021887472
184	0xbd643f58	-0.05572447
185	0x3af2e907	0.0018532582
186	0x3dd882a6	0.10571794
187	0x3d3a7c26	0.045528553
188	0x3dd89ce0	0.105767965
189	0xbe2d5f85	-0.16930969
190	0xbd9ceb62	-0.07662083
191	0xbcdb5a61	-0.026776494
192	0xbdc1caba	-0.09462495
193	0x3e299d43	0.16563897
194	0xbe49e490	-0.19716096
195	0xbdce1fc5	-0.10064653
196	0xbdce5a34	-0.10075799
197	0x3e17437a	0.14771834
198	0x3cf78b4f	0.030217795
199	0xbc8a3442	-0.016870622
200	0x3dd452d0	0.10367358
201	0xbe64eb32	-0.22355345
202	0x3d8397e0	0.06425452
203	0xbe0fdb29	-0.14048447
204	0xbddfe85d	-0.10932992
205	0xbd5074c9	-0.050892625
206	0x3de5e429	0.11225159
207	0xbda72802	-0.08161928
208	0x3d7ebb4b	0.062190335
209	0xbdccea22	-0.10005595
210	0x3e382da5	0.17986162
211	0x3d1bc977	0.03803393
212	0xbd976208	-0.07391745
213	0xbda9d9e8	-0.082935154
214	0xbdafce09	-0.0858422
215	0xbd51f851	-0.051262204
216	0xbd4bb973	-0.049737405
217	0x3c548951	0.012972192
218	0xbd61f430	-0.055164516
219	0x3d6e76ab	0.05821864
220	0xbda5e663	-0.081005834
221	0xbcf3f40b	-0.029779455
222	0x3d692552	0.056920357
223	0xbe1c977a	-0.15292159
224	0xbe012656	-0.1261228
225	0x3cf8928a	0.030343313
226	0xbc5b1631	-0.01337199
227	0xbd19f9b6	-0.03759166
228	0xbc8da9b4	-0.017292835
229	0x3ab4cae8	0.0013793381
230	0x3e126a7a	0.1429843
231	0x3de64163	0.1124294
232	0xbdc3aaa9	-0.09554035
233	0xbe01f1a8	-0.12689841
234	0x3e10a636	0.14125904
235	0x3dc95e5b	0.0983245
236	0x3cccadc1	0.024985196
237	0x3d9a6c19	0.07540149
238	0xbe558171	-0.20850159
239	0xbe516ed0	-0.20452428
240	0xbe012347	-0.12611113
241	0x3de327d5	0.11091582
242	0xbd43d40c	-0.047809646
243	0x3b32b3c2	0.0027267789
244	0x3d590f4c	0.052993104
245	0x3df69f09	0.12042052
246	0xbe334a6d	-0.1750886
247	0x3e0b6790	0.13613725
248	0x3e2bd436	0.16780171
249	0x3dde1dfc	0.10845563
250	0x3d401cb4	0.046902373
251	0x3e33931a	0.17536584
252	0x3d867a9f	0.06566357
253	0xbd9afac6	-0.075673625
254	0xbc4df9b0	-0.012571737
255	0xbe35a5ef	-0.1773908

weight_hh_l1 f4 [256, 64]
0	0x3cb4e760	0.022082984
1	0x3cc20da8	0.023688152
2	0x3db5015a	0.088381484
3	0xbdbbfa88	-0.091786444
4	0xbd194798	-0.037421793
5	0x3deec558	0.11658734
6	0x3d018a84	0.03162624
7	0xbd1c0818	-0.038093656
8	0x3db8d5f6	0.09025185
9	0x3ce35358	0.027749702
10	0x3dca057a	0.09864326
11	0xbdf78dc2	-0.12087585
12	0x3daad9d2	0.08342327
13	0xbddeaeb2	-0.10873164
14	0x3dd9942a	0.10623963
15	0xbd05240c	-0.03250508
16	0x3d845afe	0.06462668
17	0x3c9301f8	0.017945275
18	0xbde28a76	-0.110615656
19	0xbcb68518	-0.02228026
20	0x3dd5cee6	0.10439853
21	0x3d445274	0.047930196
22	0xbcd85080	-0.026405573
23	0xbdc37702	-0.09544183
24	0x3de09b12	0.10967077
25	0xbba2c900	-0.0049678087
26	0x3d003320	0.031298757
27	0x3c4185d0	0.011811689
28	0x3db00e22	0.085964456
29	0x3d93626e	0.07196508
30	0xbd837e50	-0.064205766
31	0xbdf01932	-0.117235556
32	0xbd489fa4	-0.04898037
33	0x3dcdf8a0	0.10057187
34	0x3def7550	0.116922975
35	0x3de02ef2	0.10946454
36	0x3de89302	0.113561645
37	0x3d9df9de	0.07713674
38	0xbdb3ca90	-0.0877887
39	0xbce68a88	-0.028142229
40	0xbc045930	-0.008077905
41	0x3d4cb740	0.04997945
42	0xbd8f2100	-0.06988716
43	0x3de588cc	0.112077326
44	0x3d03e3ec	0.032199785
45	0x3dba0592	0.09083094
46	0x3dc9f2d2	0.098607674
47	0x3dbfb76c	0.09361157
48	0x3cad72c0	0.021172881
49	0x3d7f662c	0.062353298
50	0x3d1035c4	0.035207525
51	0xbd99a4fa	-0.0750217
52	0x3dff719a	0.1247284
53	0x3d542f44	0.05180289
54	0xbd822674	-0.063549906
55	0x3caeb548	0.021326676
56	0x3d34b634	0.044119075
57	0xbdfe979e	-0.124312624
58	0xbc913a28	-0.017727926
59	0x3d360a70	0.044443548
60	0xbd9b5c92	-0.07586016
61	0xbde2034c	-0.11035785
62	0x3d987bda	0.07445498
63	0x3ccf34f8	0.025293812
64	0x3d014390	0.031558573
65	0xbce64f90	-0.02811411
66	0xbc7b9eb0	-0.015357658
67	0x3d98320c	0.07431421
68	0x3d3e050c	0.04639153
69	0x3d74e9c4	0.05979325
70	0xbd3ef82c	-0.046623394
71	0xbd011a20	-0.031519055
72	0xbd8d9fd6	-0.06915252
73	0xbddd4c8e	-0.10805617
74	0x3cb8edb0	0.022574276
75	0xbdf06690	-0.11738312
76	0xbd56253c	-0.052281603
77	0x3c8f7778	0.017513022
78	0xbd9473ae	-0.07248627
79	0xbd6b08f4	-0.057381585
80	0xbb8e5b20	-0.004344359
81	0x3dbf1f5c	0.09332153
82	0x3deac0a0	0.114625216
83	0x3dfe29d2	0.1241032
84	0xbccba198	-0.024857327
85	0xbd40facc	-0.04711418
86	0x3d9273ba	0.07150979
87	0xbdffc94e	-0.12489568
88	0xbdf250c6	-0.118318126
89	0xbde37f5e	-0.11108278
90	0x3dbd02aa	0.09229024
91	0xbdaa77d0	-0.08323634
92	0xbde6f69a	-0.11277504
93	0x3df54440	0.11975908
94	0x3dbdef38	0.09274143
95	0xbd9f67b0	-0.07783449
96	0x3d51f654	0.051260307
97	0xbc4b4bf0	-0.012408242
98	0xbda4297e	-0.080157265
99	0xbc1f02a0	-0.009705216
100	0xbd6906ec	-0.056891367
101	0xbd4637e8	-0.04839316
102	0x3da1670e	0.07880984
103	0x3b844c60	0.004037425
104	0xbc97f088	-0.018547311
105	0xbdef9672	-0.11698617
106	0x3b19ed80	0.0023487508
107	0x3da36e1a	0.079799846
108	0x3d825854	0.063645035
109	0xbc0cd100	-0.008594751
110	0xbd9a0b6e	-0.07521711
111	0xbdc34d5a	-0.09536238
112	0xbddadc10	-0.10686505
113	0xbcbdadf0	-0.023154229
114	0xbd4ad63c	-0.049520716
115	0x3d16c318	0.03680715
116	0x3dbfb918	0.09361476
117	0xbde4b938	-0.1116814
118	0xbd86c0de	-0.06579755
119	0x3ded490e	0.115862
120	0x3df70dcc	0.120631784
121	0x3de017dc	0.10942051
122	0x3dfd4772	0.12367143
123	0x3dbf40a6	0.093385026
124	0x3d9f014c	0.07763919
125	0xbd94210a	-0.07232864
126	0x3db17df2	0.086666
127	0x3dcf71d8	0.10129136
128	0xbce52a90	-0.027974397
129	0xbd3b1840	-0.045677423
130	0xbbab1c40	-0.0052218735
131	0x3dd49dd2	0.10381664
132	0xbdeecd0e	-0.11660205
133	0x3da31e8e	0.07964812
134	0x3dce20fa	0.100648835
135	0x3d146118	0.03622541
136	0x3c429720	0.011876851
137	0x3d996d76	0.07491581
138	0x3de1c93e	0.11024712
139	0x3d69b718	0.057059377
140	0x3cd84e58	0.026404545
141	0x3dc344be	0.09534596
142	0xbd769f74	-0.06021066
143	0x3cc0f420	0.023553908
144	0x3ca60da8	0.020270184
145	0xbce2f758	-0.027705833
146	0xbdc4ec2e	-0.0961536
147	0x3d70422c	0.058656856
148	0x3d85e6b0	0.06538141
149	0xbdbe182c	-0.09281954
150	0x3cb181e0	0.021668375
151	0x3d893f34	0.06701508
152	0xbdbeb29c	-0.09311411
153	0xbc541c30	-0.012946174
154	0xbdebb072	-0.11508264
155	0x3df9155a	0.121622756
156	0x3da23236	0.07919733
157	0x3d24a884	0.04019977
158	0xbde5a95c	-0.11213943
159	0x3d95f82a	0.07322724
160	0xbd0bbb60	-0.03411424
161	0xbdd449b0	-0.10365617
162	0x3ccea1d0	0.025223643
163	0xbdd38e58	-0.10329884
164	0x3da6b916	0.08140771
165	0xbb38bd00	-0.0028188825
166	0xbd89eb2a	-0.06734307
167	0xbd52b880	-0.051445484
168	0x3cd5fc10	0.02612117
169	0xbda38e48	-0.07986122
170	0x3b94d400	0.004541874
171	0x3de0c130	0.109743476
172	0x3d21e69c	0.039526567
173	0x3df4ae12	0.11947264
174	0xbd5c1640	-0.053732157
175	0xbd9f3eb8	-0.077756345
176	0x3d8d274e	0.068922624
177	0xbda834e8	-0.08213216
178	0x3dcfd7ca	0.1014858
179	0xbd81f494	-0.06345478
180	0xbd0b8c38	-0.03406927
181	0x3ddc29f4	0.107501894
182	0x3dd7dcd8	0.105401695
183	0x3dff5b10	0.12468541
184	0x3cdae510	0.026720554
185	0x3db3d888	0.087815344
186	0xbd22cf40	-0.03974843
187	0xbdef1d4a	-0.11675508
188	0x3df898b6	0.12138502
189	0xbdea7910	-0.11448872
190	0x3d96a0ae	0.07354866
191	0xbc46c520	-0.012131959
192	0xbd645464	-0.055744544
193	0x3d40c46c	0.047062322
194	0xbdfb865a	-0.12281485
195	0xbcca5728	-0.024699762
196	0xbda26060	-0.07928538
197	0xbd0ebdac	-0.034848854
198	0xbdd2ace8	-0.102868855
199	0x3de78936	0.11305468
200	0xbddd7600	-0.10813522
201	0xbd719b30	-0.05898589
202	0xbdc9cf84	-0.098540336
203	0xbdf90aa2	-0.12160231
204	0xbcfd6318	-0.03093104
205	0x3c35d480	0.011098027
206	0x3cce9330	0.025216669
207	0xbd7cab58	-0.061686844
208	0x3dd675c4	0.10471681
209	0xbdaa98f2	-0.08329953
210	0xbdbcd40a	-0.09220131
211	0x3d4b6604	0.049657837
212	0xbbca4c20	-0.0061736256
213	0xbddb86be	-0.107190594
214	0x3dfd76d4	0.1237618
215	0x3d21a33c	0.039462313
216	0xbd8d9d4c	-0.069147676
217	0xbd6adb88	-0.057338268
218	0xbd843d58	-0.06457013
219	0x3dba3ebe	0.090939984
220	0xbd27153c	-0.040791735
221	0x3d9634d6	0.073342964
222	0xbd0d3514	-0.034474447
223	0x3da7e05a	0.081970885
224	0x3d3f738c	0.046741053
225	0xbddfa8da	-0.10920878
226	0x3dbaf156	0.091280624
227	0x3c579d50	0.013160065
228	0xba619700	-0.00086055696
229	0x3dccc17e	0.09997843
230	0x3ccd8498	0.02508764
231	0x3d34f984	0.04418327
232	0x3d063780	0.032767773
233	0x3dea78f4	0.11448851
234	0x3d26c2f8	0.04071328
235	0x3dff4558	0.12464398
236	0xbd8a721c	-0.06760046
237	0xbd1fcea8	-0.039015442
238	0x3dfc70e2	0.12326218
239	0xbd27b860	-0.040947318
240	0x3cac9a50	0.021069676
241	0xbd233904	-0.039849296
242	0xbd69c6e0	-0.057074428
243	0x3cbe0200	0.023194313
244	0xbd2a6aa4	-0.041605607
245	0x3d56bd18	0.052426428
246	0xbbc2c280	-0.0059435964
247	0x3c94cc28	0.018163756
248	0x3dcfb3da	0.10141726
249	0x3d51146c	0.051044866
250	0x3d98d7e8	0.07463056
251	0x3d2f2b50	0.042765915
252	0xbd2869d4	-0.04111655
253	0x3dc02d58	0.09383649
254	0xbdb148fe	-0.086565
255	0xbde88ea8	-0.113553345

bias_ih_l1 f4 [256]
0	0x3e557f6e	0.20849392
1	0x3e2e8be2	0.17045549
2	0x3e301073	0.17193775
3	0x3e473172	0.19452456
4	0x3db8644a	0.090035036
5	0x3e58de05	0.21178444
6	0x3e1a7212	0.15082577
7	0x3e3a55a2	0.18196729
8	0x3e7d59e0	0.24741316
9	0x3d025b5c	0.03182541
10	0x3e4a88e0	0.19778776
11	0x3e832376	0.25612992
12	0xbd2859a8	-0.041101128
13	0xbd139b42	-0.036036737
14	0x3ce85a3e	0.028363343
15	0x3e2b89c0	0.16751766
16	0x3e308ac8	0.17240441
17	0x3e47da1f	0.195168
18	0x3e58374e	0.21114847
19	0x3dbf04c5	0.093270816
20	0x3dfcac5f	0.12337565
21	0x3c87a88e	0.016559865
22	0x3e058372	0.13038424
23	0x3e38bb28	0.18040144
24	0x3d85ea48	0.06538826
25	0x3e454537	0.19264685
26	0x3daa5e9c	0.083188266
27	0x3d8259c6	0.06364779
28	0x3e3fddfc	0.18737024
29	0x3d908e09	0.07058341
30	0x3de320ef	0.11090266
31	0x3e7c828b	0.24659173
32	0x3e0794d7	0.13240372
33	0x3e1a5e2e	0.15074989
34	0x3dbe70e4	0.09298876
35	0x3e0a9382	0.13532832
36	0x3c4167a7	0.011804498
37	0x3e621607	0.22078715
38	0x3c7ee506	0.015557533
39	0x3e3590ac	0.17730969
40	0x3e375350	0.17902875
41	0x3d9e6c88	0.077355444
42	0x3e3f4cb2	0.186816
43	0x3e696861	0.22793724
44	0x3db7e5da	0.089793876
45	0x3dd3e0ba	0.103455976
46	0x3e438dfc	0.19097131
47	0x3d631512	0.055440016
48	0x3e02dd84	0.12779814
49	0x3e037a40	0.12839603
50	0x3e749192	0.23883656
51	0xbbd0522b	-0.0063574514
52	0x3e049518	0.129475
53	0xbbca0ded	-0.006166211
54	0x3e195019	0.14971961
55	0xbcb35dd7	-0.021895332
56	0xbc03d097	-0.008045337
57	0x3d0a9930	0.033837497
58	0x3e15e3f7	0.14637743
59	0x3ca1f19a	0.019768525
60	0x3dd0959d	0.101847865
61	0x3dd6de7c	0.10491654
62	0x3da3e4c5	0.08002619
63	0x3dc2fdfa	0.095210984
64	0xbcd40300	-0.025880337
65	0xbcc6fa70	-0.02428934
66	0x3d9b2338	0.07575077
67	0xbd6ce900	-0.057839394
68	0xbd1e3374	-0.03862329
69	0xbdd78e1c	-0.10525152
70	0xbdcfa71e	-0.10139297
71	0x3d967c4c	0.073479265
72	0xbcafc060	-0.021454036
73	0x3de80280	0.11328602
74	0x3cce7388	0.025201574
75	0xbdbacc3c	-0.09120986
76	0x3dcd8a5c	0.100361556
77	0x3dfc8826	0.12330656
78	0xbd6dafa8	-0.058028847
79	0xbd7ebc50	-0.062191308
80	0xbdf2788e	-0.118394
81	0x3dd50e06	0.104030654
82	0x3dab36ec	0.08360085
83	0xbbfd51c0	-0.0077306926
84	0xbdf883fa	-0.121345475
85	0xbd911dd2	-0.07085766
86	0x3b5516c0	0.003251478
87	0xbcd2cab0	-0.025731415
88	0xbc09eb90	-0.008417979
89	0x3aa43c80	0.0012530237
90	0x3de50b74	0.11183825
91	0x3df1ffc2	0.1181636
92	0x3b797080	0.003806144
93	0x3db59c0e	0.08867656
94	0xbdf0ee34	-0.11764184
95	0x3b081b40	0.0020768195
96	0x3da213a8	0.079139054
97	0x3d89db56	0.06731288
98	0xbda1f6a0	-0.07908368
99	0x3d31734c	0.043322846
100	0x3dbd13ca	0.0923229
101	0x3dddee2e	0.10836445
102	0x3d9a8b46	0.075460956
103	0x3d4a1348	0.049334794
104	0xbb148e80	-0.0022667944
105	0x3ccf1510	0.025278598
106	0x3dbd1696	0.092328236
107	0xbda562c0	-0.08075476
108	0xbd969da4	-0.07354286
109	0xbc8e5568	-0.01737471
110	0x3daa74c0	0.083230495
111	0x3da886d6	0.08228843
112	0x3d6c6380	0.057712078
113	0xbad27100	-0.0016055405
114	0x3dc30e44	0.09524205
115	0xbdcea92e	-0.10090862
116	0xbc0a19c0	-0.008428991
117	0xbd092c70	-0.033489645
118	0x3c397300	0.011318922
119	0x3d7ec268	0.06219712
120	0x3d01fe58	0.0317367
121	0xbda26a68	-0.07930452
122	0x3d256524	0.04037966
123	0x3d11e7fc	0.03562163
124	0x3ddccfee	0.10781847
125	0x3d6ba828	0.057533413
126	0xbda56fca	-0.08077963
127	0x3d97d1e4	0.0741308
128	0xbd986b02	-0.07442285
129	0xbc56cb58	-0.013110004
130	0xbd94f412	-0.07273115
131	0x3c804f96	0.01566295
132	0xbd88b820	-0.06675744
133	0x3d6b6966	0.057473563
134	0xbdbdf023	-0.09274318
135	0xbda1cf8b	-0.07900914
136	0x3da8219f	0.08209538
137	0xbce2b66a	-0.027674872
138	0xbe111168	-0.14166796
139	0x3d3646a5	0.044500966
140	0xbdcd9890	-0.100388646
141	0xbda72c1e	-0.081627116
142	0x3dc64b0e	0.09682284
143	0xbddd90d3	-0.10818639
144	0x3d86dbd3	0.06584897
145	0xbe03debe	-0.12877938
146	0x3c474346	0.012162035
147	0xbd9e78a0	-0.07737851
148	0xbd650a6c	-0.055918142
149	0x3de9b327	0.11411124
150	0xbd66363d	-0.05620407
151	0x3da4b82d	0.08042941
152	0x3dd43f00	0.10363579
153	0xbcadcddc	-0.021216325
154	0xbd93f7d6	-0.07225005
155	0x3e10c9e0	0.14139509
156	0x3a1ad1d9	0.00059059035
157	0x3dbea7cb	0.09309348
158	0xbd527a7b	-0.051386338
159	0x3ddc73d3	0.10764279
160	0x3d77258d	0.060338546
161	0x3ca60a41	0.020268561
162	0x3d4b9fe4	0.04971303
163	0xbbd356e8	-0.006449569
164	0xbd6d1a15	-0.057886202
165	0x3db34aed	0.08754525
166	0x3cc8de62	0.024520103
167	0xbdc64c00	-0.096824646
168	0xbdd741b3	-0.10510578
169	0xbd09db44	-0.033656374
170	0xbc796cf5	-0.015223731
171	0x3d19c0bd	0.037537325
172	0x3dd51cbe	0.10405873
173	0xbdc16b2e	-0.09444271
174	0x3d5ab5eb	0.053396147
175	0xbcc03407	-0.023462309
176	0xbd98185d	-0.07426522
177	0x3dadff5d	0.08495972
178	0xbc64d763	-0.013967368
179	0xbd65ea66	-0.056131743
180	0x3ced772c	0.02898749
181	0x3dbf5b88	0.0934363
182	0xbd1887ac	-0.03723876
183	0x3df3573c	0.11881873
184	0xb8925f88	-6.9796166e-05
185	0xbc24a0b3	-0.010048079
186	0x3da10140	0.078615665
187	0xbc843c4f	-0.016142039
188	0xbcefe5fe	-0.029284474
189	0xbd03fb2c	-0.032221958
190	0xbba70329	-0.0050968123
191	0xbcebc0d7	-0.028778477
192	0x3e5dd6fa	0.21664038
193	0xbca1933c	-0.019723527
194	0x3e1d39f6	0.15354142
195	0x3d508cbb	0.05091546
196	0x3e8ee8aa	0.27911884
197	0x3dba8b22	0.09108569
198	0x3d046da9	0.032331143
199	0x3e51941d	0.20466657
200	0x3e2c2b7f	0.16813467
201	0x3d9d7e4e	0.07690106
202	0xb9db0c8c	-0.00041780283
203	0x3da08aa8	0.078389466
204	0x3e2dceb2	0.16973379
205	0x3c904bb6	0.017614227
206	0x3e19c7b7	0.15017591
207	0x3c8b8b63	0.017034238
208	0x3e5e298d	0.21695538
209	0x3e1b9eab	0.15197246
210	0x3e57c646	0.21071729
211	0x3e852afd	0.2600936
212	0x3db7e0d1	0.08978427
213	0x3c93c3b3	0.018037653
214	0x3dc681fa	0.0969276
215	0x3e6c9f69	0.23107685
216	0x3d617988	0.05504754
217	0x3e8ae40d	0.27127114
218	0x3d93b198	0.07211608
219	0x3dff566c	0.124676555
220	0x3d2ba615	0.041906435
221	0x3e13e935	0.1444443
222	0xbc8efc50	-0.017454296
223	0x3dafb985	0.08580307
224	0x3cd74700	0.026278973
225	0x3d90583d	0.0704808
226	0x3d8a2251	0.067448266
227	0x3dc3c492	0.09558977
228	0x3dd314c7	0.10306697
229	0x3e245e9a	0.16051713
230	0x3e4ef0c8	0.20209038
231	0x3e82c487	0.25540563
232	0x3db31745	0.08744673
233	0x3ddbe2be	0.10736607
234	0x3e43d548	0.19124329
235	0x3e169455	0.14705022
236	0x3dca4267	0.098759465
237	0x3e3da0c3	0.18518357
238	0x3e51b261	0.20478202
239	0x3e0de788	0.13857853
240	0x3e46567e	0.19368932
241	0x3e145d34	0.14488679
242	0x3e65e205	0.22449501
243	0x3e11fd1e	0.14256713
244	0x3e3c1b36	0.18369755
245	0x3e024e5b	0.12725203
246	0x3e777a65	0.24167784
247	0x3e223715	0.15841325
248	0x3d99409f	0.074830286
249	0x3d9e3830	0.07725561
250	0x3e2bfa5c	0.16794723
251	0x3de98c23	0.11403682
252	0x3e40f9a0	0.18845224
253	0x3e426178	0.18982494
254	0x3dfc33a0	0.12314534
255	0x3d544c15	0.05183037
