ChampagneSales_with_DecomposedData&LSTM/data/model.pt (torch, 91015 bytes, 14 tensors)

weight_ih_l0 f4 [128, 4]
0	0x3e8011e0	0.25013638
1	0x3e26abad	0.16276427
2	0xbd2d2c10	-0.04227835
3	0x3dbc7450	0.09201872
4	0x3ea79f20	0.3273859
5	0x3ec5987b	0.38592896
6	0x3e270eda	0.16314259
7	0x3d6eeac6	0.058329366
8	0x3e90147e	0.28140634
9	0x3efccbd7	0.49374267
10	0x3ea63de7	0.32469103
11	0x3d8ce56b	0.068796955
12	0x3d1896bb	0.037253123
13	0x3e895d55	0.2682902
14	0xbdcac36a	-0.099005535
15	0x3d56a12e	0.052399807
16	0x3d063904	0.032769218
17	0x3d80dd36	0.06292193
18	0xbe3cd7f8	-0.1844176
19	0xbc832d8c	-0.01601293
20	0x3dc0b5c9	0.09409673
21	0x3ee1c214	0.44093382
22	0xbe9102f8	-0.28322577
23	0x3d2c66e9	0.04209033
24	0x3e7f4cad	0.24931593
25	0x3ee7ca35	0.4527146
26	0x3ce84cda	0.028356958
27	0x3ea8b096	0.32947224
28	0x3e06c606	0.13161477
29	0x3f0460c2	0.5171014
30	0x3e016add	0.12638421
31	0x3ccbe6fb	0.024890414
32	0x3d740698	0.0595766
33	0x3ece489e	0.40289778
34	0x3cf3fddd	0.029784137
35	0xbe0593c7	-0.13044654
36	0x3e9de8ee	0.30841774
37	0x3ea18c75	0.31552473
38	0xbd4c5583	-0.049886238
39	0xbd708711	-0.05872256
40	0x3e2eefa0	0.17083597
41	0x3ea380ec	0.31934297
42	0x3cac0bde	0.021001752
43	0xbf0f3b2e	-0.55949676
44	0x3d60ed22	0.054913647
45	0x3e94cfbd	0.29064742
46	0xba04da8f	-0.0005067968
47	0xbed2f6bf	-0.41203877
48	0x3e18feb6	0.14940915
49	0x3ed9de7b	0.42552552
50	0x3cce8920	0.02521187
51	0xbf0b14f2	-0.54328835
52	0xbd7366ed	-0.05942433
53	0x3ebee1a0	0.37281513
54	0xbd930fa9	-0.07180721
55	0x3e2df256	0.16986975
56	0x3ca4ecd7	0.020132465
57	0x3ef72e10	0.4827733
58	0x3eb6292b	0.35578284
59	0xbdf7dede	-0.121030554
60	0x3eac1019	0.33606032
61	0x3e8ef364	0.27920067
62	0xbe7ac021	-0.24487354
63	0xbe379c07	-0.17930613
64	0x3ea15772	0.31512028
65	0x3e976869	0.29571846
66	0xbe10f461	-0.14155723
67	0x3e07ea04	0.13272864
68	0x3e8e2327	0.27761194
69	0x3eef3a06	0.46723956
70	0xbc20004d	-0.009765697
71	0xbecf010f	-0.40430495
72	0x3dc7bebb	0.09753176
73	0x3e938960	0.28815746
74	0x3eba499b	0.36384282
75	0x3de8ddd0	0.113704324
76	0x3e680919	0.2265972
77	0x3e885c79	0.2663305
78	0xbdb95350	-0.09049094
79	0xbe4aea2f	-0.19815896
80	0x3de218b7	0.1103987
81	0x3e9c5d77	0.30540058
82	0xbeac125f	-0.33607766
83	0x3d9ae1d8	0.075626075
84	0x3e490f49	0.19634737
85	0xb9ad95d8	-0.00033108774
86	0xbeaa8a81	-0.33308795
87	0x3e2ccd73	0.16875248
88	0x3e69c6e0	0.22829771
89	0x3ee6fd5f	0.45115182
90	0x3e188046	0.14892682
91	0x3eb2f5ff	0.34953305
92	0x3e8eba21	0.2787638
93	0x3e8d8b53	0.27645358
94	0x3d8d6817	0.06904619
95	0x3e8aae17	0.27085945
96	0x3d6234a5	0.055225987
97	0x3ea26cfe	0.3172378
98	0x3ebaff7d	0.36523047
99	0x3e65f979	0.22458448
100	0x3e90e18a	0.28297073
101	0x3ea557b8	0.32293487
102	0x3ea33294	0.31874526
103	0x3e545054	0.20733768
104	0x3c97881f	0.018497525
105	0x3ed739af	0.42036197
106	0x3e5b84f0	0.2143743
107	0xbe91222d	-0.28346387
108	0x3e1bdc90	0.15220857
109	0x3eb4b93c	0.35297573
110	0xbeca1b24	-0.39473832
111	0xbcd6dbc9	-0.026227849
112	0x3eb7edd8	0.35923648
113	0x3dcadb27	0.09905081
114	0x3e5ac3af	0.2136371
115	0xbe22f0cc	-0.15912169
116	0x3c0132f1	0.0078856805
117	0x3d9febca	0.07808645
118	0x3d5e1cdf	0.054226752
119	0xbea4d6c5	-0.32195106
120	0x3e3ce3dc	0.18446296
121	0x3e29d227	0.16584073
122	0x3dfcc27f	0.12341785
123	0x3f45a6ff	0.7720794
124	0x3d2a7ddd	0.04162394
125	0x3dcc45f3	0.09974279
126	0x3b13f555	0.002257665
127	0x3f085358	0.5325217
128	0xbdfdd76e	-0.123946056
129	0xbcd01838	-0.025402173
130	0x3ceb9648	0.028758183
131	0xbd338b48	-0.043834
132	0x3e2f7ab3	0.1713665
133	0x3d90a9e6	0.070636556
134	0xbd9fca01	-0.07802201
135	0x3c60f680	0.013730645
136	0x3dbcdeb2	0.09222163
137	0xbd635ebc	-0.055510268
138	0xbe2b4afd	-0.16727825
139	0x3d5cb414	0.053882673
140	0xbd6b6a18	-0.057474226
141	0x3e0db7d7	0.1383966
142	0x3d397c90	0.045284808
143	0xbd242d98	-0.040082544
144	0x3e16e4b3	0.1473568
145	0x3db120aa	0.08648808
146	0x3dfe8b92	0.12428965
147	0x3d79a9a4	0.060952798
148	0x3d5524d8	0.05203709
149	0x3d513044	0.05107142
150	0xbdb6ef4e	-0.089323625
151	0x3d1a91c4	0.03773667
152	0xbe109bb1	-0.14121892
153	0xbe18543d	-0.14875884
154	0xbdfc38bc	-0.12315509
155	0x3e0c325f	0.1369109
156	0x3e1ae557	0.15126549
157	0xbd5e7792	-0.05431325
158	0x3e0bb327	0.1364256
159	0x3e29c885	0.16580398
160	0x3e322f1f	0.17400788
161	0xbe0f43dc	-0.1399073
162	0xbd31d0f8	-0.04341218
163	0x3d5f9418	0.054584593
164	0x3de6af7e	0.11263941
165	0x3df94d12	0.12172903
166	0x3d92ed22	0.07174136
167	0xbe25acdb	-0.1617922
168	0x3cf86a48	0.030324116
169	0xbe068e6b	-0.13140266
170	0x3d6f8560	0.058476806
171	0x3c0dc650	0.008653238
172	0x3de08492	0.10962786
173	0xbce492c0	-0.027902007
174	0x3d1574a0	0.036488175
175	0x3e1f088d	0.15530606
176	0x3de10dce	0.10988961
177	0xbe343648	-0.17598832
178	0xbde99b03	-0.11406519
179	0x3da8cf0a	0.082426146
180	0xbe07147a	-0.13191405
181	0xbda843b5	-0.08216039
182	0x3e209d35	0.1568497
183	0xbe17839e	-0.14796302
184	0x3c0fe7d0	0.008783296
185	0xbdeadbad	-0.11467681
186	0xbca560a8	-0.02018769
187	0x3e117df1	0.14208199
188	0xbe194eb1	-0.14971425
189	0xbd45e29c	-0.048311815
190	0x3d454c6c	0.048168585
191	0xbdea6f04	-0.11446956
192	0x3df9afda	0.12191744
193	0xbdcdc960	-0.10048175
194	0x3dcd6ef2	0.10030927
195	0xbe1774dc	-0.14790672
196	0x3e012b61	0.12614204
197	0x3de6b57e	0.11265086
198	0x3c97ed20	0.018545687
199	0xbd1a0888	-0.037605792
200	0x3c723020	0.014781982
201	0xbe2e7ff9	-0.17041005
202	0xbda058c9	-0.078294344
203	0xbe13958c	-0.14412516
204	0xbdc1d71b	-0.09464856
205	0xbe279124	-0.1636396
206	0x3e2008cb	0.15628354
207	0x3d31c9f0	0.043405473
208	0xbd70e9d4	-0.058816746
209	0xbe029f98	-0.12756193
210	0xbd543de8	-0.05181685
211	0xbb09d2c0	-0.0021030158
212	0xbd8a2069	-0.06744463
213	0x3d97db6e	0.074149
214	0xbdd2ce44	-0.10293248
215	0xbcc25438	-0.0237218
216	0x3e03a313	0.12855177
217	0xbdabf234	-0.08395806
218	0x3c1792c0	0.0092512965
219	0xbd7e424e	-0.06207495
220	0x3e2aa989	0.16666235
221	0xbddb2b3e	-0.10701607
222	0xbd831c0f	-0.06401836
223	0x3e29fd43	0.16600518
224	0x3e2bd429	0.16780151
225	0x3cef6fe8	0.029228166
226	0x3ce2de28	0.027693823
227	0xbd2ec55c	-0.042668685
228	0xbddd0aea	-0.10793097
229	0xbd57c5ae	-0.052678756
230	0xbde8c99f	-0.11366581
231	0xbd8a460d	-0.067516424
232	0x3dde5532	0.108560935
233	0xbd1d4500	-0.03839588
234	0x3e0d0d99	0.13774718
235	0x3db0ba42	0.08629276
236	0x3ce0cf78	0.027442679
237	0xbe0d833c	-0.13819593
238	0x3e2441f5	0.16040786
239	0xbe262843	-0.16226296
240	0x3dc3605a	0.09539862
241	0xbcc5cb60	-0.024144828
242	0x3d9d406a	0.07678302
243	0xbe30ab16	-0.17252764
244	0xbca58d48	-0.02020897
245	0x3dc9fa0e	0.09862147
246	0x3c182710	0.009286657
247	0x3dee3002	0.116302505
248	0xbcb53090	-0.022117883
249	0x3cfe7008	0.03105928
250	0x3e2afa25	0.16696985
251	0xbd046094	-0.032318667
252	0xbd64e4e0	-0.055882335
253	0x3d6cf590	0.057851374
254	0x3e252c51	0.16130187
255	0xbe1825a4	-0.14858109

weight_hh_l0 f4 [128, 32]
0	0xbe12807c	-0.14306825
1	0xbde808de	-0.11329816
2	0x3c43a2e0	0.011940688
3	0xbd9da34a	-0.076971605
4	0x3db7f60e	0.08982478
5	0xbc921950	-0.017834336
6	0x3df25806	0.118331954
7	0x3d4246a8	0.047430664
8	0xbd55cb52	-0.052195854
9	0xbe10af8e	-0.14129469
10	0x3db3edde	0.08785604
11	0xbdc92825	-0.0982211
12	0xbe1437d3	-0.1447442
13	0x3cb117f8	0.021617875
14	0x3e05665f	0.13027333
15	0x3e1dda03	0.15415196
16	0xbd70574e	-0.05867701
17	0xbb485d80	-0.0030573308
18	0x3e07410f	0.13208412
19	0x3e2d8d8f	0.16948532
20	0xbd1dd294	-0.0385309
21	0x3db5394e	0.088488206
22	0x3e09f3bd	0.13471885
23	0xbcaa2090	-0.02076748
24	0x3db957e6	0.090499684
25	0x3e25b581	0.1618252
26	0xbddad45e	-0.10685037
27	0x3dcf1ea2	0.101132646
28	0xbde832ff	-0.11337852
29	0xbdbc02dc	-0.09180233
30	0x3dce1a26	0.10063581
31	0xbdac6351	-0.084173806
32	0x3e18dd07	0.14928065
33	0x3da28986	0.07936387
34	0x3c336bb0	0.010950968
35	0xbc61eb20	-0.013788968
36	0xbae80f80	-0.0017704815
37	0x3e006b07	0.12540828
38	0x3d587eb8	0.052855223
39	0xbe2a382c	-0.1662299
40	0x3df9cdc2	0.12197448
41	0xbde69384	-0.11258605
42	0xbdb89466	-0.0901268
43	0x3d2565c8	0.04038027
44	0x3b630580	0.003464073
45	0xbdb423b4	-0.08795872
46	0xbd9b0c75	-0.07570735
47	0x3dd04b5a	0.10170622
48	0xbe072ff4	-0.13201886
49	0x3d7553c0	0.059894323
50	0xbe1ec170	-0.15503478
51	0x3dfd6ace	0.12373887
52	0xbe04ca24	-0.12967736
53	0x3d0b90a0	0.034073472
54	0x3db2cf1a	0.08730908
55	0x3e2db455	0.16963322
56	0x3e212b7b	0.15739243
57	0x3e236565	0.15956648
58	0xbd7d80f4	-0.061890557
59	0x3e109351	0.14118697
60	0x3dfceee2	0.12350251
61	0x3cb016a0	0.021495163
62	0xbddb534e	-0.107092485
63	0xbded5946	-0.11589293
64	0x3d9f6b5a	0.077841476
65	0xbcae54d0	-0.021280676
66	0xbdf4df70	-0.1195668
67	0x3c2e5d40	0.01064235
68	0xbb327480	-0.0027230084
69	0xbd656fa0	-0.056014657
70	0x3d156f50	0.03648311
71	0xbdb05eae	-0.08611809
72	0x39604800	0.00021389127
73	0xbcf7dad8	-0.03025572
74	0x3e2bf441	0.16792394
75	0x3de9493a	0.1139092
76	0x3e185ef3	0.1487997
77	0x3d663214	0.056200102
78	0xbba27e40	-0.004958898
79	0x3e26fadd	0.16306634
80	0xbe008a22	-0.12552693
81	0x3c872e58	0.01650159
82	0x3e227e33	0.15868454
83	0x3d43b7e4	0.047782794
84	0x3dbcdf7a	0.09222312
85	0xbe19d0d8	-0.15021074
86	0xbb34ac80	-0.0027568638
87	0x3dc33606	0.095317885
88	0x3d7b0b8c	0.06129031
89	0xbd865182	-0.06558515
90	0x3c431840	0.011907637
91	0x3c5c20f0	0.013435587
92	0xbe154e16	-0.14580569
93	0xbdd01b97	-0.10161512
94	0x3db45b26	0.08806448
95	0xbe3114ea	-0.17293134
96	0xbe26f0ad	-0.16302748
97	0xbdcddf03	-0.10052302
98	0x3d8cced6	0.06875388
99	0x3e2d131f	0.16901825
100	0x3c78cca0	0.015185505
101	0xbd23e978	-0.040017575
102	0x3db4b38e	0.0882331
103	0xbceb1788	-0.028697744
104	0x3e02619d	0.12732549
105	0xbd6c1dc4	-0.057645574
106	0x3ddecfba	0.108794644
107	0x3df3ce4a	0.11904581
108	0x3dc21c7e	0.09478091
109	0xbdd56062	-0.10418774
110	0x3dc261de	0.09491323
111	0x3d9a30fe	0.07528876
112	0xbce5b330	-0.028039545
113	0xbdb03274	-0.08603373
114	0xbd3be720	-0.045874715
115	0xbdecddc6	-0.115657374
116	0xbcadf3f0	-0.021234483
117	0x3dfdb316	0.123876736
118	0xbe061b82	-0.13096431
119	0x3d332184	0.043733135
120	0x3cab2f00	0.020896435
121	0xbba28220	-0.0049593598
122	0xbcfa1c70	-0.030531138
123	0xbd736e7e	-0.059431545
124	0xbdc8f9c9	-0.09813268
125	0xbe10908c	-0.1411764
126	0xbe1151ed	-0.14191408
127	0x3dcc0ad2	0.09963001
128	0x3db68c7a	0.089135125
129	0x3e09d61f	0.13460587
130	0x3e335375	0.17512305
131	0x3e1365f7	0.14394365
132	0xbdaf45ac	-0.08558211
133	0x3e2932cd	0.16523285
134	0x3d2f9bd8	0.042873234
135	0x3df4746a	0.11936267
136	0xbe0706e9	-0.1318623
137	0x3d0b6070	0.034027517
138	0x3bd588a0	0.006516531
139	0xbe1cb929	-0.15305008
140	0x3d56bf3c	0.05242847
141	0xbe1eb79f	-0.15499733
142	0xbdb5268c	-0.08845243
143	0x3e16bb07	0.14719783
144	0xbdfc81c8	-0.12329441
145	0x3e2f8cbd	0.17143531
146	0x3dd2da8e	0.10295592
147	0xbe347dee	-0.17626163
148	0xbcf8f540	-0.030390382
149	0xbe213d75	-0.157461
150	0x3de3842a	0.11109193
151	0x3e0a0729	0.13479294
152	0x3db9aaf6	0.09065811
153	0x3d019360	0.03163469
154	0xbd2b0000	-0.041748047
155	0xbd7772ee	-0.06041234
156	0xbe04ab63	-0.12956004
157	0x3e244981	0.16043665
158	0x3d8bc97a	0.06825538
159	0xbdeeb464	-0.116555005
160	0x3e00d693	0.12581854
161	0xbdcd753b	-0.100321256
162	0xbd07a5c0	-0.033117056
163	0xbd871c6d	-0.06597219
164	0xbc3c7ea0	-0.011504799
165	0x3d896a6e	0.06709753
166	0x3d97630a	0.07391937
167	0xbe201013	-0.15631132
168	0x3d2f4664	0.04279174
169	0xbccf8600	-0.02533245
170	0xbd82458e	-0.06360923
171	0xbe1bc6d2	-0.15212563
172	0xbcae7070	-0.021293849
173	0xbd3a3934	-0.04546471
174	0x3c871950	0.016491562
175	0xbd1b43f4	-0.037906602
176	0x3e1d4fff	0.15362547
177	0xbe054d15	-0.13017686
178	0x3daddb32	0.08489074
179	0xbe025dc2	-0.12731078
180	0x3e166789	0.14687933
181	0x3d1852f8	0.0371885
182	0xbbaf8220	-0.0053560883
183	0xbe08f045	-0.13372906
184	0xbc6d5420	-0.014485389
185	0x3be388a0	0.006943777
186	0xbdb49b2c	-0.08818659
187	0xbbc966c0	-0.006146282
188	0x3dd8b8e6	0.105821416
189	0x3e0e6699	0.13906325
190	0x3cf63718	0.030055568
191	0xbd6a5dc4	-0.057218328
192	0x3ca34ac8	0.01993312
193	0x3d7ba3a4	0.061435357
194	0xbe1aaad3	-0.15104227
195	0xbdf0d1e9	-0.11758787
196	0x3d0eb9f4	0.034845307
197	0x3e2c5d0b	0.16832368
198	0xbe1586ac	-0.14602154
199	0xbc8161e8	-0.015793756
200	0xbe2758b4	-0.16342431
201	0xbdc2b7e1	-0.09507728
202	0xbde807d7	-0.1132962
203	0xbca7d818	-0.020488784
204	0xbe212718	-0.1573757
205	0x3ca89230	0.02057752
206	0xbc4ce0f0	-0.012504801
207	0x3e291e43	0.1651545
208	0xbe24dbec	-0.16099519
209	0x3caba1f8	0.020951256
210	0xbe002a46	-0.12516126
211	0xbe17db22	-0.14829686
212	0xbd9af1b5	-0.07565633
213	0xbdf3fb7b	-0.119132005
214	0x3da93e5e	0.08263849
215	0xbe1e293d	-0.15445419
216	0xbdfffe64	-0.12499693
217	0x3e334093	0.17505102
218	0x3cc9b500	0.02462244
219	0xbd865314	-0.06558815
220	0x3cb7d7c0	0.022441745
221	0x3e1def6b	0.15423362
222	0xbd8eccd6	-0.06972663
223	0x3d804e20	0.06264901
224	0xbc478c90	-0.012179509
225	0x3df53f4a	0.11974962
226	0xbda1628f	-0.07880127
227	0xbe0fea9a	-0.14054337
228	0xbe2ee8e7	-0.17081033
229	0xbe1e0ff4	-0.15435773
230	0xbd963368	-0.07334024
231	0x3db95072	0.09048547
232	0x3e074bc5	0.13212498
233	0x3e32d45f	0.17463826
234	0x3dd15fde	0.10223363
235	0xbc584150	-0.013199165
236	0xbe1b1374	-0.1514414
237	0x3d819766	0.06327705
238	0x3e2d4265	0.16919859
239	0x3dd060da	0.10174723
240	0xbdbe5e0d	-0.092952825
241	0x3e1c7f69	0.15282978
242	0xbe20dc95	-0.15709145
243	0x3d086430	0.03329867
244	0x3dcacb72	0.09902085
245	0xbdf86926	-0.121294305
246	0x3d6c11c4	0.05763413
247	0xbc9c6a20	-0.019093573
248	0x3e1502a1	0.14551784
249	0x3d163a90	0.036676943
250	0x3dbbc67e	0.09168719
251	0xbd26c114	-0.040711477
252	0x3d8996ee	0.06718241
253	0xbe06b9c9	-0.13156809
254	0x3d3a3c84	0.04546787
255	0xbdbf87cd	-0.09352074

bias_ih_l0 f4 [128]
0	0x3eafc041	0.34326366
1	0x3e51fa0c	0.20505542
2	0x3e02ea9a	0.12784806
3	0x3e3516fb	0.17684548
4	0x3e8e27e9	0.27764824
5	0x3b327a15	0.002723341
6	0x3d454a8f	0.048166808
7	0x3e712121	0.23547794
8	0x3e70ec13	0.23527555
9	0x3e777ef2	0.2416952
10	0x3e147fb0	0.14501834
11	0x3ec92fb7	0.39294216
12	0x3eaf9769	0.34295204
13	0x3e505097	0.20343243
14	0x3e816d72	0.25278813
15	0x3ea98125	0.33106342
16	0x3e86cd1d	0.26328364
17	0x3e0af5da	0.13570347
18	0x3e3c30b2	0.18377951
19	0x3dddccc4	0.108300716
20	0x3e5195c3	0.20467286
21	0x3e367c86	0.1782094
22	0x3db4d42c	0.08829531
23	0x3e223e75	0.15844138
24	0x3e635d32	0.2220352
25	0x3e99d9db	0.30049023
26	0x3e803318	0.2503898
27	0x3e373e11	0.1789477
28	0x3dc578e8	0.09642202
29	0x3d996e3d	0.074917294
30	0x3e09cc3f	0.1345682
31	0x3e1b29e1	0.15152694
32	0xbe15312f	-0.14569543
33	0xbe32109c	-0.17389148
34	0x3e148f11	0.145077
35	0x3e2b9fdf	0.16760205
36	0xbcefe950	-0.029286057
37	0x3e0751d5	0.1321481
38	0xbdde1962	-0.10844685
39	0xbdfbd82f	-0.12297093
40	0xbe29012e	-0.16504356
41	0xbe06a338	-0.131482
42	0xbdd6ecb8	-0.10494369
43	0x3dfe6a36	0.12422602
44	0xbe016ce0	-0.12639189
45	0xbd818141	-0.06323481
46	0xbc04a9a0	-0.008097082
47	0xbd61e73c	-0.055152163
48	0x3e315e41	0.17321111
49	0xbdfcca44	-0.123432666
50	0x3e127b75	0.14304908
51	0x3ca2f258	0.01989095
52	0x3d9ba1d6	0.07599227
53	0xbcedae18	-0.029013678
54	0xbddd45ce	-0.1080433
55	0x3dd16642	0.10224582
56	0x3d368aec	0.04456608
57	0xb9df9200	-0.00042642653
58	0xbdf76df9	-0.120815225
59	0xbe0145a0	-0.12624216
60	0xbe3054cd	-0.17219849
61	0x3d4ca800	0.049964905
62	0x3de797a6	0.113082215
63	0x3dfb559e	0.122721896
64	0xbe6ac0f5	-0.2292517
65	0x3e069a7c	0.13144869
66	0xbdb1ea44	-0.08687261
67	0xbd7c5bc6	-0.06161096
68	0x3c83c07c	0.016082995
69	0x3e571b75	0.21006568
70	0xbda985b3	-0.08277454
71	0x3e56e0bb	0.20984165
72	0x3daad183	0.083407424
73	0xbc894673	-0.016757226
74	0xbe5c6e1b	-0.21526377
75	0x3e21969c	0.15780109
76	0x3e21e340	0.15809345
77	0xbe2afcb7	-0.16697966
78	0xbca91ba5	-0.020643065
79	0x3c9d9855	0.019237677
80	0x3e35c5fe	0.1775131
81	0xbde9a59a	-0.11408539
82	0xbe0d4664	-0.13796383
83	0x3dc60dbe	0.0967059
84	0x3d925f8a	0.07147129
85	0x3b0a8a25	0.002113947
86	0x3d8dff3b	0.06933447
87	0xbdce56a2	-0.10075118
88	0xbd9af2c8	-0.07565838
89	0xbc18de83	-0.009330395
90	0x3dd04115	0.101686634
91	0xbb3a9a2c	-0.0028473241
92	0x3d89a847	0.067215495
93	0xbe5e8565	-0.21730573
94	0x3c064763	0.008195731
95	0x3d69b23c	0.057054743
96	0x3ea6bd7d	0.32566443
97	0x3ea44ad7	0.32088348
98	0x3e26a3a4	0.16273361
99	0x3e8082d8	0.25099826
100	0x3e71665b	0.23574202
101	0x3e3df80d	0.18551655
102	0x3db139d0	0.08653605
103	0x3d93fbd8	0.0722577
104	0x3e4b7c55	0.19871648
105	0x3e3c143d	0.18367095
106	0x3d77bdb7	0.06048366
107	0x3ec781dd	0.38966265
108	0x3e50fc0d	0.2040865
109	0x3da67bf1	0.08129109
110	0x3df3580c	0.11882028
111	0x3e8f3852	0.27972656
112	0x3d90249e	0.07038234
113	0x3e24bd94	0.16087943
114	0x3eadc311	0.33937886
115	0x3e855cce	0.26047367
116	0xbd5cdaea	-0.05391971
117	0x3dc87f93	0.09789958
118	0x3e8851c6	0.26624888
119	0x3e6e1638	0.23250663
120	0x3e5a7cd3	0.21336679
121	0x3e7ba038	0.24572837
122	0x3e01de48	0.1268245
123	0x3db2b3e9	0.087257214
124	0x3e937ca0	0.2880602
125	0x3d209233	0.039201926
126	0x3e839feb	0.25707945
127	0x3d07dcec	0.033169672

bias_hh_l0 f4 [128]
0	0x3e451c72	0.19249132
1	0x3ea38ef8	0.31945014
2	0x3e02576f	0.12728666
3	0xbd8a979a	-0.06767197
4	0x3e33fca5	0.17576845
5	0x3e690ed7	0.22759567
6	0x3d768511	0.060185496
7	0xbd2812a7	-0.041033413
8	0x3de2e90d	0.11079607
9	0xbc57f511	-0.013180987
10	0xbd065a22	-0.0328008
11	0x3e15e67f	0.14638709
12	0x3e14c877	0.14529596
13	0xbdad7734	-0.08470002
14	0x3e520733	0.20510559
15	0x3e5ab8e0	0.21359587
16	0x3dd3ca19	0.103412814
17	0x3dcb5855	0.099289574
18	0x3e0b20dd	0.13586755
19	0x3e3d1aba	0.18467227
20	0x3e2c77c7	0.16842566
21	0xbcf401dc	-0.029786043
22	0x3e0266d5	0.1273454
23	0x3e78d114	0.24298507
24	0x3e54d297	0.20783459
25	0x3be24fba	0.006906477
26	0x3e84c0fc	0.25928485
27	0x3e55f3be	0.20893762
28	0x3e660f8d	0.2246687
29	0x3e6421fc	0.22278589
30	0x3e8f14f2	0.27945668
31	0x3d84fa81	0.06493092
32	0x3cfc7368	0.030816749
33	0xbe269dfc	-0.16271204
34	0xbddfb00f	-0.109222524
35	0xbb80d9e0	-0.0039322227
36	0xbc67e700	-0.014154196
37	0x3d6c2d08	0.057660133
38	0x3c8acf28	0.016944483
39	0xbda9f790	-0.08299172
40	0xbda91b79	-0.08257193
41	0x3d952284	0.07281974
42	0x3ceda068	0.029007152
43	0x3e129d97	0.14317928
44	0x3decf236	0.115696356
45	0xbc379de0	-0.011207074
46	0x3d032f58	0.032027572
47	0xbb542180	-0.00323686
48	0xbcf35f18	-0.02970843
49	0x3de7c7e6	0.113174245
50	0x3dd4fdb2	0.10399951
51	0x3db0d67a	0.08634658
52	0xbdbb32bc	-0.09140536
53	0xbe2d2d00	-0.16911697
54	0x3e30f4a9	0.1728083
55	0xbe1b6a43	-0.15177254
56	0xbd48a934	-0.04898949
57	0x3dbe279a	0.09284897
58	0xbb872880	-0.004124701
59	0x3c416c60	0.011805624
60	0x3e295fab	0.165404
61	0x3e0b1733	0.13583069
62	0x3c0ed660	0.008718103
63	0xbdd79fc8	-0.10528523
64	0xbe0ab07d	-0.13543887
65	0x3d8e6084	0.06952003
66	0xbca58739	-0.02020608
67	0xbe6e483a	-0.2326974
68	0x3d6cc7c5	0.057807703
69	0x3e3ceeb9	0.1845044
70	0xbd0cb5a7	-0.034352925
71	0x3d2965ee	0.041356973
72	0x3d79b600	0.060964584
73	0xbe56b828	-0.20968688
74	0xbe5481ba	-0.20752612
75	0x3dab8e5d	0.08376763
76	0x3cd8900c	0.026435874
77	0xbdf67ebc	-0.120358914
78	0x3ddf4e1d	0.10903571
79	0xbe1cdad4	-0.15317851
80	0x3e556a23	0.20841269
81	0x3e0ed8c0	0.13949871
82	0x3d8a770a	0.06760986
83	0xbd4e3ffe	-0.050353996
84	0x3da5d724	0.080976754
85	0x3d927a68	0.071522534
86	0xbdf014bd	-0.117227055
87	0xbe131a69	-0.14365543
88	0x3822c2ab	3.880511e-05
89	0x3d4fc35a	0.05072341
90	0xba887f7b	-0.0010413969
91	0xbe4b7cf5	-0.19871886
92	0xbe3e04e8	-0.18556559
93	0xbdb648f6	-0.08900635
94	0x3dd3383a	0.10313459
95	0x3e5b7f22	0.21435216
96	0x3e5105e7	0.20412408
97	0x3e4e93a5	0.2017351
98	0x3dc55313	0.09634986
99	0xbd935d4b	-0.071955286
100	0x3e087eec	0.13329667
101	0x3cc60050	0.02417007
102	0x3e17c4cf	0.1482117
103	0x3e3bc215	0.18335755
104	0x3eb11bce	0.34591526
105	0x3e043eca	0.12914577
106	0x3c3fa907	0.011698014
107	0x3e43462a	0.19069734
108	0x3e2a85ff	0.16652678
109	0x3dd0054b	0.101572596
110	0x3e5cca3f	0.21561526
111	0x3e0c0b6f	0.13676237
112	0x3de5fb11	0.11229528
113	0x3d2da616	0.04239472
114	0x3ebcca83	0.36873254
115	0x3e7d626c	0.24744576
116	0x3ddc70c9	0.107636996
117	0x3e5f0ee6	0.21783027
118	0x3e44592e	0.19174644
119	0x3cc6bb27	0.024259163
120	0x3d5a82fe	0.05334758
121	0x3e82f0d4	0.25574362
122	0xbd1b3c21	-0.03789914
123	0x3e03bbc0	0.1286459
124	0x3ec6e446	0.38846034
125	0x3e73c6b0	0.23806262
126	0x3eb07ad3	0.34468707
127	0x3e43203f	0.1905527

weight_ih_l1 f4 [128, 32]
0	0x3e0ef0f3	0.13959102
1	0x3ec1ce18	0.3785255
2	0x3ebdcca3	0.37070188
3	0xbeb420d1	-0.35181287
4	0xbe8bb36d	-0.27285329
5	0xbb3eac1c	-0.0029094284
6	0xbe4425bf	-0.19155024
7	0x3eaea88c	0.34112966
8	0x3e302919	0.17203178
9	0xbdaae63e	-0.083446965
10	0xbe9ff5a2	-0.3124209
11	0x3d44b5ea	0.04802505
12	0xbea66eb2	-0.3250633
13	0xbe4466a2	-0.19179776
14	0xbecfa4f9	-0.40555552
15	0x3e9c3e5b	0.30516323
16	0x3e5230e6	0.20526466
17	0xbdb6a914	-0.08918968
18	0x3e586049	0.2113048
19	0x3d4cc24d	0.049989987
20	0x3e9dfe13	0.30857906
21	0x3db10704	0.08643916
22	0x3e14f41d	0.14546247
23	0xbe9294ed	-0.28629246
24	0xbec0c14d	-0.37647477
25	0x3db872b5	0.09006254
26	0x3e1018aa	0.14071909
27	0xbeac640a	-0.33670074
28	0x3e849bbe	0.25900072
29	0xbe86b5b3	-0.263105
30	0xbe789c64	-0.24278408
31	0x3e192659	0.14956035
32	0x3ca8a75a	0.020587612
33	0x3e38b693	0.18038397
34	0x3ed7843f	0.42093083
35	0xbd19d7d1	-0.037559334
36	0xbeb0d732	-0.3453918
37	0x3ebae07c	0.36499393
38	0xbd18f6c5	-0.037344713
39	0x3dc78505	0.09742168
40	0x3edab7aa	0.4271825
41	0xbe884b08	-0.26619744
42	0xbdbcf7e6	-0.092269704
43	0x3c14f351	0.009091214
44	0xbe9c5845	-0.30536094
45	0xbe74384c	-0.238496
46	0xbe90b6c5	-0.28264442
47	0x3ebc4ca7	0.3677723
48	0x3d827c91	0.063714154
49	0xbe9d6689	-0.3074229
50	0x3e737b7f	0.23777579
51	0x3e970f27	0.29503748
52	0x3d7ed19a	0.06221161
53	0x3d18fb40	0.037348986
54	0x3ea849e8	0.32868886
55	0xbe596546	-0.21230039
56	0xbe846489	-0.25857952
57	0x3dfd50cc	0.123689264
58	0x3eb629aa	0.35578662
59	0xbe3a0218	-0.18164861
60	0x3e5f2ca8	0.21794379
61	0xbd6ac5e7	-0.05731764
62	0xbe9537ed	-0.2914423
63	0x3e4ee1e2	0.20203355
64	0x3d8258ae	0.063645706
65	0xbb39a625	-0.002832779
66	0x3d1a4531	0.037663642
67	0xbe112183	-0.1417294
68	0x3cf8ec10	0.030386
69	0x3dc2cf85	0.095122375
70	0xbe0b9b0e	-0.13633367
71	0x3ca8764a	0.020564217
72	0x3e0ad68a	0.13558403
73	0xbe8512a9	-0.259908
74	0xbe802350	-0.2502694
75	0xbb2a3f55	-0.002597769
76	0xbdd3f4e1	-0.10349441
77	0xbe69145d	-0.22761674
78	0xbe0fedbf	-0.14055537
79	0xbe5923ac	-0.21205014
80	0x3e59ff23	0.21288733
81	0x3dd3e62a	0.10346635
82	0x3edb3940	0.42817116
83	0x3e48a475	0.19593985
84	0xbc779cff	-0.015113114
85	0x3ead4f5b	0.33849606
86	0x3e98e06f	0.2985873
87	0xbeac1759	-0.33611563
88	0xbeb31191	-0.3497434
89	0x3edb97ff	0.428894
90	0x3da4029e	0.08008312
91	0x3dbedca1	0.093194254
92	0xbd9db0f3	-0.07699766
93	0xbdb79034	-0.089630514
94	0xbf162457	-0.586492
95	0x3ecc3187	0.39881536
96	0xbe1f4f8e	-0.15557691
97	0x3e1ec9e4	0.15506703
98	0x3e41b841	0.18917944
99	0xbd5f91f5	-0.054582555
100	0x3e2426ce	0.16030428
101	0x3e704f13	0.23467664
102	0xbdd216c9	-0.10258252
103	0x3ee6c17e	0.45069498
104	0x3ec6c6c7	0.3882353
105	0xbe1ddbbf	-0.15415858
106	0xbe6908d8	-0.2275728
107	0x3eeb65d0	0.45976114
108	0xbee2c261	-0.44288924
109	0xbe5c8e3a	-0.2153863
110	0xbedd1cb9	-0.43185976
111	0x3e74be00	0.23900604
112	0x3e42ca5c	0.19022506
113	0xbe3497fb	-0.17636101
114	0x3e72b77f	0.2370281
115	0x3eae7d36	0.34079903
116	0x3dd54d84	0.104151756
117	0x3da7c1e4	0.081912786
118	0x3e6b91f6	0.23004898
119	0xbe55991c	-0.20859188
120	0xbe3e8a9b	-0.18607561
121	0x3eb68559	0.3564861
122	0x3e8b58f2	0.27216297
123	0xbe9d824c	-0.3076347
124	0x3dca9226	0.09891157
125	0x3e033ed2	0.12816933
126	0xbe47bc74	-0.19505483
127	0x3da04a90	0.07826722
128	0x3dbd7c8c	0.09252271
129	0x3e60c9ff	0.21952055
130	0x3e452ebe	0.19256112
131	0x3d0c2496	0.03421458
132	0xbdda235f	-0.10651278
133	0x3e8cf4b2	0.27530438
134	0xbe56a08a	-0.20959678
135	0x3d9470e2	0.07248093
136	0x3e9aa8fe	0.30207056
137	0xbe34cf95	-0.17657311
138	0xbe497e3d	-0.19677062
139	0x3ed591cd	0.417128
140	0xbebb67a0	-0.36602497
141	0xbe4a1501	-0.19734575
142	0xbf058e36	-0.5217012
143	0x3eaa3b6f	0.3324847
144	0x3e605e35	0.21910937
145	0xbec4e585	-0.3845636
146	0x3ea05e5a	0.31321985
147	0x3eba59bb	0.36396584
148	0x3d073c97	0.033016767
149	0x3dc535c4	0.096293956
150	0x3e9201cb	0.28516993
151	0x3cf2193a	0.029553045
152	0xbe87c425	-0.26516834
153	0x3e814b63	0.25252828
154	0x3db26fb9	0.08712716
155	0xbe8f7596	-0.28019398
156	0x3e78bfe6	0.24291953
157	0x3de04cd9	0.109521575
158	0xbee7b126	-0.4525234
159	0x3ded3826	0.11582975
160	0x3e5a3c08	0.21311963
161	0xbdb4ac53	-0.08821931
162	0xbdf371a3	-0.11886909
163	0xbd927e97	-0.07153051
164	0xbdd5af37	-0.1043381
165	0x3d2b66c0	0.041846037
166	0xba1eb482	-0.00060541194
167	0x3e778d40	0.24174976
168	0xbe109a55	-0.14121373
169	0xbe3048b4	-0.17215234
170	0xbd832225	-0.06402997
171	0x3d975e7c	0.07391068
172	0x3d6c0a00	0.057626724
173	0xbd6585aa	-0.056035675
174	0xbd499bad	-0.04922073
175	0x3c7cdea4	0.015433941
176	0x3e925934	0.28583682
177	0x3ae4ef94	0.0017466419
178	0x3dca3699	0.09873695
179	0xbdd95963	-0.10612752
180	0x3e97ad33	0.29624328
181	0x3dfd71ce	0.12375222
182	0x3c5656d4	0.013082225
183	0xbe79f432	-0.2440956
184	0xbda00ea8	-0.078152955
185	0xbd53aec3	-0.051680338
186	0xbd5d4fc0	-0.054031134
187	0xbbf03b9a	-0.007331324
188	0xbe786ffa	-0.24261466
189	0xbe17f997	-0.14841305
190	0xbe93b51a	-0.28849107
191	0x3e428241	0.18995
192	0x3eaf7dd1	0.34275678
193	0x3e69c430	0.22828746
194	0x3d08094c	0.03321199
195	0x3c69870b	0.014253388
196	0xbe4efe1d	-0.20214124
197	0x3e3cdb11	0.18442942
198	0x3c35dcb4	0.011099983
199	0x3d46615c	0.048432693
200	0x3e64145a	0.22273389
201	0xbe08cfce	-0.13360521
202	0xbe151a37	-0.14560781
203	0x3e58414f	0.21118663
204	0xbe950f24	-0.29113114
205	0xbd49fb7f	-0.04931211
206	0xbe1503cf	-0.14552234
207	0x3e71245a	0.23549023
208	0x3e9571c6	0.29188365
209	0xbaa0ff9e	-0.0012283211
210	0x3cc8b6ec	0.024501286
211	0x3e55f1e4	0.20893055
212	0x3e03a83b	0.12857144
213	0x3dea352b	0.11435922
214	0x3e651ef3	0.22375087
215	0xbe36ef94	-0.1786483
216	0xbd8c2c97	-0.06844442
217	0x3e57797b	0.21042435
218	0x3d3a28ed	0.045449186
219	0xbdda0db4	-0.10647145
220	0xbdfc0bba	-0.12306924
221	0xbe223841	-0.15841772
222	0xbef2cd04	-0.4742204
223	0x3e4ed279	0.20197476
224	0x3e1d5ff3	0.15368633
225	0x3e5af4e9	0.21382488
226	0x3ea39138	0.3194673
227	0xbe954136	-0.29151314
228	0xbe4256cd	-0.18978424
229	0x3e0056c5	0.125331
230	0xbe93d4da	-0.2887333
231	0x3e1577c3	0.14596467
232	0x3e40c8ed	0.18826647
233	0x3d99927d	0.074986435
234	0xbe571408	-0.21003735
235	0x3e9dba87	0.30806372
236	0xbe0da5e2	-0.1383281
237	0xbe464231	-0.19361188
238	0xbeac2e31	-0.3362899
239	0x3dc59cbb	0.096490346
240	0x3eacc8a5	0.3374683
241	0xbd4ff3a2	-0.050769456
242	0x3e4b9c7d	0.19883914
243	0x3df07062	0.11740185
244	0x3e9ae60b	0.30253634
245	0x3e4e0d8a	0.20122352
246	0x3d07f552	0.03319294
247	0xbd7cd211	-0.061723772
248	0xbeaa3793	-0.33245525
249	0x3eb2f351	0.3495126
250	0x3e774e48	0.24150956
251	0xbe920d58	-0.28525805
252	0xbabae293	-0.0014258198
253	0x3e14d46a	0.14534155
254	0xbe894b60	-0.2681532
255	0x3ecb844c	0.39749372

weight_hh_l1 f4 [128, 32]
0	0xbd6f93ec	-0.05849068
1	0x3e2deb6f	0.16984342
2	0xbd27eb94	-0.04099615
3	0x3d0350ec	0.032059595
4	0xbdf3b7d2	-0.11900295
5	0xbdc6eb8b	-0.09712895
6	0xbd8f97d1	-0.070113786
7	0xbe2bad69	-0.1676537
8	0xbe2fc638	-0.17165458
9	0xbe330c23	-0.17485099
10	0x3d354698	0.044256777
11	0xbe00b82e	-0.12570259
12	0xbb5db8c0	-0.0033832043
13	0x3cd0f028	0.02550514
14	0xbd80ab06	-0.0628262
15	0x3e26464d	0.16237755
16	0x3dc535c2	0.09629394
17	0x3e041e05	0.12902077
18	0xbe334316	-0.1750606
19	0xbb730740	-0.0037083179
20	0x3e263d39	0.16234292
21	0xbd9dc9da	-0.07704516
22	0x3d5ff76c	0.05467932
23	0xbe13912a	-0.14410844
24	0xbc706f80	-0.014675021
25	0xbc373ce0	-0.011183947
26	0xbc004d90	-0.007830992
27	0xbe316d16	-0.17326769
28	0xbcdbd458	-0.026834652
29	0x3de69742	0.11259319
30	0x3d791080	0.06080675
31	0x3e0b1b01	0.1358452
32	0xbd56f72e	-0.052481823
33	0x3ada6b00	0.0016663969
34	0x3de3e9ba	0.11128564
35	0xbc985670	-0.018595904
36	0x3cda29b0	0.026631206
37	0xbe225350	-0.15852094
38	0xbd36941c	-0.04457484
39	0x3e0f59e9	0.13999142
40	0x3e265493	0.162432
41	0x3d61c5a0	0.05512011
42	0xbdc2fd30	-0.09520948
43	0x3e0f927d	0.14020725
44	0x3d79ba20	0.06096852
45	0xbe16b770	-0.14718413
46	0xbc430120	-0.011902124
47	0xbdbd7532	-0.09250869
48	0xbcc6b6c0	-0.024257064
49	0xbdad295a	-0.08455153
50	0x3dff3866	0.12461929
51	0xbcd14c30	-0.025549024
52	0x3d22bd88	0.039731532
53	0xbe0d5017	-0.13800083
54	0xbd8c1905	-0.068407096
55	0xbda601db	-0.08105823
56	0x3d583940	0.052788973
57	0xbe1732c2	-0.14765456
58	0xbd8a64e9	-0.06757528
59	0xbe33fa74	-0.17576009
60	0xbbd3af40	-0.0064601004
61	0x3d54217c	0.051789746
62	0xbe1ce2da	-0.15320912
63	0xbd16fbfc	-0.036861405
64	0xbe151bdb	-0.14561407
65	0xbe308a22	-0.17240193
66	0xbd136004	-0.03598024
67	0xbda14c49	-0.07875878
68	0xbd1bd8d8	-0.038048595
69	0x3d9b9012	0.075958386
70	0x3de96c92	0.11397661
71	0x3d33bed0	0.043883145
72	0xbdc9318c	-0.098239034
73	0x3d05d6d0	0.032675564
74	0x3cd3d110	0.025856525
75	0x3e30e7bd	0.17275901
76	0x3d4996f4	0.049216226
77	0xbcd0c8b0	-0.02548632
78	0xbdcab434	-0.09897652
79	0xbc8ca6b8	-0.017169341
80	0xbc889610	-0.016673118
81	0xbe1cab5f	-0.15299748
82	0xbd84f079	-0.06491179
83	0x3d8b9ce4	0.06817034
84	0x3caf5268	0.021401599
85	0x3d01316c	0.031541273
86	0x3d7aca6c	0.0612282
87	0x3d9ca7b6	0.07649176
88	0xbd0625ac	-0.03275077
89	0x3dd84c72	0.10561456
90	0x3c036420	0.008019477
91	0xbd9ca0cc	-0.07647857
92	0x3da523ae	0.08063446
93	0x3e32c747	0.17458831
94	0x3d51edbc	0.05125211
95	0x3df32d52	0.118738785
96	0x3cb67440	0.02227223
97	0xbd9a525a	-0.075352386
98	0x3d04b0f8	0.032395333
99	0xbd55c188	-0.05218652
100	0xbd3e863c	-0.046514735
101	0xbde4aca4	-0.11165741
102	0x3e123bb7	0.14280592
103	0xbe020d86	-0.12700471
104	0x3e1c0ce1	0.15239288
105	0xbd45cf5c	-0.048293456
106	0x3e2761af	0.16345857
107	0xbcd6a550	-0.026201874
108	0x3e3300c7	0.17480765
109	0xbe34a95a	-0.17642727
110	0xb86f7000	-5.708635e-05
111	0xbe2c1807	-0.1680604
112	0xbdb023ec	-0.086006016
113	0xbbbd8560	-0.005783722
114	0x3dfe1812	0.12406935
115	0xbd9372c6	-0.07199626
116	0x3e1bd3bf	0.15217493
117	0x3d0c041c	0.034183607
118	0xbb4ce1c0	-0.0031262487
119	0x3e344aa1	0.17606594
120	0xbdd7ff0e	-0.10546695
121	0xbd0dad28	-0.034588963
122	0x3de19b6a	0.11015971
123	0xbe01b07c	-0.1266498
124	0xbe2cd600	-0.1687851
125	0x3e0b23a5	0.13587816
126	0xbe119b1e	-0.14219329
127	0x3c3f6340	0.011681378
128	0x3e2280bf	0.15869425
129	0x3dd39892	0.10331835
130	0x3d70afa8	0.05876127
131	0x3d03f8e8	0.032219797
132	0xbd83ff95	-0.06445233
133	0xbcd4fdd8	-0.025999948
134	0xbe26ea21	-0.1630025
135	0x3c1ab170	0.009441718
136	0x3dc3e832	0.09565772
137	0x3dfdf82a	0.12400849
138	0xbdde7ec4	-0.108640224
139	0xbd98c2fb	-0.074590646
140	0xbcf3ed78	-0.02977632
141	0x3ccfc848	0.025364056
142	0x3d8e396a	0.069445446
143	0xbc0f7170	-0.008755073
144	0xbd1630b4	-0.03666754
145	0xbe2ed62f	-0.17073892
146	0xbe1e8c73	-0.15483265
147	0xbd817b93	-0.06322398
148	0xbd69a8ba	-0.057045676
149	0xbd414660	-0.047186255
150	0x3d6f5504	0.058430687
151	0xbe275339	-0.1634034
152	0x3dd8d2c6	0.10587077
153	0xbdb1fccd	-0.08690796
154	0xbdb3961e	-0.08768867
155	0x3dd3249e	0.103097185
156	0x3d644e80	0.055738926
157	0xbdae1af3	-0.08501234
158	0xbbb34ca0	-0.005471781
159	0xbcaa4e00	-0.020789146
160	0xbc2b3ad0	-0.010451034
161	0xbd92d9b5	-0.071704306
162	0x3c0b1010	0.008487716
163	0xbe0c0d82	-0.13677028
164	0x3d0e560c	0.03475003
165	0xbd6b0264	-0.057375327
166	0x3d2253c8	0.03963068
167	0x3d189378	0.037250012
168	0x3d9c4186	0.07629685
169	0x3c74fb50	0.014952496
170	0xbe2537bf	-0.16134547
171	0x3d9bd452	0.07608856
172	0x3d9fff0a	0.07812317
173	0xbdacd3bd	-0.08438823
174	0x3ac97180	0.0015368909
175	0xbd0cea24	-0.03440298
176	0xbe0b3d5a	-0.13597623
177	0xbd1c3394	-0.038135126
178	0xbe2fb484	-0.17158705
179	0x3c9f5878	0.019451365
180	0x3e0a9d0d	0.13536473
181	0x3e045a07	0.12924968
182	0x3de98d5e	0.11403917
183	0xbd1fd014	-0.0390168
184	0x3c2887e0	0.010286301
185	0x3dfcd4d6	0.12345283
186	0x3e287823	0.16452079
187	0x3c4e5a60	0.012594789
188	0xbdeb6006	-0.114929244
189	0xbe18b867	-0.14914094
190	0xbe22d163	-0.15900187
191	0xbdd9adae	-0.1062883
192	0x3dd1dc6e	0.10247122
193	0xbe029746	-0.12753019
194	0x3e322631	0.17397381
195	0xbdb1c3c4	-0.086799175
196	0x3e33daad	0.17563887
197	0x3e250819	0.1611637
198	0x3d8ecb5e	0.06972383
199	0xbe1c62ce	-0.15272066
200	0xbcfa11e8	-0.030526116
201	0x3d1dafa4	0.038497582
202	0xbdec5d84	-0.11541274
203	0x3e04aa83	0.1295567
204	0x3def4a46	0.116840884
205	0xbe22dee0	-0.15905333
206	0xbdc1cf7c	-0.09463403
207	0x3d5d787c	0.05406998
208	0x3e28bb01	0.16477586
209	0x3d58b280	0.052904606
210	0x3da22d12	0.07918753
211	0x3de075be	0.109599575
212	0x3cd20350	0.025636345
213	0x3e112b47	0.14176665
214	0xbd8a711f	-0.067598574
215	0x3e27e895	0.16397317
216	0xbe138180	-0.14404869
217	0x3c7843c0	0.015152872
218	0x3e1b74bf	0.15181254
219	0xbc8467e8	-0.016162828
220	0x3dd80252	0.105473176
221	0x3d583568	0.052785307
222	0x3d462854	0.048378304
223	0x3cdf57d8	0.027263567
224	0xbe33264b	-0.17495076
225	0xbd363918	-0.044488043
226	0x3e0a0303	0.13477711
227	0xbad20a80	-0.0016024858
228	0x3e272ad7	0.16324936
229	0x3d0ec4e4	0.03485574
230	0x3d62f860	0.05541265
231	0x3d2b1390	0.041766703
232	0xbe11abfa	-0.1422576
233	0xbe17febd	-0.14843269
234	0x3e317dcd	0.17333145
235	0x3d42ce68	0.047560126
236	0x3dcb02fe	0.0991268
237	0x3d2dd368	0.04243794
238	0x3db4b8d2	0.08824314
239	0xbe0aa2bd	-0.13538642
240	0x3dfec406	0.12439732
241	0xbcd5dd90	-0.026106626
242	0x3de9cd1a	0.11416073
243	0xbd57f2b6	-0.0527217
244	0xbe322f41	-0.17400838
245	0xbdfb12f2	-0.12259473
246	0x3b9541c0	0.004554957
247	0xbe28b73a	-0.16476145
248	0xbdcbbc3d	-0.09948013
249	0xbc4ab3c0	-0.012371957
250	0x3e037bf7	0.12840258
251	0x3e26f9a3	0.16306166
252	0xbd5a02ae	-0.05322521
253	0x3d34dbb0	0.044154823
254	0xbc53abb0	-0.012919351
255	0x3e311bf3	0.17295818

bias_ih_l1 f4 [128]
0	0x3e9a565a	0.30144006
1	0x3e3a7bc9	0.18211283
2	0x3e2582b5	0.16163142
3	0x3dfd7d1d	0.12377379
4	0x3d4ca14b	0.04995851
5	0x3dc949a7	0.09828501
6	0x3e1e28de	0.15445277
7	0x3dc0fb11	0.09422887
8	0x3ea33a18	0.3188026
9	0x3e96c9af	0.29450747
10	0xbd4c4072	-0.049866147
11	0x3e844c60	0.2583952
12	0x3e8e9188	0.27845407
13	0x3e2006dc	0.15627617
14	0x3dad22be	0.08453892
15	0x3dd30250	0.103031754
16	0x3eaa502c	0.3326429
17	0x3e4ba0a4	0.19885498
18	0x3e352e8b	0.17693536
19	0x3e0ae54e	0.13564035
20	0x3d8e4dbc	0.069484204
21	0xbc99db24	-0.018781252
22	0xbd7a32fe	-0.061083786
23	0x3e42c0d8	0.19018877
24	0x3dad431a	0.08460064
25	0x3e3c6e06	0.18401346
26	0xbca1c5dd	-0.019747669
27	0x3dde02cc	0.10840377
28	0xbd48d660	-0.04903257
29	0x3e2fbfdb	0.17163031
30	0x3e3198f0	0.17343497
31	0xbd776c4e	-0.06040602
32	0x3e26c05d	0.16284318
33	0x3d51c918	0.05121717
34	0xbdb69162	-0.08914448
35	0xbe01e61b	-0.12685435
36	0x3e06664b	0.13124959
37	0xbd3435a4	-0.04399647
38	0xbdea63be	-0.114448056
39	0x3d1fa228	0.038973004
40	0x3da740aa	0.081666306
41	0x3e2b57bf	0.16732691
42	0xbde315b3	-0.11088123
43	0x3e26b3cf	0.16279529
44	0xbdb9b327	-0.09067374
45	0xbdc6a160	-0.096987486
46	0x3e173cfd	0.14769359
47	0x3e26d96d	0.16293879
48	0x3c9b8528	0.018984392
49	0xbbdad300	-0.006677985
50	0x3dbc0af6	0.09181778
51	0x3e2ffd53	0.1718648
52	0x3dbde28e	0.092717275
53	0x3c9bb300	0.019006252
54	0x3e176645	0.14785106
55	0x3c823678	0.015895113
56	0x3dd313fe	0.103065476
57	0x3d1a2188	0.037629634
58	0xbd9c75dd	-0.07639668
59	0x3db29b3e	0.08721016
60	0x3e0b5735	0.13607486
61	0xbe2dbba0	-0.16966105
62	0x3e09406d	0.13403483
63	0xbd841f97	-0.06451338
64	0xbe46143b	-0.19343655
65	0xbdf260f2	-0.11834897
66	0x3dd617d1	0.10453761
67	0x3dcdfd23	0.100580476
68	0x3cac7322	0.021050993
69	0x3e156a8d	0.14591427
70	0xbd25d9a5	-0.040490765
71	0xbd11afcc	-0.035568044
72	0x3d5e85a8	0.054326683
73	0x3e386e6c	0.18010873
74	0xbd342d72	-0.043988653
75	0x3c3036cd	0.010755253
76	0x3c1f91d4	0.009739358
77	0xbda247ed	-0.07923875
78	0xbcdd83e4	-0.02704043
79	0x3d8920b2	0.06695689
80	0xbe369e64	-0.17833859
81	0xbdcd419c	-0.100222796
82	0xbcea412f	-0.028595535
83	0xbc1fe4bd	-0.009759125
84	0xbd051c11	-0.03249747
85	0xbda4632b	-0.08026727
86	0xbe0e4605	-0.13893898
87	0x3c6f72bb	0.014614756
88	0xbd6bd9d1	-0.057580773
89	0xbdc837f0	-0.09776294
90	0x3e21c0e4	0.15796238
91	0xbd76b1b9	-0.060228083
92	0x3de3641b	0.11103078
93	0x3e016103	0.12634663
94	0x3e1cd62a	0.15316072
95	0x3df50285	0.11963371
96	0x3e9d9074	0.3077427
97	0xbd4ac060	-0.04949987
98	0x3ec12ad2	0.37727982
99	0x3e262603	0.16225438
100	0x3df92d33	0.12166824
101	0x3e2504b0	0.1611507
102	0x3da44b69	0.08022196
103	0x3eb947ce	0.36187595
104	0x3e8e73b8	0.2782266
105	0x3e3087c6	0.17239293
106	0x3d66bded	0.05633347
107	0x3da315ac	0.07963118
108	0x3e4e0bb5	0.20121653
109	0x3c7b6d28	0.015345849
110	0x3ea1d8da	0.31610757
111	0xbc8d775c	-0.017268829
112	0x3ebdfc69	0.37106636
113	0xbc6347b1	-0.013872073
114	0x3e325c26	0.17417964
115	0x3cb27c16	0.021787684
116	0xbb7e74b3	-0.0038826882
117	0x3dfcc0b0	0.1234144
118	0x3d2ea16f	0.042634424
119	0x3daba05e	0.08380197
120	0x3cf1bdaa	0.029509384
121	0x3e838306	0.256859
122	0x3d0f5b69	0.034999285
123	0xbd283fcc	-0.041076466
124	0xbd586a74	-0.052835897
125	0xbd43b002	-0.047775276
126	0x3eae3f3e	0.34032625
127	0x3dec63f7	0.11542504

bias_hh_l1 f4 [128]
0	0x3db44b32	0.08803405
1	0x3bc40519	0.005982053
2	0x3e9c63c7	0.30544874
3	0x3e9b94f3	0.30387077
4	0xbcf45ae8	-0.029828504
5	0x3dee9d1d	0.11651061
6	0x3dbc2f69	0.0918873
7	0x3ed455a2	0.41471583
8	0x3e86422a	0.26222354
9	0x3dd8d6ef	0.1058787
10	0x3e7c6c11	0.24650599
11	0xbd9fc771	-0.07801712
12	0x3ea3344a	0.3187583
13	0x3def14bf	0.11673879
14	0x3e1e1b6f	0.15440153
15	0xbae75bf6	-0.0017651308
16	0x3e0c5bb3	0.13706855
17	0x3e9e8b0b	0.30965456
18	0x3e62248e	0.22084257
19	0x3d9874e2	0.074441686
20	0x3e5077a6	0.20358142
21	0xbdcd60ff	-0.10028266
22	0x3e7e18d1	0.24814154
23	0x3e065924	0.13119942
24	0x3e827f9f	0.25487992
25	0x3d61b2c7	0.055102136
26	0x3cb0c9f9	0.021580683
27	0x3de9ec10	0.114219785
28	0x3dce5bc0	0.10076094
29	0xbdb0b504	-0.08628276
30	0x3ed29583	0.41129693
31	0x3df08710	0.11744511
32	0x3bd2ec40	0.0064368546
33	0x3cdbcf40	0.026832223
34	0x3da6ac0e	0.081382856
35	0x3d97616e	0.0739163
36	0x3dedeb4a	0.116171435
37	0x3d15a8c0	0.036537886
38	0xbe18b569	-0.14912952
39	0x3e33bf37	0.17553411
40	0x3cfa1f90	0.030532628
41	0x3e058623	0.1303945
42	0xba4a7300	-0.0007722825
43	0x3c02cce0	0.007983416
44	0xbd6fed42	-0.058575876
45	0x3e11b447	0.14228927
46	0xbe1fa7be	-0.15591332
47	0x3dc010c6	0.09378199
48	0xbe03cf2b	-0.12871997
49	0x3e0b43b5	0.13600047
50	0xbd39d828	-0.04537216
51	0xbe29dd4e	-0.16588327
52	0x3d8ea62c	0.069652885
53	0xbe0a0bd5	-0.13481076
54	0xbe34e3e4	-0.17665058
55	0xbdb27c01	-0.08715058
56	0xba14e100	-0.00056792796
57	0x3dd7cd0e	0.10537158
58	0xbcebdeb8	-0.028792724
59	0xbe1ae388	-0.15125859
60	0x3c37b400	0.011212349
61	0x3e01b58b	0.1266691
62	0x3e0604e1	0.13087799
63	0xbe260389	-0.16212286
64	0xbe1fff31	-0.15624692
65	0x3db294c4	0.08719781
66	0xbd076821	-0.03305829
67	0xbe30616e	-0.17224666
68	0xbd96e505	-0.07367901
69	0x3cf5e524	0.03001649
70	0x3e1117e2	0.14169267
71	0xbc06c521	-0.00822571
72	0x3d96bfa8	0.07360774
73	0xbd0ad766	-0.033896826
74	0x3e13df9f	0.14440773
75	0x3e4beea9	0.1991526
76	0x3ced4d83	0.028967625
77	0xbe122412	-0.14271572
78	0x3c84b661	0.016200246
79	0x3d9b1a2a	0.0757335
80	0x3db9fe7e	0.09081744
81	0xbdfe91ad	-0.12430129
82	0x3dfd95f3	0.12382116
83	0xbd3d35ab	-0.04619376
84	0x3d282c1c	0.04105769
85	0xbe106aca	-0.14103237
86	0xbe28532a	-0.16437975
87	0xbd15d12e	-0.036576442
88	0xbd20395b	-0.0391172
89	0x3e26f031	0.16302563
90	0x3e22410a	0.15845123
91	0xbd8a8c31	-0.06765021
92	0x3d0cb6fb	0.03435419
93	0x3e0a098b	0.13480203
94	0x3d919f5e	0.07110475
95	0x3d8c830e	0.06860934
96	0x3e914517	0.28373024
97	0x3cb58398	0.022157475
98	0x3e80f2e8	0.25185323
99	0x3ebe84da	0.37210733
100	0xbd4ad464	-0.049518958
101	0x3e481bd7	0.1954187
102	0xbd8fe8e6	-0.07026844
103	0x3e8eeacd	0.27913514
104	0x3e34a8c6	0.17642507
105	0x3ea7f3fd	0.32803336
106	0x3d519024	0.051162854
107	0xbc6ad998	-0.014334105
108	0x3d4d0884	0.05005695
109	0xbdae2b87	-0.08504396
110	0x3e5e41d8	0.21704805
111	0x3e7704f0	0.24122977
112	0x3de76f1b	0.113004886
113	0x3a1cc73c	0.0005980616
114	0x3e65494b	0.2239124
115	0xbd161c89	-0.036648307
116	0x3e999af1	0.30001023
117	0x3d5ae26a	0.05343858
118	0xbc8553e0	-0.016275346
119	0xbcc2b10c	-0.023766063
120	0xbd96c5a6	-0.07361917
121	0x3cf73ecc	0.030181311
122	0x3dcab075	0.09896938
123	0x3deeae86	0.116543815
124	0x3d55fc98	0.052242845
125	0x3e222f2d	0.15838309
126	0x3edbfbed	0.42965642
127	0x3dd6475a	0.10462828

weight_ih_l2 f4 [128, 32]
0	0xbebef719	-0.37297896
1	0xbe0f6b77	-0.14005838
2	0x3bc18a88	0.005906407
3	0xbe3ef3d9	-0.18647708
4	0x3ea23c13	0.31686458
5	0x3e858d9d	0.26084605
6	0x3e1b9aaa	0.15195718
7	0xbe5ced6c	-0.21574944
8	0xbc29f0b7	-0.010372332
9	0x3e24559d	0.16048284
10	0x3dc7f040	0.09762621
11	0x3e4ba9af	0.19888948
12	0x3da5c50f	0.080942266
13	0xbe349898	-0.17636335
14	0x3ebde452	0.37088257
15	0x3d35863e	0.044317476
16	0xbe2e9ee1	-0.17052795
17	0x3c822e00	0.015891075
18	0x3daac778	0.08338827
19	0xbe104559	-0.14088954
20	0x3ddcf3d8	0.10788697
21	0xbdc4a5c9	-0.096019335
22	0xbe6c6687	-0.23085986
23	0xbe4bb577	-0.19893442
24	0x3d990ad9	0.07472772
25	0x3e5d5d9b	0.21617739
26	0x3dcdb033	0.10043373
27	0xbdf108be	-0.117692456
28	0x3e262f7e	0.16229054
29	0x3b337eba	0.0027388767
30	0xbebbf9dc	-0.36714065
31	0x3e554275	0.20826133
32	0x3b71ac50	0.0036876388
33	0xbdda06a0	-0.10645795
34	0xbc3ac3de	-0.011399237
35	0xbdeccd4a	-0.11562593
36	0x3e1d81d7	0.15381561
37	0xbd688cb1	-0.0567748
38	0x3d41c572	0.04730744
39	0x3bad5169	0.005289246
40	0xbcc2e7a0	-0.023792088
41	0xbdd53771	-0.10410965
42	0x3d7876b6	0.060660087
43	0xbd8d263b	-0.068920575
44	0xbe71c345	-0.23609646
45	0x3e34a3f9	0.17640676
46	0xbdfb44ba	-0.12268968
47	0xbd2e48cd	-0.042549897
48	0x3e579309	0.21052183
49	0x3dd1d277	0.10245221
50	0x3e5bfb23	0.2148252
51	0xbbd0114c	-0.006349718
52	0xbd3f999e	-0.04677736
53	0xbe391b40	-0.18076801
54	0xbdd8333a	-0.10556646
55	0xbe029e8d	-0.12755795
56	0x3d2028d7	0.039101448
57	0x3e3d9cf4	0.18516904
58	0x3e4e091f	0.20120667
59	0xbe3893cf	-0.18025135
60	0x3dca02d2	0.09863819
61	0x3e0b9d08	0.13634121
62	0xbb92846e	-0.0044713533
63	0x3e6fc652	0.23415497
64	0xbe4c64e3	-0.1996036
65	0xbe5d5398	-0.2161392
66	0xbd48c6cc	-0.049017712
67	0xbd97e77d	-0.074172
68	0x3dde4c2b	0.10854372
69	0x3e5587b2	0.20852545
70	0x3e739ded	0.23790713
71	0xbe83210b	-0.25611147
72	0x3e853bce	0.2602219
73	0x3e322ac4	0.17399126
74	0x3dbceb54	0.09224573
75	0x3d32b25e	0.043627135
76	0x3e80446b	0.250522
77	0xbea1f6ab	-0.31633505
78	0x3e2572d7	0.16157089
79	0x3d9bcde1	0.07607628
80	0xbc9e9130	-0.01935634
81	0xbe88a729	-0.26690033
82	0x3d6ae3c0	0.057346106
83	0xbe88d58e	-0.2672543
84	0x3e644b0a	0.2229425
85	0xbd06d087	-0.03291371
86	0xbd31ff56	-0.043456398
87	0xbdf33963	-0.1187618
88	0x3b699cfb	0.0035646546
89	0x3ea1c42a	0.31594974
90	0x3e7ddc6e	0.24791119
91	0xbe8eae7b	-0.27867493
92	0x3e7b2c89	0.24528708
93	0x3e798454	0.24366885
94	0x3e1b2e8d	0.15154476
95	0x3e2fb345	0.1715823
96	0xbeab23d5	-0.33425775
97	0xbdee7809	-0.11643989
98	0x3d6de9ee	0.05808442
99	0xbcdd1bf7	-0.026990874
100	0x3e4f5f8f	0.20251296
101	0x3e351771	0.17684723
102	0x3e27a6b0	0.1637218
103	0xbe877982	-0.2645989
104	0x3e402786	0.18765077
105	0x3e2ce1a0	0.16882944
106	0xbca29ba7	-0.019849611
107	0x3e7def03	0.24798207
108	0x3e1e6101	0.15466692
109	0xbe9f4f44	-0.31115162
110	0x3da9752c	0.08274302
111	0x3e8a4a22	0.27009684
112	0xbd2977be	-0.04137396
113	0xbd8d8342	-0.06909801
114	0x3e7f60d6	0.24939284
115	0xbd0f543e	-0.03499245
116	0x3e2e4137	0.17017065
117	0xbda4fb14	-0.08055702
118	0xbe309dd5	-0.17247708
119	0xbd12fd27	-0.035885956
120	0x3d9c9d87	0.076472335
121	0x3e07f558	0.13277185
122	0x3df33ee8	0.11877233
123	0xbe906f72	-0.28210026
124	0x3e42a7c9	0.19009317
125	0x3e49f94f	0.1972401
126	0xbe5caf14	-0.21551162
127	0x3e39a223	0.18128256
128	0xbd343ad0	-0.0440014
129	0xbdcc7cc4	-0.09984735
130	0xbb7d4af7	-0.003864942
131	0xbe116793	-0.14199667
132	0x3e499cb2	0.19688681
133	0x3e86ecd3	0.26352558
134	0x3e0acad6	0.13553938
135	0xbd6bd798	-0.057578653
136	0x3e62d271	0.2215059
137	0x3e73269c	0.23745197
138	0x3e4e9722	0.2017484
139	0xbd31bfd6	-0.04339584
140	0x3e70a5ed	0.23500796
141	0xbd8e661c	-0.069530696
142	0x3d800906	0.06251721
143	0x3e9e71d3	0.30946216
144	0x3c83babe	0.016080257
145	0xbe632f93	-0.22186117
146	0x3e396e40	0.18108463
147	0xbe8089dd	-0.2510518
148	0x3e959402	0.29214483
149	0xbe17d149	-0.1482593
150	0x3d9a1e76	0.07525341
151	0xbdaf6b16	-0.08565347
152	0x3d3e2b1f	0.046427842
153	0x3d8d49f7	0.06898873
154	0x3e281429	0.1641394
155	0xbe45cffd	-0.19317622
156	0x3de051d4	0.109531075
157	0x3dc933fc	0.09824368
158	0xbea370dd	-0.31922045
159	0x3e0c8814	0.13723785
160	0x3de7de1b	0.1132166
161	0xbe867cfd	-0.26267233
162	0xbe546570	-0.2074182
163	0xbe1ebc19	-0.15501441
164	0x3dfc0ea3	0.12307479
165	0x3dfbfa98	0.12303656
166	0x3e11b6e1	0.14229919
167	0xbe1e2528	-0.15443861
168	0x3deb125b	0.114781104
169	0x3eb30904	0.34967816
170	0x3e8e2ca6	0.2776844
171	0x3e757652	0.23970917
172	0x3e040f5f	0.12896489
173	0xbe714995	-0.23563226
174	0x3d37a15e	0.044831626
175	0x3e8b2ab6	0.27181023
176	0x3e05199d	0.12998052
177	0xbe74e314	-0.23914748
178	0x3e09abfc	0.13444513
179	0xbc3e881f	-0.0116291335
180	0x3d83e883	0.064408325
181	0xbebae615	-0.36503664
182	0xbe6039bc	-0.21897024
183	0xbdbbc2bb	-0.09168001
184	0xbd020f74	-0.03175302
185	0x3e575570	0.21028686
186	0x3e2e2a40	0.17008305
187	0xbc8ee45d	-0.017442876
188	0x3de5a352	0.112127915
189	0x3eac0a57	0.3360164
190	0x3f092522	0.53572285
191	0x3eab17e3	0.33416662
192	0x3ce1fef3	0.02758739
193	0xbe0429e4	-0.12906605
194	0xbeb2c29c	-0.349141
195	0xbd172c02	-0.036907203
196	0x3d1c3e9d	0.03814565
197	0x3d267cf0	0.040646493
198	0x3d733dbf	0.059385058
199	0x3cfde438	0.030992612
200	0x3dfcf10c	0.123506635
201	0x3e0223ca	0.12708965
202	0x3ed338dd	0.4125432
203	0x3e9b521a	0.30336076
204	0x3df27b1e	0.11839889
205	0x3d94ed1b	0.07271787
206	0x3dcb1256	0.09915607
207	0x3d96b412	0.073585644
208	0xbdbe4e5a	-0.09292288
209	0xbe1934f2	-0.14961603
210	0x3bb81621	0.0056178723
211	0xbea60ffd	-0.32434073
212	0x3e13c4dd	0.14430566
213	0xbd062563	-0.0327505
214	0xbe8e3401	-0.2777405
215	0xbe9b555f	-0.3033857
216	0x3dd5ad7e	0.10433482
217	0x3ddf8fc9	0.10916097
218	0x3e9dd6ba	0.30827886
219	0xbe8e1f9b	-0.27758488
220	0x3ea5c517	0.3237693
221	0x3ca6d794	0.020366468
222	0xbc7d0f76	-0.015445581
223	0x3e352bc5	0.17692478
224	0xbe3e1e21	-0.18566181
225	0xbe562080	-0.20910835
226	0x3de464ad	0.11152015
227	0xbd8fb874	-0.070176035
228	0x3e880ce2	0.2657233
229	0xbd1ca3a3	-0.038241994
230	0x3d8f642d	0.07001529
231	0xbe0de8a8	-0.13858283
232	0x3c2af3c7	0.010434098
233	0x3d9a8d63	0.075464986
234	0x3dec68ae	0.115434036
235	0x3e133272	0.14374712
236	0x3e06e817	0.13174473
237	0xbd8c32c3	-0.068456195
238	0x3dd9206b	0.10601886
239	0x3e86bf9f	0.2631807
240	0xbe44e614	-0.19228393
241	0xbe88fd7e	-0.267559
242	0x3c16ad52	0.009196596
243	0x3c1d8fe1	0.009616823
244	0x3e23dbb9	0.16001786
245	0x3d35d716	0.044394575
246	0xbd16e662	-0.036840804
247	0xbe625045	-0.22100933
248	0xbd30ef76	-0.043197118
249	0xbda4397d	-0.080187775
250	0x3d79c4b9	0.060978625
251	0xbd9c6d61	-0.0763805
252	0xbd41647d	-0.047214974
253	0x3decd96b	0.11564907
254	0xbed22fa4	-0.41051972
255	0x3e8f88e3	0.28034124
