ChampagneSales_with_LSTM/data/model.pt (torch, 17031 bytes, 9 tensors)

weight_ih_l0 f4 [64, 2]
000000 c9 58 6c bd 42 bf 1e 3e d7 d5 46 3d 3c 9e de bd
       -0.05770186 0.15502647 0.048543777 -0.108700246
000010 0f 5c 90 3e 19 58 37 3e e3 c3 03 3f 56 cd fd 3d
       0.28195235 0.179047 0.51470774 0.1239268
000020 9f 7d 14 3e a8 40 94 be 9a 41 a3 3e e0 2a b0 3e
       0.14501046 -0.2895558 0.31885988 0.3440771
000030 f0 07 77 3d da d5 76 3e cf d2 bb 3e 79 93 ca 3e
       0.060310304 0.24105015 0.36684272 0.39565638
000040 ea 99 a7 3e 5c 76 2f 3f e4 05 fa 3e 43 b9 8e 3f
       0.32734615 0.6853998 0.4883262 1.1150287
000050 4c ad 7e 3e 5d 1d 15 3e 2e 31 9f 3d d0 51 3e be
       0.24870795 0.14561982 0.07773052 -0.18585896
000060 d5 92 97 3e be 31 74 3e 5d a1 c6 3d f4 73 90 bd
       0.2960421 0.238471 0.09698746 -0.07053366
000070 d0 11 c2 bd 2f 88 1c be df 68 b7 3d d3 ad b4 3c
       -0.09476054 -0.15286325 0.089555494 0.022055542
000080 73 e3 ea 3d 82 af ae 3e d9 2f 8d 3c d4 65 34 3e
       0.11469164 0.34118277 0.01723473 0.1761697
000090 98 12 77 3e 37 17 83 3d ae bf 7a 3e 5f d2 a7 be
       0.24128187 0.06400912 0.24487182 -0.32777688
0000a0 05 e3 7f be f5 a7 7b be ca bb 90 3e 4f 2a 94 be
       -0.24988945 -0.2457579 0.28268272 -0.2893853
0000b0 1c d7 da bd ae 6c ae bd 90 d0 25 3d 3a dd 11 be
       -0.1068556 -0.08516823 0.040482104 -0.14244547
0000c0 24 46 d3 bd e4 8c 27 3f be 4b 12 3e b0 20 7a 3d
       -0.10316113 0.6544936 0.14286706 0.06106633
0000d0 54 47 1d be f5 d3 3b bc bc 23 89 3e 9f be f7 3d
       -0.15359241 -0.011464109 0.26785076 0.12096905
0000e0 41 6b 1f be 6b 86 b4 3d 9f 5f 3c 3e 28 6f b3 3c
       -0.15568258 0.08814701 0.18395852 0.02190359
0000f0 35 0c 3d 3e e0 ee 8a be 13 09 40 3c 32 0a 35 be
       0.18461688 -0.27135372 0.011720913 -0.1767967
000100 72 71 55 3e 62 fe 9d 3e f5 c9 e6 bb b5 29 35 be
       0.20844057 0.3085814 -0.007043118 -0.17691691
000110 3b 1d c8 3c e2 c2 77 3d 20 84 7f 3d cd 0d 16 bf
       0.024428 0.06048859 0.062381864 -0.5861481
000120 b9 ce 0c be 2b e9 cb 3c ab d8 21 be 86 2c ba 3f
       -0.13750733 0.024891457 -0.15805309 1.4544837
000130 aa 19 94 be 06 91 bf bd 33 9d be 3d 82 71 52 be
       -0.2892583 -0.09353833 0.09307327 -0.20551112
000140 e4 25 02 3e 87 df 2f bf 42 fd 03 3e bf 8e 56 3e
       0.12709767 -0.6870045 0.12889579 0.20952891
000150 3a b6 51 3e b5 3c 25 bf 60 75 79 3e 3a 15 44 3e
       0.2047967 -0.64545757 0.24361181 0.19148722
000160 1e 05 9e 3e 94 1d 54 3e a5 01 9c be 50 97 80 be
       0.3086328 0.20714408 -0.30470005 -0.25115442
000170 3e e9 98 3e 76 f1 2d 3e b2 6e c6 3e 7f fe 09 3d
       0.2986545 0.16986641 0.3875633 0.033689972
000180 1a 1d ad 3e 5f bd f5 3e 04 c2 48 3e c7 3e 27 3e
       0.33811265 0.4799604 0.19605261 0.16332541
000190 96 8c b0 3d 14 c5 35 bd 2c 34 ae 3e d6 93 ad 3d
       0.08620565 -0.0443774 0.3402418 0.08475463
0001a0 92 47 04 3e 07 a6 16 3c e1 7a 85 3e a3 aa 80 be
       0.12917927 0.009194857 0.26070312 -0.25130185
0001b0 11 20 e7 3b 96 ce c2 3e 0d b1 de 3e ba 81 8b 3e
       0.007053383 0.38048238 0.43494454 0.2724741
0001c0 5c 9c d0 3d 9f fc 71 3f f6 da b0 3d c3 c3 65 3f
       0.10186073 0.94526094 0.086355135 0.89751834
0001d0 6c 4b fc 3c 9b ce 62 3e f9 a9 3f 3e 0c e3 43 be
       0.030797683 0.22149126 0.18717183 -0.1912958
0001e0 97 05 db bd 8a f9 6c 3e 95 21 fe 3d 47 95 42 3e
       -0.106944256 0.23142067 0.12408749 0.19002257
0001f0 5e 5e 90 3e de 1d f0 bd 42 a8 e4 bc f2 d4 9b 3e
       0.28196996 -0.11724447 -0.027912263 0.30435902

weight_hh_l0 f4 [64, 16]
000000 87 8d 82 3e 6e 0f 11 3e 75 a7 02 bd 61 aa 06 3f
       0.25498602 0.14166042 -0.03189798 0.5260373
000010 0c 78 b7 be 76 6d 22 bf 57 62 15 be 46 9c d6 3e
       -0.35833776 -0.63448274 -0.14588295 0.41916102
000020 7e 55 e5 3e 7f 60 1e be 9e 31 0c 3f 28 06 cb bd
       0.44791788 -0.15466498 0.5476321 -0.099132836
000030 53 25 1b 3e da a5 8a 3d 2e bc 17 bd 56 4d 82 3e
       0.15150957 0.06769915 -0.037044697 0.25449628
000040 9c a0 39 be e5 a9 95 be cd 83 fd 3d 9e 45 b4 bd
       -0.18127674 -0.29231182 0.12378655 -0.08802341
000050 bf 01 89 be 15 cb 0e be 99 ad 11 be 8b d9 35 bd
       -0.26759145 -0.13944657 -0.14226379 -0.04439692
000060 2a 0c 08 3f 21 eb 39 bd 66 15 55 bb 61 dd 37 3e
       0.5314356 -0.045390252 -0.0032513975 0.17955543
000070 97 ab 88 3c 25 40 68 be 9d f7 60 3d f4 d9 04 3e
       0.016683383 -0.22680719 0.054923642 0.12973768
000080 bc 4d 9e bd c4 17 80 3e 34 f0 e0 3d 53 80 1e 3e
       -0.077296704 0.25018132 0.10983315 0.1547864
000090 8e d1 a6 3a b8 ca 60 be 14 a6 c5 bd 9d 79 40 be
       0.0012727247 -0.21952331 -0.096508175 -0.18796392
0000a0 8b 29 1b 3f 24 39 93 bd 48 19 e0 3e 1c af aa 3d
       0.60610265 -0.07188633 0.43769288 0.08334181
0000b0 d9 35 4c bd 11 26 65 3e d8 2c 32 3e 22 ee 43 3e
       -0.04985604 0.22377802 0.17399919 0.19133809
0000c0 59 83 30 3f 4b 59 9a be be d7 19 3f 43 fa 95 3e
       0.6895042 -0.3014625 0.6009482 0.29292497
0000d0 13 3c a4 be fb 5a 56 bf a8 04 69 bf ad 41 23 3f
       -0.32077083 -0.83732575 -0.9102273 0.6377209
0000e0 ce c5 5f be b6 6e db be 73 14 db 3e 5d 12 2e 3f
       -0.218528 -0.42857903 0.4278904 0.6799677
0000f0 e8 d2 3d 3f da 88 89 be 0c b0 e4 3e f7 15 00 3f
       0.7414994 -0.26862222 0.44665563 0.50033516
000100 7a 6a 97 bd e9 93 61 3e cd 1e 44 3d d4 9d 00 3f
       -0.07393356 0.2202908 0.047880936 0.50240827
000110 b7 b4 89 be 45 03 0f bf 6a 49 ec bd 37 dd 97 3e
       -0.26895687 -0.55864364 -0.1153744 0.2966096
000120 8f c4 39 3f 9f 4e de bd 99 b5 af 3d 69 76 8d bc
       0.7256555 -0.108548395 0.08579559 -0.017268376
000130 0b 53 f4 3d e2 5a cc 3e 79 20 a4 be f5 5c 8a be
       0.11929902 0.39913088 -0.32056025 -0.27024046
000140 81 3a 58 3f 42 00 44 bf e1 50 1a 3f 66 aa 78 3f
       0.8446427 -0.76562893 0.6027966 0.9713501
000150 99 b2 4d bf d5 66 68 bf d0 1f 8a bf e5 90 93 3f
       -0.80350643 -0.9078191 -1.0790958 1.1528593
000160 97 d2 bf be 37 26 c8 bf 11 15 e8 3e 8d 7f 36 3f
       -0.37465355 -1.5636662 0.45328572 0.7128838
000170 72 ec e3 3e f4 27 f0 be 12 c7 16 3f 38 27 4f 3f
       0.4451633 -0.46905482 0.5889751 0.8091922
000180 65 b4 91 3b bd a5 49 bb 64 67 c1 3e 91 69 47 3f
       0.0044465535 -0.0030768954 0.37774193 0.77895457
000190 8e fe 96 be 4e b3 6c bf 71 d4 1b bf dc 62 d2 3e
       -0.29491085 -0.924611 -0.60871035 0.4109105
0001a0 1d a2 7a 3e fc 76 62 bf 6e 1d 4c 3e cd b4 e1 3e
       0.24475904 -0.88462806 0.19933102 0.44083253
0001b0 a3 60 85 3e 6f cf 99 be fd be 9a 3d 06 90 1f 3e
       0.2605029 -0.30041072 0.075559594 0.15582284
0001c0 8d 7e 5e 3e 39 92 99 be 4e 05 b0 3e 9f 0a 1a 3e
       0.21727963 -0.29994372 0.34379047 0.15043114
0001d0 47 e3 8d be bf da 88 be e3 06 9b be 6c 8a be 3e
       -0.2771246 -0.2672939 -0.30278692 0.37214983
0001e0 fb f7 81 3d a5 87 83 be 58 9f c0 3d a4 03 0e 3e
       0.06346127 -0.25689426 0.094053924 0.13868576
0001f0 b8 2d e7 3e 55 df 1f 3d 8d 4b 9b 3e 54 d0 86 3e
       0.45152068 0.039031345 0.30331078 0.26330817
000200 c8 0d 0c 3f 48 60 36 bf fb 3e 18 3f 5c c5 a5 3e
       0.5470853 -0.71240664 0.594711 0.32377136
000210 57 17 f1 be 0e 18 ad be 74 14 00 bf 89 00 8c 3f
       -0.4708812 -0.33807415 -0.5003121 1.0937663
000220 3c 3e f4 be f6 6f 53 bf e5 37 6d 3c 53 ee 4b 3f
       -0.4770373 -0.82592714 0.014478658 0.7966053
000230 c1 19 9f 3e e9 04 a4 be f0 7e 11 3f 10 c2 25 3f
       0.31074336 -0.32034996 0.56834316 0.6474924
000240 d8 79 10 3e 15 82 f0 be 3c db 0e 3f fe f2 16 3e
       0.1410898 -0.46974245 0.55803275 0.14741132
000250 3c d0 5d be 4a dc 9d 3d f9 3c 42 be 20 4c 29 3f
       -0.21661466 0.077080324 -0.18968572 0.6613178
000260 11 88 4b bf 89 f2 24 bf f5 63 34 be 47 1d 1e 3f
       -0.79504496 -0.6443258 -0.17616256 0.61763424
000270 fc e5 38 3e dc 4e 4b be 29 3c 0c 3f 1e 5f 03 3e
       0.18056482 -0.19854301 0.547793 0.12829253
000280 9d 75 d2 3e c1 d4 9f be 9a 33 aa 3e 99 bd 0e 3f
       0.41105357 -0.31217006 0.33242494 0.55758053
000290 d2 41 fa be f0 b0 59 be 53 7e 28 bd 14 e3 5d 3f
       -0.48878342 -0.21258903 -0.041136097 0.8667462
0002a0 78 f7 0b bf a4 55 92 bf 5d f1 47 3d be c6 05 3f
       -0.5467448 -1.1432385 0.048814166 0.5225638
0002b0 9b a8 fb 3e ae fc a4 be 0e 0f 2d 3e 84 07 a6 3e
       0.49152073 -0.3222403 0.16900274 0.3242761
0002c0 fc 74 d3 bd e0 24 61 be 3e fa 15 3e 2c 19 17 3d
       -0.103250474 -0.21986723 0.14646241 0.03688924
0002d0 00 43 4c 3d 61 6c 87 be f0 75 da bd cd 38 8d bb
       0.049868584 -0.26449874 -0.10667026 -0.0043097497
0002e0 ee 83 00 3f 49 65 f1 3d dd 72 26 3c c9 e2 a7 3e
       0.5020131 0.11786897 0.0101592215 0.3279021
0002f0 b2 d3 0e be e5 a7 40 be 45 07 a1 3e b0 56 a1 3e
       -0.13947943 -0.18814047 0.3145086 0.3151145
000300 d8 96 33 be bf 4f 48 be eb 15 ee bd 42 8b 00 3f
       -0.17538011 -0.1956167 -0.11625274 0.5021249
000310 67 69 1e be 9f 3e e9 bd 77 fe 06 3e 64 39 eb 3c
       -0.15469895 -0.11388897 0.13183008 0.02871389
000320 e2 09 05 3f 4a 35 7a be 0a c9 70 3e d0 bc ad bd
       0.51968205 -0.2443439 0.2351419 -0.08483279
000330 ff da 29 be 1e e6 68 be a0 e5 bf 3d b6 99 f8 3d
       -0.16587447 -0.22744033 0.09369969 0.12138693
000340 53 3c e7 3d 5b 4b 1e be 52 91 03 be 91 75 88 3e
       0.11290803 -0.15458433 -0.12848404 0.26652196
000350 b4 89 14 3e d8 52 ab be bb ec a9 3c 41 ee 41 3e
       0.14505655 -0.33461642 0.020742765 0.18938543
000360 2c 00 01 3f 99 d1 02 be 7f e5 2b 3e 38 81 52 be
       0.5039089 -0.12775268 0.16786765 -0.20557106
000370 ae b1 62 be aa 3c a8 bd a5 92 c9 bd 7a 37 32 be
       -0.22138092 -0.08214696 -0.09842423 -0.17403975
000380 91 08 bf bd 90 9e 65 be 16 d9 58 bd 49 9b 06 3e
       -0.09327806 -0.22423768 -0.052941404 0.13145174
000390 dc e6 26 3e 61 2c 24 bc 1d 83 8c 3d 83 05 bc 3e
       0.16299003 -0.010020346 0.068609454 0.36722955
0003a0 91 59 da 3e 70 bf 7b be d8 bc 4a 3e 8c f0 97 3e
       0.4264646 -0.24584746 0.197986 0.2967571
0003b0 47 26 11 bd da 55 2a 3e ce 69 98 3e 27 75 c5 bd
       -0.035436895 0.16634312 0.29768223 -0.09641486
0003c0 ba 4a f4 3b 47 09 05 3e 39 ff 94 3d e1 f4 da 3e
       0.007455197 0.1299182 0.07275242 0.42764953
0003d0 fa 9c 86 3d d8 56 5e be 06 4b a3 3c d0 f8 5f 3e
       0.0657291 -0.21712816 0.019933235 0.21872258
0003e0 42 8d f2 3e 9a 5d 4e be 60 62 3e bd 78 68 33 3e
       0.47373396 -0.20152894 -0.046480536 0.1752032
0003f0 9f ff bf bd 5c d9 37 be 85 dc 2f 3e b9 97 c0 bc
       -0.09374928 -0.1795401 0.17173965 -0.023509847

bias_ih_l0 f4 [64]
000000 52 4a a2 3d 5b a5 30 be ce 03 85 3e f9 41 bd 3e
       0.07924332 -0.17250578 0.25979465 0.36964396
000010 06 0f c2 3c de cc 3a 3f aa 14 9d 3e f8 f9 9e bc
       0.023688804 0.7296885 0.30679828 -0.019406304
000020 1a 49 c9 3e b5 10 2a 3f f1 ac d4 bb a6 b8 83 3e
       0.39313585 0.6643174 -0.006490343 0.25726813
000030 31 37 d1 bd bd fc 97 bd 17 ac 47 3e 17 95 a4 3e
       -0.10215605 -0.07421253 0.19499241 0.32144997
000040 01 1d 78 be 7a 84 3c 3e c8 8d 9d 3d 81 79 7b 3e
       -0.24229814 0.18409911 0.07693058 0.24558069
000050 97 5e 01 3e 02 e8 1a 3d 2e ca 3f 3e 64 1c 55 3d
       0.1263374 0.037818916 0.18729469 0.05202903
000060 7d 45 79 3d 50 a1 a7 3d a6 95 72 3c 62 96 73 3e
       0.060857285 0.08185065 0.014806187 0.23787835
000070 4d 29 49 be 83 39 3c 3e b7 16 e1 3d 74 77 2c bd
       -0.19644661 0.18381314 0.10990661 -0.042106107
000080 39 58 68 bd 65 c1 8d be 37 d8 b0 3d 0a c6 08 3d
       -0.05672476 -0.2768661 0.0863499 0.03339199
000090 27 f8 7e be 8c 9d 02 be 90 e0 54 bc 01 ac 1e 3d
       -0.2489935 -0.12755412 -0.012992993 0.038738254
0000a0 dd 46 04 be de 9d eb 3c 80 ca 79 bd e6 ee df 3d
       -0.12917657 0.0287618 -0.060984135 0.10934238
0000b0 fb e0 ea bc ce 39 1d 3e ca f4 4e 3e b1 bf 30 3e
       -0.028671732 0.15354082 0.20210567 0.17260624
0000c0 96 29 0f be c4 38 96 3e 55 2d 80 3e a7 b9 df 3e
       -0.13980708 0.29340184 0.25034586 0.4369633
0000d0 fa 17 91 3c 18 cf 14 3f d5 bf 83 3e 49 8c 87 3e
       0.017711628 0.581285 0.25732294 0.26474217
0000e0 76 30 0e 3f 82 fc 95 3e f9 02 4a 3e 0f 99 1c 3e
       0.55542696 0.2929421 0.19727696 0.15292762
0000f0 41 0b 28 3e 2e 27 94 3d 7c f3 bb 3c cd 50 2e 3e
       0.16410543 0.072340354 0.02294325 0.1702301

bias_hh_l0 f4 [64]
000000 a7 fd 83 bd ad 3e 26 3e 9c 87 66 3d 1f e2 bc 3d
       -0.06444865 0.16234846 0.05628167 0.09222817
000010 67 2e 35 3e ef 93 c3 3e f7 8a 6a 3e f1 e6 ac 3e
       0.17693482 0.38198802 0.22904573 0.33769944
000020 a4 25 1f 3f c3 04 c1 3e 84 81 75 3e 8e a4 89 3e
       0.6216681 0.37698945 0.23975188 0.26883358
000030 78 f1 b1 bc 73 5e 28 be c5 61 55 3e ff 28 08 bd
       -0.021721587 -0.1644228 0.20838077 -0.033242222
000040 6e f4 52 bd 76 f2 14 bc 3c a2 85 bd e4 c7 8d 3d
       -0.051502638 -0.00909101 -0.065250844 0.06922892
000050 fa 69 2e 3e 3e 2d e1 3c 92 4a 76 be 99 6a a7 3e
       0.17032614 0.027487393 -0.24051884 0.32698515
000060 43 50 ee bd 7f ec 03 3e e4 04 7b 3d 61 19 fa bd
       -0.116364025 0.12883185 0.06128396 -0.12211872
000070 bd 79 21 be 8a b1 d4 bc 8d b2 93 3e 1b 0e 29 3e
       -0.15769096 -0.025963563 0.2884716 0.16509287
000080 07 2e d7 3d c9 aa 48 be 4b 40 c5 3d 24 86 67 3e
       0.10506826 -0.195964 0.096314035 0.22609764
000090 16 bd 0f be b3 d4 1a be 6a 84 be 3d 91 15 b0 3c
       -0.14036974 -0.15120201 0.093026 0.021494659
0000a0 e2 bb 0b 3e 59 6f bf bd c1 ea c9 3d 34 20 c8 3d
       0.1364589 -0.0934741 0.09859229 0.09771767
0000b0 68 5e 49 3e b7 61 b8 bd 3a 9d 22 be 25 f5 09 be
       0.1966492 -0.090030126 -0.1588029 -0.13472421
0000c0 ba fb db bd dd 47 23 3d 09 22 2d 3e 73 e6 c3 3e
       -0.107413724 0.039863456 0.16907515 0.38261756
0000d0 29 9c 89 3e 56 b6 41 3f 52 42 92 3d e4 04 e7 3d
       0.26876953 0.7566885 0.07141556 0.1128023
0000e0 80 c2 b5 3e e7 dd 1b 3f 05 17 14 3e 53 54 7c bd
       0.35499954 0.6088547 0.14461906 -0.061603855
0000f0 d7 2b 87 3e 2f cf 87 bd 17 81 06 be d5 52 13 3d
       0.26400635 -0.06631314 -0.13135181 0.035967667

weight_ih_l1 f4 [64, 16]
000000 64 83 31 bc aa 27 97 be 59 4a 2a 3e 73 eb 3e be
       -0.010834549 -0.2952245 0.16629924 -0.18644504
000010 ef 5d 72 be b1 4e 3f be 70 ca 8d be e1 33 82 3e
       -0.23668645 -0.18682362 -0.2769351 0.25430205
000020 f8 d4 a4 3c d0 ae f5 bd 78 2c 0e bd 5e ea 18 3e
       0.020121083 -0.119962335 -0.034710377 0.14933154
000030 b8 b3 68 bd 3c 3e 98 be 88 c1 b0 3e 32 2f 98 3d
       -0.05681202 -0.2973498 0.34522653 0.07430877
000040 56 8d be 3e f1 5b f7 bc 35 86 e8 3e a0 c2 00 be
       0.37217206 -0.030195208 0.45414892 -0.12574244
000050 ee 5b e3 bd cb 4a c8 bd 3b 84 a9 bd 76 2f 52 3f
       -0.111015186 -0.097798906 -0.08277174 0.8210367
000060 dd 48 d2 3c b5 e4 a4 bf e5 e1 88 be 81 78 ad 3e
       0.02566951 -1.2882296 -0.26734844 0.33881
000070 57 2b 6e 3e de f2 cd be cd cf d8 3e 5b a8 7b 3e
       0.2325872 -0.40224355 0.4234604 0.24575941
000080 21 38 ec 3e 61 3b 70 be c9 b4 dc 3e 31 c1 f3 bd
       0.46136573 -0.23460151 0.43106678 -0.11902083
000090 91 a5 bc bd 22 d0 94 3e 8a 63 b9 be 7c 5a 5f 3f
       -0.09211267 0.29065043 -0.36208755 0.87247443
0000a0 48 ba 05 bf 6f 44 97 bf bd ea b7 be 30 4c ec 3e
       -0.5223737 -1.1817759 -0.3592128 0.46151876
0000b0 d4 49 91 3d 1b 48 ab be b0 94 e7 3e a3 2a 3d 3e
       0.0709416 -0.3345345 0.45230627 0.18473296
0000c0 7e f3 40 3d 13 45 63 3c b4 17 54 3e 41 2b 5a 3c
       0.047107212 0.013871449 0.20712167 0.013315977
0000d0 26 d1 af bd 5c f2 31 be a0 4e 71 3d 45 b0 e2 3d
       -0.08584814 -0.17377609 0.058912873 0.11068777
0000e0 1a d2 10 3e e3 cb 45 be b4 c4 02 be cf d2 c2 3d
       0.14142647 -0.19316058 -0.12770349 0.09512865
0000f0 08 09 09 be bf 72 af bd f4 62 7f 3d e4 4a 3d 3e
       -0.13382351 -0.08566808 0.06235023 0.184856
000100 9b 23 57 3e a2 d9 d5 be b1 31 27 3f e1 27 dd bd
       0.21009676 -0.41767603 0.653102 -0.10798622
000110 cd b3 44 be 12 93 c8 be d9 f9 aa be 78 8f 90 3f
       -0.19209214 -0.39174706 -0.33393744 1.1293783
000120 ff da 8c be cf 5a 82 bf 6a 4c 1f be e3 f5 5b 3e
       -0.2751083 -1.0183963 -0.15556493 0.21480517
000130 88 22 4c 3e 51 6c 03 bf 11 39 b8 3e 07 9e af 3e
       0.19935048 -0.5133715 0.35981038 0.34300253
000140 41 c9 26 be b3 b2 75 3d 75 86 30 3e be 6c cd 3d
       -0.1628771 0.059984874 0.17238791 0.100305066
000150 0f e3 a1 3b bb 4c 86 3e af ad 70 be 77 b5 bb 3e
       0.0049403976 0.26230416 -0.23503755 0.36661884
000160 64 1f 82 be bf f3 78 be 71 c8 66 3d 86 16 85 3e
       -0.25414574 -0.24311732 0.0563435 0.25993747
000170 c0 60 e6 3c 61 3f 40 be 8b 99 71 3e 15 ff d7 3d
       0.028122306 -0.18774177 0.23593728 0.105467
000180 68 78 24 3e cd 09 66 be e4 9d 7d 3d 29 8d 8c 3d
       0.16061556 -0.22464676 0.061918154 0.06862862
000190 9b 52 5e bd 2d 3b 60 3d 70 7e 93 bd 56 d8 ba 3d
       -0.054277997 0.054743934 -0.072018504 0.09123294
0001a0 9e b9 80 3e 0b e5 51 bd 78 74 b2 3e 0b 87 14 be
       0.25141615 -0.051243823 0.34854484 -0.1450464
0001b0 b5 c3 89 3e 43 02 8a be d2 96 bc 3d c3 3f 92 3e
       0.26907125 -0.2695485 0.09208454 0.2856427
0001c0 4d b7 87 3e 9d f1 d5 bd ed a4 b0 3d 72 b1 89 be
       0.26507035 -0.10446475 0.08625207 -0.26893193
0001d0 9f 2d 5c 3e d8 fe 89 3e b6 1a ee 3c 46 20 18 be
       0.21501778 0.26952243 0.029065471 -0.14856061
0001e0 6f 0e 44 bc 1a c4 64 be d8 b4 9b bd 79 29 f8 3c
       -0.011966332 -0.22340432 -0.076028526 0.030293213
0001f0 0c d2 50 3d 55 4a d7 bd 3c f2 4c 3e 32 61 6b 3e
       0.050981566 -0.105122246 0.2001428 0.22986296
000200 80 9b c2 3e 35 9d 8f be e3 71 d2 3e fc 6f a5 3d
       0.38009262 -0.28049627 0.41102514 0.08078
000210 54 2f fb be 71 e8 9d be 0f be da bd 5b a4 88 3f
       -0.49059546 -0.308414 -0.10680782 1.0675157
000220 dd 9f 08 bf a9 04 8d bf 1b 62 16 be 2d 8e 99 3e
       -0.5336893 -1.1017047 -0.14685862 0.29991284
000230 b1 7c cc 3e c4 0b 0c bf aa 50 d2 3e de bb b3 3e
       0.39938882 -0.5470545 0.41077167 0.3510427
000240 03 64 0d 3e 99 0d 71 be a6 39 12 bd 09 b5 6f 3d
       0.13807683 -0.23540343 -0.03569951 0.058522258
000250 3f c4 cc 3d f6 0d 69 3d 88 88 47 be 59 d7 f8 bc
       0.099983685 0.05689808 -0.19485676 -0.030376123
000260 74 4c 84 3e 01 2b 81 bc ac 6e f6 bd ea 51 97 3e
       0.2583958 -0.015767576 -0.12032828 0.29554683
000270 1c c5 48 bd aa 74 9f be fd 91 a9 3d df ad ba bb
       -0.049016103 -0.31143695 0.08279798 -0.0056969966
000280 00 ce a1 3e 9c d1 40 bd b5 f6 61 3e 29 a4 a7 3b
       0.31602478 -0.0470749 0.22066768 0.005116005
000290 67 d3 ac bd 56 ae 8d bb 66 04 90 be 55 32 c9 3e
       -0.08438759 -0.004323761 -0.28128356 0.39296213
0002a0 76 be 2a 3e 28 da 94 be 0b d6 c0 3e 29 cd 5a bc
       0.16674218 -0.2907269 0.37663302 -0.013354578
0002b0 2b 08 37 3d 66 9e 5f 3d 9b 2c 41 3e 93 0e 2b 3e
       0.044685524 0.05459442 0.18864672 0.16704778
0002c0 d2 74 bd 3e a0 4a a5 bd 5e 7f cc 3d dd 0d 14 be
       0.3700319 -0.08070874 0.09985231 -0.14458413
0002d0 bb af 09 bd f9 fb d9 3e bd 90 3f 3e 3d 7d a7 3e
       -0.033614855 0.42575052 0.18707557 0.32712737
0002e0 4d 9a 1c be 80 3a f6 be 74 3e e2 be 88 a5 50 be
       -0.15293236 -0.48091507 -0.44188273 -0.20375645
0002f0 89 bd a6 bb 80 66 39 3d b8 16 40 3e ca d3 cb 3d
       -0.0050885123 0.045263767 0.18758667 0.09952505
000300 a4 aa 43 be fa c6 83 be 5e 66 0f 3e 13 d7 15 3e
       -0.19108063 -0.25737745 0.14003894 0.14632826
000310 a7 1c cb 3d 95 b4 a5 3d b3 e5 80 be 76 4d 6b 3d
       0.099175744 0.08091084 -0.25175247 0.05744692
000320 0a 89 b7 3d a7 e0 6e bd b2 14 53 3e c3 a7 60 bd
       0.08961685 -0.058319714 0.20613363 -0.05484749
000330 6b 31 07 3e 3c a0 17 3d 40 7d 93 3e ed f4 2d be
       0.13202445 0.037018046 0.28806496 -0.16987963
000340 4b fb a9 3e a6 d4 54 be 96 d1 fd 3d 0c 63 0b bd
       0.33199534 -0.20784244 0.12393491 -0.034030005
000350 21 78 88 be 73 66 d6 3d 4f 02 71 bc a5 14 9e 3e
       -0.2665415 0.104687594 -0.014710023 0.30875126
000360 0c bd e0 bd 2f c5 b4 be 6b e1 e9 bd aa b9 33 3d
       -0.10973558 -0.3530669 -0.11419948 0.043878235
000370 64 16 89 bd 46 fd 8e bd 16 6f bf 3e ca 10 86 3e
       -0.06693724 -0.06981902 0.3738944 0.26184684
000380 ce b5 04 3f ad 34 c8 be 34 12 c7 3e 2c 0a 89 3d
       0.5183991 -0.39102688 0.38881075 0.06691393
000390 10 4b 80 be d3 f7 8f be 3c fd 96 bc 73 32 29 3f
       -0.25057268 -0.28118762 -0.018431298 0.66092604
0003a0 50 34 93 bd 56 6f 90 bf 3f dd a3 bd 77 50 a6 3e
       -0.07187712 -1.1283977 -0.08001184 0.32483265
0003b0 1e bd ca 3e 6c 3a a6 be dd 48 66 3e 78 75 0a 3e
       0.3959741 -0.32466447 0.22488733 0.13521373
0003c0 1f d9 41 3f 8f a9 9c be 48 dd 5f 3e e5 06 11 3e
       0.75721925 -0.30598113 0.21861756 0.14162786
0003d0 ef 6e bb be 42 08 d4 be b0 f3 7b be cd 57 7d 3f
       -0.36608073 -0.4141255 -0.24604678 0.989621
0003e0 c4 f6 ab be 3d 39 c0 bf ae 94 89 be 46 bd c3 3d
       -0.33586705 -1.5017468 -0.26871246 0.095575854
0003f0 4d 00 56 3e d1 b6 ad be 36 f3 04 3f 70 02 02 3f
       0.20898552 -0.3392854 0.5193361 0.5078497

weight_hh_l1 f4 [64, 16]
000000 5b 25 e7 bd 7a 0b a7 be d9 01 26 bc 66 06 48 3c
       -0.11286422 -0.32625943 -0.010132276 0.012208557
000010 38 0c e1 be 6c f7 d2 3d ac 7d d0 3d e6 e4 9c 3d
       -0.43954635 0.10301098 0.1018022 0.076608464
000020 c6 11 b3 3e 6d 1c 11 be 92 39 3f 3c b1 0c 41 be
       0.34974498 -0.14171 0.011671441 -0.18852498
000030 b5 5b 29 3e ca 18 20 bd 9e 15 bb bc db 70 da 3d
       0.1653889 -0.03908614 -0.022837456 0.10666057
000040 6a b4 55 be 69 f0 00 3e 39 6c f8 be 59 ef a7 3e
       -0.20869604 0.12591709 -0.48520067 0.32799795
000050 c1 69 fc 3b bc ae 18 3e 66 ac 0d 3e 5a 26 d4 be
       0.0077030365 0.14910406 0.13835296 -0.4143551
000060 09 14 6a be 12 ee 8b 3e 11 e1 12 3f a9 21 a5 3e
       -0.22859205 0.2733007 0.57374674 0.32252243
000070 a9 90 71 3e 86 29 8b be 20 cc a3 be fa e5 36 be
       0.2359034 -0.27180117 -0.31991673 -0.17861167
000080 d9 20 ec be 81 35 88 3f 00 a7 89 3e a1 60 be 3e
       -0.4611881 1.0641328 0.26885223 0.37183097
000090 3c 27 10 3f 70 68 c6 3e 51 19 78 3e ef e5 d3 be
       0.56309867 0.38751554 0.24228407 -0.41386363
0000a0 e8 76 8d be 2b f7 1c 3e 33 4c 7f 3e 00 0e 01 3f
       -0.2762978 0.15328662 0.24931411 0.5041199
0000b0 2c 20 29 3d ab 7d 45 bf e7 22 09 bf c2 af e7 be
       0.041290447 -0.7714488 -0.5356888 -0.4525128
0000c0 dc 6e 31 be e5 0e 5f be 67 8c bf 3d dd 49 3c 3e
       -0.17327446 -0.21783026 0.093529515 0.18387552
0000d0 a2 8f c3 be c3 3a 1d bd cd 71 25 be b5 d9 23 be
       -0.3819552 -0.038386118 -0.16156693 -0.16001017
0000e0 35 af 64 be bb ee 26 3e f4 d0 7e bd 63 5b dc 3d
       -0.22332461 0.16302006 -0.062210992 0.10759618
0000f0 68 32 51 be 4f a4 3d bd 64 62 6f 3c 56 ad 63 3e
       -0.20429385 -0.046299275 0.0146108605 0.22234091
000100 42 56 08 bf c6 51 a3 3d 80 4d 77 bf 72 aa dd 3e
       -0.5325662 0.079745814 -0.9660263 0.43294102
000110 b8 be d3 bd a3 14 ce 3d 21 83 05 3f 18 6b 82 be
       -0.10339111 0.1006253 0.5215321 -0.2547233
000120 e4 d2 e1 be ad 49 ec 3d dc 7a 23 3f 09 9d 3d 3e
       -0.4410621 0.1153749 0.63859344 0.18516935
000130 57 46 1e 3f 77 28 5a be 98 aa 64 be 14 ee 57 bd
       0.6182608 -0.21304499 -0.22330701 -0.052717283
000140 70 cb 55 3e 91 cf 9c 3e a0 db fc bd 0c 4d 93 3e
       0.20878386 0.3062711 -0.12346578 0.2876972
000150 9c e6 69 bd 36 e0 ee bc 08 c9 5b bd 65 73 0b bb
       -0.057104692 -0.029159646 -0.053658515 -0.0021278497
000160 eb 72 03 bf db 3e ad 3d 79 f3 43 bb 0e f4 be bd
       -0.51347226 0.08459254 -0.002989976 -0.093238935
000170 c3 76 09 3d a8 61 80 3d f4 68 20 be 38 9b 83 be
       0.033560526 0.062686265 -0.15665036 -0.2570436
000180 e4 d9 de bd 19 71 91 be 31 bc 34 3e 3a ec 76 3e
       -0.10881403 -0.284066 0.17649914 0.24113551
000190 ad 39 93 be c6 e7 b3 3d 29 fe 0d be a3 20 23 bd
       -0.2875494 0.08784442 -0.13866486 -0.039826047
0001a0 63 da 30 be c4 95 50 3d c6 37 01 3e f9 e4 9c bd
       -0.17270808 0.050924078 0.12618932 -0.076608606
0001b0 05 84 2e be 43 67 43 be f1 fd b4 bd 0e b8 bd bd
       -0.17042549 -0.1908236 -0.08837498 -0.09263621
0001c0 ba d5 42 3e 3c cb 17 be f4 58 b5 bc c7 93 4e 3e
       0.19026843 -0.14823622 -0.022137143 0.2017356
0001d0 fb 1d 31 be a4 65 c5 3c 9d df 22 bc 8f 51 df bd
       -0.17296593 0.024096318 -0.009941009 -0.10904228
0001e0 28 06 a0 bc 83 72 d1 3d 7d de 29 3e 12 eb 2b bd
       -0.019534186 0.102269195 0.16588779 -0.041972227
0001f0 a2 40 82 be 0f 5c b3 3d d8 bb 9d 3d 26 12 ec 3d
       -0.25439936 0.08757793 0.07701844 0.11526899
000200 fc e3 bf be 92 1f cb 3e 7b 55 2d bf e3 5f 46 3f
       -0.37478626 0.39672524 -0.6770856 0.7749006
000210 42 88 b9 3e de 15 ae bd 4e 4c 01 3f c9 0d 35 bf
       0.3623677 -0.085002646 0.50507057 -0.7072416
000220 44 6c b3 be 82 73 0d 3f 51 08 f3 3e b3 30 88 3d
       -0.35043538 0.55254376 0.47467282 0.06649914
000230 ba bf 13 3f c6 81 1d bf 20 87 7a be 6c e1 60 3d
       0.57714427 -0.61526144 -0.24465609 0.05490248
000240 e1 b5 42 be ba 85 28 be 17 25 1a 3e fe 5f 3b bd
       -0.19014694 -0.16457263 0.15053211 -0.045745842
000250 f1 ef ae be cf 8c 00 3d 48 70 87 bc ac d1 34 3d
       -0.34167436 0.031384286 -0.016533032 0.04414527
000260 a1 23 e1 bd ec be d2 3d 21 0e 57 be 24 d3 84 be
       -0.10993124 0.10290322 -0.21001484 -0.25942338
000270 79 4b e8 3d 76 29 66 be e1 80 a1 3e 3a aa 30 3d
       0.1134252 -0.22476754 0.3154364 0.04313109
000280 ff 22 84 be 4d ac 97 be ee 1b b7 be 87 0f 85 3e
       -0.2580795 -0.29623643 -0.35763496 0.2598841
000290 fe a9 42 bd b9 db 18 be 45 d6 46 3e 0d 0d 22 be
       -0.0475254 -0.14927568 0.19417675 -0.15825291
0002a0 ea ee eb bd 10 da ee 3c 83 0e b0 bd 47 6f 84 be
       -0.115201786 0.029156715 -0.08596518 -0.25866148
0002b0 4d 01 58 be 05 29 2d be 13 0f 8c 3e 2d 5c ee 3e
       -0.21094246 -0.16910179 0.2735525 0.465547
0002c0 a5 95 f9 bd 9b 44 0e 3f f1 6c 9c 3d 11 ea c9 3d
       -0.121867456 0.55573434 0.076379664 0.09859098
0002d0 40 0a 17 3f 28 a4 98 3e 5c 63 86 3d 76 a1 89 be
       0.59000015 0.2981274 0.0656192 -0.26880997
0002e0 47 ab 3f be f5 39 32 3d dd 66 34 3e 23 22 07 be
       -0.18717681 0.043512303 0.17617364 -0.13196616
0002f0 6f e0 8b 3e 6a 6a fa bc 04 03 92 be 5c 81 02 bf
       0.27319667 -0.03056832 -0.28517926 -0.50978637
000300 f9 a5 5c 3e 3b d0 51 bd 74 d8 b7 be c4 81 5c 3d
       0.21547689 -0.051223975 -0.35907328 0.05383469
000310 9a 80 56 be 3c 16 cf be 78 4b c5 bd a1 55 e1 bd
       -0.20947495 -0.4044665 -0.09633535 -0.110026605
000320 ec e5 1f 3e 7b 78 21 bc 88 83 33 be 55 ff 92 bd
       0.15615052 -0.009855385 -0.17530644 -0.07177607
000330 65 cc 2a 3e 56 16 70 3e 48 ff 25 bc 48 08 fa 3e
       0.16679533 0.2344602 -0.010131665 0.48834443
000340 00 3b 1e be 08 de 8f 3e ee 63 fc 3c 1e f1 9d bd
       -0.15452194 0.28099084 0.030809369 -0.07712005
000350 f7 d9 8c be c2 2b 16 bd 22 e7 e9 3d e4 96 c2 3d
       -0.27510044 -0.036662824 0.11421038 0.09501436
000360 63 72 fe bd de 9c 74 3e e4 64 96 3e 8a c1 7a 3c
       -0.12424161 0.23887965 0.29373848 0.015304932
000370 bb 48 4e 3e 5d f1 c9 bd ad 2d 5b bd c5 2f 86 3e
       0.20144932 -0.098604895 -0.053510357 0.2620832
000380 7c 99 de be 68 de e5 3d ea c9 10 be 09 b8 b7 3e
       -0.43476474 0.11224061 -0.14139524 0.35882595
000390 17 54 a1 bd 35 49 96 3d 19 37 a5 3d 52 a3 0f be
       -0.07877367 0.07338182 0.0806715 -0.14027146
0003a0 c1 07 1f bf 3b a7 fc 3d c2 94 34 3e 82 3e a8 3e
       -0.62121207 0.12336584 0.17634872 0.3286019
0003b0 d4 39 e3 3e 51 10 e4 be 14 f7 5c 3c d0 a0 89 be
       0.44380057 -0.44543698 0.013486642 -0.26880503
0003c0 78 51 ab bd 0f 87 0d 3f cf 9b a1 be 65 44 ab 3e
       -0.08365148 0.5528421 -0.31564185 0.33450618
0003d0 81 5f 09 3f fd 12 66 3e c1 db 12 3e 8f 1b 21 bf
       0.5366135 0.22468181 0.14341642 -0.62932676
0003e0 d8 bf 60 be a7 08 03 3d 15 5b 9a 3e dd e1 99 bd
       -0.21948183 0.031990673 0.30147615 -0.07513783
0003f0 8d d8 9f 3e 0d 98 12 bf 33 26 63 be 5f 15 96 be
       0.31219903 -0.5726326 -0.2218254 -0.2931318

bias_ih_l1 f4 [64]
000000 69 46 02 be ad b9 9c 3d 9f f2 94 3e 0a dd f3 3d
       -0.12722172 0.07652602 0.29091355 0.11907394
000010 e3 ed 3c bd 41 7e 5a 3e 84 1a 99 3e 47 dd 46 3d
       -0.046125304 0.21337225 0.29903042 0.04855087
000020 74 cd 2d 3e 57 58 0d 3c e3 fe 35 3d 7b 6f 19 be
       0.16972905 0.008627019 0.044432532 -0.14983933
000030 66 04 04 3d 24 52 09 be 9e b2 d8 3d ba 80 c9 3d
       0.032230757 -0.1341024 0.105809435 0.09839006
000040 66 bc 55 3e 3b f4 de bd ad 1d 6e 3e 74 a6 64 3d
       0.2087265 -0.10886427 0.23253508 0.055822805
000050 a4 bd 53 bc ee 07 b5 3d cd a9 21 bd 8a 51 04 bd
       -0.012923632 0.08839403 -0.039468575 -0.032304324
000060 9d 73 68 be 07 c0 92 bd 7c 11 25 be 3f 09 73 be
       -0.22700353 -0.071655326 -0.16119951 -0.23733996
000070 16 8f 6c 3e 49 22 67 be 71 e7 15 bc 4b 97 9e 3a
       0.23101458 -0.22571672 -0.009149418 0.0012099532
000080 be 60 6d be 6b 2b 12 be 6a 67 bf 3d 3a 95 bf bd
       -0.23181435 -0.14274375 0.093458965 -0.093546346
000090 e2 b4 07 be 61 e0 22 be 25 15 9c 3e 98 39 29 3e
       -0.13252595 -0.15905906 0.30484882 0.16525877
0000a0 ca 99 14 be 93 ea 8b 3e 06 3d d9 3d ab 12 9f 3d
       -0.14511791 0.27327403 0.106073424 0.077672325
0000b0 3f 34 ab 3d e6 90 2c 3d 71 4f c3 3c b1 2c 7c bc
       0.083595745 0.042130373 0.023841592 -0.015391515
0000c0 bf ef 11 be 6f 28 7c 3e a5 1a cc 3e 56 38 45 3e
       -0.14251612 0.24624799 0.39864078 0.19259772
0000d0 95 65 1c 3e 4d df aa 3d 30 5b 59 bd a6 f6 0b 3e
       0.15273125 0.083433725 -0.05306548 0.13668308
0000e0 1e 2d a5 bc c3 ef 08 be 4f 8e 26 3d 27 8f 99 3d
       -0.020163115 -0.13372712 0.04066306 0.07498007
0000f0 fe f6 4a 3e 9b 9c 0f 3e bb 58 c3 3e 34 08 5d be
       0.19820783 0.14024584 0.38153633 -0.2158516

bias_hh_l1 f4 [64]
000000 9d 67 41 be 3a 60 a0 bd 15 20 3b bc 4a e2 ee bd
       -0.18887182 -0.07830854 -0.011421223 -0.11664255
000010 bc be 5b 3e fd 20 82 3e 0c bf 83 3e 03 45 a7 3d
       0.21459478 0.25415793 0.25731695 0.0816746
000020 81 bf 92 3e 01 62 10 3e b1 4d 8b bd 1b 94 50 bb
       0.2866173 0.14099886 -0.06801928 -0.003182656
000030 a4 42 a9 bd 2b 64 92 3e 6d 64 cc 3e f2 38 62 3d
       -0.08264664 0.28592047 0.3992037 0.05523009
000040 0a e0 1f be 3e b5 70 be 7b 66 5d bd dc e0 21 be
       -0.15612808 -0.23506638 -0.05405281 -0.15808433
000050 b9 8a 46 bd a3 11 95 be be 4e 82 3e 84 3f 08 3e
       -0.04847214 -0.29115018 0.254507 0.1330548
000060 3b 16 ae be c9 ca 14 3e 1a dd cc bd 8a aa a0 be
       -0.34001336 0.14530481 -0.10003109 -0.3138011
000070 79 1d ba bc c9 8e 20 bd 68 fc 09 bd 55 b5 b9 be
       -0.022719132 -0.03919867 -0.03368798 -0.36271158
000080 b7 42 96 be ca bd ae bb 0e b5 57 be c1 d1 66 3e
       -0.29347774 -0.005332683 -0.2106516 0.22540952
000090 ec ed ea 3d 1f 77 d2 bd 79 ef a9 3d 5f 61 28 bc
       0.11471161 -0.10276627 0.08297629 -0.010277121
0000a0 d2 c6 17 3e 1e cc 7a 3d c0 64 b4 3d a7 39 04 be
       0.14821938 0.061229818 0.08808279 -0.12912618
0000b0 72 92 e1 bc 3e 84 12 be 9c cf 5b 3e 8d d9 5a 3e
       -0.02753565 -0.14308259 0.21465915 0.21372052
0000c0 51 5f 0a be 9a 26 86 bc 02 9b b8 3e 70 d1 72 bb
       -0.13512923 -0.016375829 0.36055762 -0.0037051104
0000d0 73 d5 3c 3e fe bf 04 bc b1 5d 73 3e fe bd 4f be
       0.184408 -0.008102415 0.23766209 -0.2028732
0000e0 46 ab 0a 3e 38 7c 7f 3c 3e 3c f5 3d 4e 90 96 3d
       0.13541898 0.015593581 0.11974381 0.07351743
0000f0 66 2d 1d be f4 ef 56 bd 44 bc d2 3e 87 08 8b 3d
       -0.1534935 -0.05247493 0.4115926 0.06788736

weight f4 [1, 16]
000000 d0 2b e1 bd 9f 1a ed 3d d4 87 86 3e 57 80 7d 3e
       -0.10994685 0.11577343 0.26275504 0.24755989
000010 3d d6 80 3d 1c be 43 3d 12 cf 5b 3e 7c 45 58 be
       0.06290863 0.047788724 0.2146571 -0.21120256
000020 9b f9 c4 bc 7f b4 1d 3e d7 ef 0e 3e bd b5 83 3e
       -0.024044802 0.15400885 0.13958679 0.25724593
000030 36 3b 26 3e f8 6a 60 be fa 07 54 bd 70 8c 64 be
       0.16233525 -0.21915805 -0.05176542 -0.22319198
