ChampagneSales_with_ARIMA&LSTM/data/model.pt (torch, 38847 bytes, 18 tensors)

weight_ih_l0 f4 [64, 4]
000000 74 60 ad 3d 5d cd 04 3d 6a 29 88 be e8 fc e0 3c
       0.084656626 0.032422412 -0.26594096 0.027464345
000010 ad da d0 3e 45 9b b8 3d 30 88 bf 39 d2 aa c0 3d
       0.40791836 0.0901399 0.00036531826 0.094075814
000020 4c 54 77 3e 9a f8 18 3e 99 8b a2 be 49 95 93 be
       0.2415325 0.14938584 -0.3174713 -0.28824833
000030 49 41 3f 3e ca 0b 92 3e 48 19 3d be 54 61 41 be
       0.18677248 0.2852462 -0.18466675 -0.18884784
000040 32 56 ba bd 9e 39 b2 3d 52 d0 fe be 72 c4 9e 3d
       -0.09098472 0.08702396 -0.4976831 0.07752313
000050 5b 99 48 3e 6e e7 b7 3e 13 f2 f9 be 45 ce 01 be
       0.1958975 0.35918754 -0.488175 -0.12676342
000060 31 d2 bb 3e 4e 53 f9 3e 97 8c 42 3d 17 7d cb be
       0.366838 0.4869637 0.04749736 -0.39743873
000070 a3 80 6f 3e 64 51 bb 3e 86 69 86 be 99 87 53 3e
       0.23388915 0.36585534 -0.26252383 0.20657195
000080 c7 a0 f0 ba 2f 2f c0 3c 5a 1d 07 bf 9a 35 07 3e
       -0.0018358462 0.023459999 -0.5277916 0.13204041
000090 4c c5 dc 3e 9f e5 d0 3e 72 b8 9d be 8e 1e 80 be
       0.43119276 0.40800187 -0.30804783 -0.2502331
0000a0 22 e9 71 3e 0e c8 18 3e ee cf 8e be 7b ca 2b be
       0.2362409 0.14920065 -0.27893013 -0.16776459
0000b0 b2 eb 3e bd ea 47 11 3d 77 d8 c7 bd 8a 7e 37 be
       -0.046611495 0.035468973 -0.09758084 -0.17919365
0000c0 28 8f fb 3d fd 33 0c 3e 1b 77 db be f0 69 1e 3d
       0.12283164 0.13691707 -0.42864308 0.03867525
0000d0 f5 9b bb bc b6 49 4d 3e 73 98 32 bd fa c2 e3 3d
       -0.022901515 0.2004765 -0.04360242 0.11121173
0000e0 5f ff da bd 1d 4b 19 3e 7b b7 7b bd 6b 7a 8d 3e
       -0.106932394 0.1497006 -0.061454277 0.2763246
0000f0 c7 14 a9 3e a4 8e 1f be 99 5e e3 be fc ed 1a 3e
       0.33023664 -0.15581757 -0.4440811 0.15129846
000100 ee 16 71 3e 22 98 7f 3e 10 ca 1c 3e 12 8a 47 3e
       0.23543903 0.24960378 0.15311456 0.19486263
000110 d8 f8 46 3e 40 e4 e3 3d 54 01 fc 3d 00 5f 00 3b
       0.19430864 0.111275196 0.12304941 0.0019587874
000120 42 cb 1e be 50 8a 30 bd e0 3d e0 bc be ca 03 3e
       -0.15507224 -0.043100655 -0.027373254 0.12870309
000130 0c 93 f1 3d 2a da 43 be 06 b7 7c be 8c ad 58 be
       0.11795625 -0.19126192 -0.24679193 -0.21159953
000140 28 31 6d 3d 2e 60 4b 3e 40 a1 5a bd 50 4f c9 bd
       0.057908207 0.19860908 -0.053376436 -0.09829581
000150 b6 70 11 3e 26 3f 51 be c8 91 d1 bd f0 01 9b bd
       0.14203152 -0.20434245 -0.10232884 -0.07568729
000160 5c 4f 96 3d f8 48 af 3d d2 8f 69 be ae 11 27 be
       0.07339355 0.085588396 -0.2280877 -0.16315338
000170 3c 60 1b 3e 06 bf 77 3e 1c f3 f5 3d 0e 42 58 3e
       0.15173429 0.24193963 0.1200926 0.21118948
000180 00 21 07 be c2 03 23 be c6 98 72 3e a6 82 2d 3e
       -0.13196182 -0.15919402 0.23691091 0.1694437
000190 ac 42 3a 3e b0 0f ca bd 0c dd c8 3d b2 39 7f be
       0.18189496 -0.098662734 0.09807786 -0.24924353
0001a0 c0 da ed bd fc 76 81 3d 48 02 3e 3e e0 e8 da bd
       -0.11613989 0.063215226 0.18555558 -0.10688949
0001b0 f4 99 be 3d 8e 04 75 3e 02 a5 34 be c4 18 9a 3d
       0.09306708 0.23927519 -0.1764107 0.07524255
0001c0 ee 06 11 3e f0 ed 25 be 6a f5 20 3e 22 ac 72 be
       0.141628 -0.16204047 0.15718618 -0.23698476
0001d0 52 49 6b be d8 27 13 3d 70 d5 fe bd 76 f4 55 be
       -0.22977188 0.03592667 -0.12443054 -0.20894036
0001e0 48 1a 38 bd 24 6a c3 bd b0 ff b3 bd 86 97 7c 3e
       -0.04494694 -0.09541729 -0.08789003 0.24667177
0001f0 08 06 c5 bd e4 5a 0e be 0c d7 c9 3d d0 b9 51 bd
       -0.09620291 -0.1390186 0.0985547 -0.051202595
000200 58 95 41 be 38 01 8d bc e1 9c b9 3e 09 b3 83 be
       -0.18904626 -0.017212495 0.36252502 -0.2572253
000210 65 ac a8 3e ee 62 68 3e d7 f8 87 be 87 4e 4d 3d
       0.32944027 0.22693989 -0.26557037 0.050123718
000220 b5 33 46 3e d9 45 d2 ba 76 2f d6 be 46 87 1c 3e
       0.19355662 -0.0016042545 -0.41833085 0.15285978
000230 5e 35 18 be 5e 2b 17 3e 1b a3 b3 3e 80 58 65 be
       -0.14864108 0.14762637 0.35085377 -0.22397041
000240 d4 1a af 3e 05 e4 75 3e 28 6e 28 be 61 e4 6c 3e
       0.34200156 0.24012764 -0.16448271 0.23133995
000250 3e 6e c5 3d 86 37 8c 3d e8 96 dc be b5 d0 5a 3e
       0.09640168 0.06846528 -0.43083882 0.21368678
000260 be 60 87 be 7c 6a e7 be 94 b9 c4 bc da b0 ab 3e
       -0.26440996 -0.4519843 -0.024014272 0.33533365
000270 ed 65 b0 3e 8c 08 a9 3c 41 2d 36 bd 96 48 9e 3e
       0.34452763 0.020633958 -0.04447675 0.30914754
000280 31 6a 85 3e c9 49 63 be 46 ea b1 be ed de 7d 3e
       0.2605758 -0.22196116 -0.3474905 0.2479207
000290 3b 5d 97 3e 00 61 d0 3e 48 a0 a0 bd b8 e1 a8 be
       0.29563317 0.40699005 -0.07843071 -0.3298471
0002a0 6a ea 5d 3e 06 58 ee ba 44 a3 ad bd 27 ad a7 bb
       0.21671453 -0.0018184192 -0.08478406 -0.005117077
0002b0 fc a6 17 3e d6 83 c0 bc 45 09 d4 3e af a0 b7 bc
       0.14809793 -0.023500364 0.41413322 -0.022415487
0002c0 43 6b 32 3e 0b be 85 be 56 7b df be 4a ef 81 3e
       0.1742373 -0.26121554 -0.43648785 0.25377876
0002d0 0b 36 4c be 1c 00 e8 bd c3 a6 f8 3e 20 74 af be
       -0.19942491 -0.11328146 0.4856473 -0.34268284
0002e0 6b c4 d1 bc ff 1c 3a be 99 4c 9c 3e 79 da cc 3c
       -0.025606355 -0.18175124 0.3052719 0.02500652
0002f0 4e ba 72 be ea 60 87 bd 2e 20 b4 3e 70 9d a7 be
       -0.23703882 -0.06610282 0.351808 -0.32737303
000300 06 e6 bc 3e 61 67 01 bd db 13 77 be 7e 65 31 be
       0.36894244 -0.03159273 -0.24128668 -0.17323872
000310 cf d1 a9 3e c7 85 9c 3e ae 50 51 be c3 12 cb bd
       0.33167884 0.30570814 -0.20440933 -0.09915688
000320 ca 3f 42 3e 46 df fc bd 2b 23 c4 be f1 d3 8e be
       0.18969646 -0.123472735 -0.3830808 -0.27896073
000330 35 96 dc 3d 1e 54 8c bd bf 68 23 be b5 85 de 3d
       0.10770837 -0.068519816 -0.15957926 0.10865346
000340 a5 d7 8c 3d 66 b2 87 bd 6e bd df be 71 34 f9 3d
       0.068770684 -0.06625824 -0.4369921 0.121682055
000350 8c c1 e8 3d 7a b2 6b 3e fb 49 f9 be 29 e2 89 bd
       0.11365041 0.23017302 -0.48689255 -0.0673259
000360 92 56 cd 3e ce 37 89 3e ac 6e a5 bd 28 33 8a be
       0.4010511 0.26800388 -0.080777496 -0.26992154
000370 65 59 c0 3e bb e9 5c bd a6 20 b3 be 23 6a a9 3e
       0.37568203 -0.05393384 -0.34985846 0.33088788
000380 54 25 f5 3e 8a 64 4e 3e 69 ae ca be 8d 34 19 bc
       0.47880042 0.2015554 -0.3958619 -0.009350908
000390 61 42 ad 3d 27 6f 80 3e a1 8a 90 be 5e b0 9b be
       0.084599264 0.25084803 -0.28230765 -0.30407995
0003a0 64 50 b9 3e c5 5f 19 3e 81 93 43 bc d8 45 ce 3d
       0.36194146 0.1497794 -0.011937023 0.100719154
0003b0 72 8b 6a 3e e5 e2 9f bd b7 a0 e1 bd 0b f3 54 be
       0.22904757 -0.078069486 -0.11016982 -0.20795839
0003c0 8c 34 d4 3e 06 59 26 3e f2 09 9b be 74 89 81 be
       0.4144634 0.16244897 -0.30281025 -0.2530018
0003d0 22 f8 25 3e 19 4b 81 3e 76 b9 70 be 05 de c7 3d
       0.16207936 0.25252607 -0.23508248 0.09759144
0003e0 da 0d bd 3d 02 16 f1 3d 14 c9 bb bd 20 94 2d 3d
       0.092311576 0.11771776 -0.09169212 0.04237759
0003f0 a6 28 fa 3d d9 f8 4e 3e 14 17 32 be d5 3c 1d be
       0.12214784 0.20212115 -0.17391616 -0.15355237

weight_hh_l0 f4 [64, 16]
000000 38 b5 1f 3e 68 c5 4b 3e 44 83 6a be 44 8f da 3d
       0.15596473 0.19899523 -0.22901636 0.10671857
000010 70 13 e4 bc 20 42 49 bc 56 15 62 3e 40 0d 7d be
       -0.0278413 -0.012283832 0.22078452 -0.24712086
000020 12 fb 16 3e fc 4f 40 3e 1e 8c 5c 3e f0 e9 a6 bd
       0.14744213 0.18780512 0.21537825 -0.08150089
000030 40 e0 26 be 08 6a b9 3d 1e 73 71 3e 94 f0 79 3e
       -0.16296482 0.09053427 0.2357907 0.2440818
000040 90 00 ba bd 3a 43 25 be f4 4f 96 3d 7c 10 33 be
       -0.090821385 -0.16138926 0.073394686 -0.17486757
000050 c0 e0 24 be 5c 69 81 3d 16 2c 00 be 20 10 14 3e
       -0.1610136 0.06318924 -0.12516817 0.14459276
000060 50 e7 10 bd 80 5e 42 bb 34 1a f5 bd d0 9d 41 3e
       -0.035376847 -0.0029658377 -0.119678885 0.18907857
000070 82 22 62 3e 10 ee 00 be 36 27 77 3e 82 2c 5e be
       0.22083476 -0.12590814 0.24136052 -0.21696666
000080 24 95 e0 bd 3c ff 4d 3e 98 7a 62 3e 12 7b 59 be
       -0.10965946 0.20116895 0.22117078 -0.21238354
000090 fc 15 0d be d8 89 48 be c6 d4 7f 3e 0c 8a 9e bd
       -0.13777918 -0.19583833 0.2498351 -0.07741174
0000a0 1c 4e 30 3e 1a 50 01 3e 88 e3 85 bd 8c f8 23 3e
       0.17217296 0.12628213 -0.06537539 0.16012782
0000b0 d6 ae 2d be 40 40 bd 3d 5c 08 1e be 46 1d 60 be
       -0.16961226 0.0924077 -0.15432876 -0.21886167
0000c0 96 b6 53 be 00 b1 33 3b 20 4d 77 3d a6 af 1c 3e
       -0.2067512 0.0027418733 0.060376287 0.1530138
0000d0 1c 5a d0 bd 58 33 27 be 40 37 ea bc 98 3c 30 3e
       -0.10173437 -0.1632818 -0.028590798 0.17210615
0000e0 58 05 44 be 5a 2b 08 be 00 9f 2f 3d c6 41 64 3e
       -0.19142663 -0.13297787 0.042876244 0.22290716
0000f0 60 0d 72 3e aa 96 15 3e 1a 93 70 be 60 7e 58 be
       0.23637915 0.14608255 -0.23493615 -0.21141958
000100 7c 5f b9 bd 6e c6 04 be 7a 8b 27 be 30 29 16 be
       -0.09051415 -0.1296632 -0.163618 -0.1466415
000110 6c cb 27 be a4 e0 08 be b0 d4 63 bd 8e ca 7b 3e
       -0.16386193 -0.13366944 -0.055622756 0.24588987
000120 88 cb 36 3e 04 eb fc 3d 92 5a 6a 3e 08 24 10 3e
       0.17851079 0.12349513 0.22886112 0.14076245
000130 00 eb 22 3c f0 0f e8 3d e4 41 61 3e d8 9f ca bd
       0.009943724 0.11331165 0.21997792 -0.09893769
000140 ca 97 7d 3e 38 0c 53 3e 96 4d 2e be a8 13 35 bd
       0.24764934 0.2061013 -0.17021784 -0.0442082
000150 06 21 3d 3e e0 8a 43 bc f8 09 a1 3d d2 b9 24 3e
       0.18469629 -0.011934966 0.078632295 0.1608651
000160 34 61 57 3e 30 a2 6b 3d 98 0e c4 3d 90 67 b9 3c
       0.21033174 0.05752772 0.09573096 0.02263239
000170 50 0a 50 bd c0 06 6c be e0 2a c2 3d c6 dd 1e be
       -0.050791085 -0.2304945 0.09480834 -0.15514287
000180 c6 4c 15 be a0 cd 72 3d a4 b4 cc bd cc ec 34 3e
       -0.14580068 0.05927813 -0.09995392 0.17668456
000190 f0 33 21 3e 80 08 a0 bc f0 42 b5 3d a0 5b e5 3d
       0.15742469 -0.019535303 0.08850658 0.11199117
0001a0 dc c6 b5 3d 4e 8a 34 3e 8a 26 00 3e a4 ea a6 3d
       0.0887582 0.17630884 0.12514701 0.08150223
0001b0 c0 5a 74 bc 9a 24 32 be f6 fa 04 3e 40 c9 bc 3d
       -0.014914215 -0.17396775 0.12986359 0.09218073
0001c0 0c 90 9e 3d e4 77 cc 3d 3c e9 11 3e 06 7c 0b 3e
       0.077423185 0.09983805 0.14249128 0.1362153
0001d0 a0 da db 3c 9c f2 4e 3e 90 6d de 3d cc e4 26 be
       0.026837647 0.20209736 0.10860741 -0.16298217
0001e0 24 0e 9b 3d 5e b7 36 be 62 7c 71 be 7c 0a 0f be
       0.075710565 -0.17843387 -0.23582605 -0.13968843
0001f0 e0 be 6b 3e 7c 24 7e be f4 d5 3f 3e f0 aa 12 3e
       0.23022032 -0.24818605 0.1873396 0.1432302
000200 7e 0d 1f 3e 34 de 2d 3e a8 31 7d be 7c fb 1c be
       0.1553249 0.16979295 -0.24725974 -0.15330309
000210 40 74 e4 3c f0 31 eb 3d 6c 92 20 be c8 69 a2 3d
       0.027887464 0.11484134 -0.15680856 0.079303324
000220 04 d4 a7 3d 80 c7 7d 3d 44 07 54 be 8c 2b 77 be
       0.08194736 0.061957836 -0.20705897 -0.24137706
000230 b8 c7 0a 3e b8 ba 80 3d e8 a6 f6 3d ae 8e 27 be
       0.13552749 0.06285614 0.120435536 -0.16363022
000240 28 5e d0 bd 0a ed 5b be 84 de 60 be b8 f8 83 bd
       -0.10174209 -0.21477142 -0.21959883 -0.06443924
000250 48 b2 18 bd f4 6d 1a 3e 26 a0 47 3e 54 b3 a8 3d
       -0.037279397 0.15081006 0.19494686 0.08237329
000260 ee 32 5c 3e d0 f0 81 bd f0 63 f7 bc 7c 2e 80 3d
       0.21503803 -0.063447595 -0.030199021 0.06258866
000270 90 57 4a bd 70 82 7c 3e aa 0c 61 be 40 87 ee 3c
       -0.049399912 0.24659133 -0.21977487 0.029117227
000280 b8 c6 5f bd 94 d8 ec bd cc 64 2d be 90 fb 32 3d
       -0.054632872 -0.115647465 -0.16932982 0.04369694
000290 08 92 0b 3e fc 6f 78 be 40 80 4a 3e f4 3d 69 3e
       0.13629925 -0.24261469 0.19775486 0.2277754
0002a0 b4 f8 44 be 10 d5 9c bc 4c 50 7b be f0 0b 7a be
       -0.19235498 -0.019144565 -0.2454235 -0.24418616
0002b0 a8 31 00 3d ec c8 cc bd b0 35 06 be a0 35 83 bd
       0.031297356 -0.0999926 -0.13106418 -0.064067125
0002c0 84 cd 3c 3e ac b8 60 be 7e c5 7c be b6 49 03 be
       0.18437773 -0.21945447 -0.24684712 -0.12821087
0002d0 f0 82 27 3d b8 22 42 3e 40 d3 c5 bb 80 1a 2e be
       0.040896356 0.18958557 -0.006037146 -0.17002296
0002e0 70 89 a9 bc b8 63 a5 3d 60 55 72 bd b8 4e 3e bd
       -0.020695418 0.080756605 -0.05916345 -0.04646179
0002f0 c0 fc 9b 3b d6 5c 2d 3e 68 2f 70 be 1c b3 f7 bd
       0.0047603548 0.16929945 -0.23455584 -0.12094709
000300 c0 c6 70 bd 70 27 15 bd 6c 8d 7f be 22 fb 1c 3e
       -0.058783293 -0.036414564 -0.24956292 0.15330175
000310 80 62 7b 3d 3c 90 d7 bd 86 e8 2b be 68 c5 72 3d
       0.061373234 -0.105255574 -0.1678792 0.059270293
000320 ac 77 b0 3d e2 e6 32 3e c4 fc 6e 3e 48 14 a6 bd
       0.086165756 0.17470887 0.2333861 -0.08109337
000330 6c d4 2e be 90 34 62 bd 92 fd 41 be d0 56 6a 3e
       -0.1707322 -0.05522591 -0.18944386 0.22884679
000340 74 16 ea bd 0a 85 62 3e 04 58 6d be f4 84 87 bd
       -0.11430064 0.22121063 -0.23178107 -0.06617156
000350 0e 7a 06 3e 28 de 4f 3e 50 4d d5 bd bc 86 f8 bd
       0.13132498 0.2029959 -0.10415137 -0.121350735
000360 9a 23 49 be 82 e7 5a 3e 18 e7 93 bd 34 cf 85 bd
       -0.19642487 0.21377376 -0.07221812 -0.065336615
000370 c2 af 3f 3e f8 55 b7 3d 40 46 9f 3c 20 42 4d 3e
       0.1871939 0.08951944 0.019442677 0.20044756
000380 28 21 9a bd 88 b5 38 3d bc ca 4d 3e ee f4 79 3e
       -0.07525855 0.045094997 0.20096868 0.2440984
000390 6a 19 3d 3e 7c e6 52 3e 20 fa 42 3c 88 c8 ef bd
       0.18466726 0.20595735 0.011900455 -0.1170817
0003a0 c0 93 cc 3d f4 bf 06 3e 34 87 ff bd c8 3c 81 3d
       0.099891186 0.13159162 -0.1247696 0.06310421
0003b0 b0 c5 47 3d d8 5b 46 be c8 7f 64 bd ca 90 2e be
       0.048772514 -0.19370973 -0.055785924 -0.1704742
0003c0 80 d8 20 3e 58 12 9a 3d 20 45 0d 3d c4 bc 05 3e
       0.15707588 0.0752303 0.03448975 0.1306029
0003d0 34 b6 97 3d d0 76 6f be 00 0a e2 ba 7c c9 bb bd
       0.07407799 -0.23385167 -0.0017245412 -0.091692895
0003e0 7c ac 6f 3e 80 b9 3a bb c2 e6 64 be 34 e8 55 be
       0.23405641 -0.0028491914 -0.22353652 -0.2088936
0003f0 64 80 d7 bd 80 34 7c be ea 8f 39 be c0 0c 77 3d
       -0.105225354 -0.24629402 -0.18121305 0.060314894

bias_ih_l0 f4 [64]
000000 38 f8 0a 3e 0f 6d 55 3e 0f d7 1a 3e 35 27 97 3e
       0.1357125 0.20842384 0.15121101 0.295221
000010 cc 96 d0 3d f1 fb 89 3e 5b d5 c0 3e 3f e4 23 3e
       0.10185012 0.2695003 0.37662777 0.16005038
000020 0e 57 a0 3e 3f 46 1c bc 5d 49 67 3e 7b 72 21 3e
       0.31316417 -0.009538232 0.2258658 0.15766327
000030 4a 66 8d 3d 17 4c 96 3e 5b 7b 9c 3e 29 e5 c0 bd
       0.06904276 0.29354927 0.30562863 -0.09418709
000040 18 ab 47 3d 80 40 6a bc 40 af 9d bd f8 7a 0c bd
       0.048747152 -0.014297605 -0.07699442 -0.03429696
000050 b8 e3 9c 3d 3a 5e 05 3e f0 24 27 bd 40 bc 76 bc
       0.076606214 0.13024226 -0.04080671 -0.015059531
000060 f6 e5 17 be 40 0a c6 3d 20 e3 54 3c 58 64 7d 3d
       -0.14833817 0.09669924 0.012993604 0.061863273
000070 ac 7d e9 bd 1a b1 57 be c0 9e 8b 3c 2a 12 65 be
       -0.11400923 -0.21063653 0.017043471 -0.2237021
000080 13 4d e7 bc 69 eb 36 3d 08 70 20 3e 47 fb 81 be
       -0.028234994 0.0446581 0.15667737 -0.25387022
000090 f3 a6 99 bb 89 ae 66 3e 7e 7c 65 be 69 ff 19 3e
       -0.0046890914 0.22527517 -0.22410771 0.15038837
0000a0 79 55 bd 3c ba 41 56 bd ad 0c 89 3e af 7f ad bd
       0.023112046 -0.052308775 0.26767483 -0.08471619
0000b0 1b 09 5a 3e 3e 00 5e be ea 67 1b be f1 91 24 be
       0.21292536 -0.2167978 -0.15176359 -0.16071297
0000c0 7c 5b c0 3d 7c 3f bf 3c a7 fa 35 3e ad 28 02 3b
       0.09392449 0.023345701 0.17771398 0.001986067
0000d0 af a2 80 3e e8 0d b5 3e 29 69 c9 3e 12 2e 10 3e
       0.25124118 0.35362172 0.39338043 0.14080074
0000e0 dd 42 9e 3e 29 89 d2 3c 1d 5f ab 3e 66 88 eb 3d
       0.30910388 0.025700169 0.33471003 0.11500625
0000f0 75 9d f6 3e f5 12 ce 3e 80 ec b1 3e 0b 57 36 3e
       0.48167005 0.40248838 0.34750748 0.17806642

bias_hh_l0 f4 [64]
000000 f8 44 9b 3d de 18 a9 3e 93 97 78 3e 54 25 a3 3e
       0.07581514 0.33026785 0.24276571 0.31864417
000010 c0 bf 91 bc 8b f2 32 3e e0 a8 81 3e 19 38 26 3e
       -0.017791629 0.17475335 0.25324154 0.16232337
000020 39 c1 6c 3e ef eb 55 3e c5 16 4d 3e e7 fa b1 3e
       0.23120584 0.20890783 0.20028217 0.34761736
000030 56 36 29 3e 96 b3 d5 3e a8 b4 e1 bd ce d9 9e 3e
       0.16524634 0.41738576 -0.110207856 0.31025547
000040 f6 83 34 be 40 f1 7d bc 74 4f 38 3e 0c 29 6a 3e
       -0.17628464 -0.015499413 0.17999059 0.2286722
000050 dc c3 c8 bd 6c fb 9a 3d 70 30 44 be 1c 24 6a 3e
       -0.09802982 0.07567486 -0.19159102 0.22865337
000060 00 f4 18 3d a0 c0 9b 3c 78 e2 69 be 88 22 50 3e
       0.03734207 0.01901275 -0.22840297 0.20325673
000070 00 53 68 3b b0 ea 85 3c 20 ff fc 3c 80 52 f1 3c
       0.0035449862 0.01634726 0.030883372 0.029458284
000080 28 d6 99 bd 22 a3 86 3e fc cf 91 3e 33 80 1e be
       -0.0751155 0.26296335 0.28478992 -0.15478592
000090 36 46 90 3e d5 ce 7b bd 81 2f 50 bc 53 ce b9 3d
       0.28178567 -0.061476547 -0.012706638 0.09072556
0000a0 e3 62 d1 3d 77 51 a1 3e 2a c4 86 3e 29 85 5d be
       0.10223939 0.31507465 0.26321536 -0.21632828
0000b0 ce 1c fe 3c a0 46 2e be 34 52 47 be ee 30 8f bd
       0.031019595 -0.17019129 -0.19464952 -0.069917545
0000c0 a8 ff ef 3d 20 d3 21 bd c6 00 cf 3d 77 d3 91 3e
       0.117186844 -0.039507985 0.101075694 0.28481647
0000d0 18 ed 20 bb a8 24 b6 3d b2 a4 9c 3e b6 d5 9e 3e
       -0.0024555381 0.088937104 0.30594403 0.31022424
0000e0 c4 1f 44 3e 8f a2 b5 3d 15 14 ae 3d 94 fd df 3e
       0.19152743 0.08868896 0.08499924 0.43748152
0000f0 78 62 55 3e 61 f3 9e bb 00 d4 a5 3e e6 12 20 3d
       0.20838344 -0.0048507904 0.32388306 0.039080523

weight_ih_l1 f4 [64, 16]
000000 b5 1a d3 be 5c f8 31 3e b3 99 b5 3d fb d9 47 3d
       -0.41231313 0.17379898 0.088672064 0.048791867
000010 b6 b2 5d 3e d8 41 c1 3e 7f f0 a8 be de c3 5f 3e
       0.21650204 0.37745547 -0.32995984 0.21852061
000020 db cc 9f 3e 3f 7c 3f 3d a0 e5 cf 3e 2d e6 84 bd
       0.3121098 0.04674935 0.40604877 -0.06489215
000030 23 d9 8f 3d da 3e ac 3b 23 32 7d be e2 e3 72 be
       0.070238374 0.005256516 -0.24726157 -0.23719743
000040 9a b9 e4 3d be d9 a7 3e 57 9e 2f 3e 08 08 67 3e
       0.11168213 0.32783312 0.17150246 0.22561657
000050 d2 37 37 3e 3e 09 34 3e 14 a8 33 be 27 3a e9 3d
       0.17892388 0.1758165 -0.17544585 0.11388045
000060 6d f3 7a be 6b 4e 14 3f ed bb aa 3e 09 1f 34 3e
       -0.24506922 0.57932156 0.333465 0.17589964
000070 c7 05 2c be e0 49 a0 bd c3 4b e2 be 34 c2 42 be
       -0.16799079 -0.078265905 -0.44198427 -0.19019395
000080 dc 90 00 bd e1 89 93 3e d9 8f 86 3e 50 51 e2 be
       -0.03138815 0.2881613 0.26281622 -0.44202662
000090 0e ac ee bc f7 bc 97 3e 51 f7 d3 bd f5 92 ac 3e
       -0.029134776 0.29636356 -0.10349906 0.3370587
0000a0 c4 f2 e4 3e cd 93 43 bd 24 cd a8 3d 32 38 57 be
       0.44716465 -0.047748376 0.082422525 -0.2101753
0000b0 a6 48 a7 3e 55 dc cd bd e8 90 81 be cd df eb bd
       0.32672614 -0.100517906 -0.25305867 -0.11517296
0000c0 c1 0b af bd de 4d dd 3e d1 c6 87 bb 74 8a 4a bd
       -0.08547164 0.4322347 -0.004143574 -0.049448445
0000d0 bb 36 f2 3d 52 ed 66 3e 75 08 0b be 5c af c1 3d
       0.11826845 0.22551468 -0.13577445 0.09457275
0000e0 56 0f 28 3e ea ba cc 3e 51 30 6c 3e 85 0d a4 bd
       0.164121 0.39986354 0.23065306 -0.08010391
0000f0 6d d5 74 3e 1d 63 97 be 23 3d 7f be 82 aa d8 be
       0.2390954 -0.29567805 -0.24925666 -0.42317587
000100 83 e9 d1 bd 8c f9 d5 3e a8 f7 b2 3e d2 1a f3 3c
       -0.10249617 0.41791952 0.34954572 0.029675875
000110 3a cb 14 3d f4 ce bd 3e f7 85 bb bc 39 02 a4 3d
       0.036326624 0.37071955 -0.022891028 0.080082364
000120 f3 d1 64 3d 45 0e 87 3e de 27 86 3e eb 72 45 bd
       0.055864286 0.26378074 0.2620229 -0.048205297
000130 69 6e e6 3d f8 49 53 be de 13 96 bd 22 b4 60 bd
       0.11251528 -0.20633686 -0.07328008 -0.054859288
000140 9c e0 0f be 29 86 1d 3e a9 98 bb 3c 4a db 2f 3e
       -0.14050525 0.1538321 0.022899942 0.17173496
000150 d8 8b 17 3d 8a 5b 3f 3d 7e 45 0a be 4d cb 28 3c
       0.0369986 0.046718158 -0.13503072 0.010302377
000160 e3 a9 c4 bd 3d 20 ae 3e 42 d9 8f bc b2 8f 59 bd
       -0.09602716 0.3400897 -0.017559651 -0.053115554
000170 58 d8 67 3d 16 ce 4e be f5 57 9d be dd 7a 33 be
       0.056602806 -0.20195803 -0.30731168 -0.17527337
000180 ce a6 53 be 12 ed 7a 3e 7d 03 d2 3e ac c6 9c be
       -0.206691 0.24504498 0.41018286 -0.30620325
000190 bb 53 9a 3e c5 ed 99 3d 5c 40 18 bd fb 68 00 3e
       0.30142006 0.07516054 -0.037170753 0.12540047
0001a0 d7 cf 6b 3e 9f f6 82 3e e8 61 d4 3a 90 22 84 be
       0.23028503 0.25578782 0.0016203495 -0.2580762
0001b0 7f b9 5e 3e 70 90 c5 be 0d 96 9e bd d9 56 6d be
       0.21750449 -0.3858676 -0.07743464 -0.23177661
0001c0 c5 d8 26 bd 14 ed 4e 3d 33 f2 a6 3e fc a4 44 be
       -0.04073407 0.050519064 0.32606658 -0.19203562
0001d0 c3 bc 17 3e 8f 2d ba 3e f4 2a 72 bc ff 2d a2 3d
       0.148181 0.36362883 -0.014780749 0.07918929
0001e0 6e 1a 45 be d7 80 05 3f b3 3c 9a 3e 7d 07 a6 bd
       -0.19248363 0.5214972 0.30124435 -0.08106897
0001f0 b0 54 af 3d 78 58 a9 bd f3 90 a1 be e5 fe 54 be
       0.08561075 -0.08268827 -0.315559 -0.2080036
000200 3a 16 b8 be ff b5 13 3e ae 7f 58 3e 75 4d a7 be
       -0.35954458 0.14424895 0.21142456 -0.32676283
000210 55 28 41 bc 54 d0 30 3e c7 b1 26 3d 6e 36 d0 3e
       -0.011789401 0.17266971 0.040696885 0.40666527
000220 52 3e ea 3d 2a 35 68 3e 32 dd 5c 3e 35 37 91 3d
       0.11437668 0.2267653 0.21568754 0.07090608
000230 75 f1 dd 3e ca ce 8a be 30 fe 53 3c fa 6a b5 be
       0.4334828 -0.27110893 0.012939021 -0.3543318
000240 37 63 98 be 37 b2 9e bd 24 d5 a1 3e a2 53 c0 be
       -0.29763195 -0.077488355 0.31607926 -0.37563807
000250 ec 79 3b 3e 91 fd c6 3e b1 29 90 3d d2 8b a5 3e
       0.18308228 0.3886533 0.07039202 0.32333237
000260 f3 db c4 3e 67 40 4b bb de 78 aa 3e fd 10 93 be
       0.38449058 -0.0031013729 0.3329534 -0.287239
000270 3a 20 c6 3e eb f5 2c be 83 63 07 bd 0e fa 71 be
       0.38696462 -0.16890685 -0.033053886 -0.23630545
000280 93 6d 41 be 3a 78 a2 3e 8d c7 8d bb e2 80 f5 bd
       -0.18889455 0.3173235 -0.004326767 -0.11987473
000290 c6 50 95 3d 10 59 28 3e 42 ce 1c bd 37 5b b5 3e
       0.07290797 0.16440225 -0.03828264 0.35421154
0002a0 2f 4a 5c 3e 14 9e 8e 3d 15 6f d2 3e 36 c9 ed 3d
       0.21512674 0.06963745 0.41100374 0.116106436
0002b0 f1 8f 12 3e cf 23 18 be 4a b6 ac be 46 f6 8e be
       0.14312722 -0.1485741 -0.33732826 -0.27922267
0002c0 db 4b ae bd 4f 72 9c 3e c4 21 0a bb e1 5f e8 be
       -0.08510562 0.3055596 -0.0021077255 -0.4538565
0002d0 20 b6 55 3e ca 43 2c 3e b8 1e 67 be f2 b2 fe 3d
       0.20870256 0.16822734 -0.22570312 0.12436475
0002e0 98 1d 2c 3e 64 5d 4e bd ea cc 81 bc 52 f6 96 be
       0.16808164 -0.050382033 -0.015844781 -0.29484802
0002f0 df e9 a3 3e c8 55 38 3d ba 79 85 be 44 2c ac be
       0.32014367 0.045003682 -0.26069432 -0.33627522
000300 b0 a0 ee be 02 52 8d 3e 66 6e 8d 3e 89 f8 64 be
       -0.4660697 0.2760163 0.2762329 -0.22360434
000310 c8 3a b2 3c e8 c2 8e 3e ba dc df bd 41 2f ec 3e
       0.021756545 0.27883077 -0.10930772 0.46129802
000320 9d f6 a0 3d 8d c9 18 3d 60 8f 72 3e ec ca 8e 3c
       0.07859538 0.03730159 0.23687506 0.017430745
000330 7d 6b 5c 3e aa f0 1f be 5a b4 9e 3d 01 38 43 be
       0.21525379 -0.1561915 0.07749243 -0.19064333
000340 c5 98 4b be 86 0f f1 3b e0 44 7c 3c 4a d0 7e bd
       -0.19882496 0.007356587 0.01539728 -0.06221036
000350 4c 9c 59 3d 5c dd b5 3e b2 84 32 bd 81 b4 ba 3e
       0.053127572 0.35520446 -0.04358358 0.3646584
000360 c9 55 e2 3e 69 c8 6e 3e 2c 93 cc 3d b8 b5 0c 3c
       0.44206074 0.23318638 0.09989008 0.008588247
000370 07 12 95 3e 1b 1d 34 be 6b b2 fa 3d a3 29 b8 be
       0.29115316 -0.17589228 0.12241062 -0.35969266
000380 3c bc 6e bd b8 64 42 3e f5 f4 a8 3e 69 0d 47 3e
       -0.058284983 0.18983734 0.32999387 0.1943871
000390 6e 64 e1 3e 0a f4 d1 bd 11 a6 03 bf 6f ad bf 3e
       0.44021934 -0.10251625 -0.5142527 0.37437007
0003a0 5c 1a 64 bd a8 41 8d 3e 3e 26 ff 3e ff c7 7c be
       -0.0556892 0.27589154 0.49833864 -0.24685667
0003b0 fa 2b fb 3d c9 dc 3e 3e 1b 39 ac be 67 7f 70 be
       0.12264247 0.1863891 -0.33637318 -0.234861
0003c0 de b7 37 be 70 95 1b 3e f2 9b d4 3e 61 03 e5 3c
       -0.17941234 0.15193725 0.41525227 0.027955713
0003d0 66 f0 cc 3e 89 18 f7 3d b0 dd 3e 3d 88 b0 18 3e
       0.4002716 0.120652266 0.046598136 0.14911091
0003e0 df 1b a4 3d 37 13 b4 3e a9 63 15 3e 00 4b 9a bd
       0.080131285 0.3517091 0.14588799 -0.07533836
0003f0 6f 54 1f 3d 2f cb 7c be 79 73 b5 be de 51 b1 be
       0.03889888 -0.24686883 -0.3543966 -0.34632772

weight_hh_l1 f4 [64, 16]
000000 ba b8 79 be 94 5c 21 3e 1c 31 0b be 82 75 6b be
       -0.24386874 0.15757972 -0.13592952 -0.22994044
000010 bc da 9b bd 5c 97 e4 bd fc 3d 6b 3e c8 6a 0b 3d
       -0.0761008 -0.11161682 0.22972864 0.03403738
000020 a8 92 a0 3d d4 b1 28 3e 0a d9 1f be 3e 03 03 3e
       0.078404725 0.16474086 -0.15610138 0.12794206
000030 00 d6 18 ba 60 dd 00 be c0 cd db bd 2a 7b 73 be
       -0.00058302283 -0.12584448 -0.10732603 -0.23777452
000040 14 42 45 be 50 97 1a bd c4 b2 5a 3e 9c 33 a6 bd
       -0.19263488 -0.03774196 0.21357256 -0.081153125
000050 1c ca b3 3d 3c 34 e5 bd 10 46 15 3d 66 f8 54 3e
       0.08778784 -0.111916035 0.03644377 0.20797881
000060 f2 a6 21 3e 40 f1 be 3c 0c 1b 96 bd b0 47 b2 bc
       0.15786341 0.023308396 -0.073293775 -0.021762699
000070 00 94 d6 39 78 f3 7b 3d 8e 33 7c be 26 36 56 3e
       0.0004092753 0.061511487 -0.24629042 0.20919093
000080 1c 9a 05 3e 54 29 b4 3d 80 8f 52 3d d6 62 75 3e
       0.1304707 0.08796945 0.051406384 0.23963484
000090 cc f6 13 3e 52 85 2a be 70 03 c6 3c b0 e9 f7 bd
       0.14449614 -0.1665242 0.024171561 -0.12105119
0000a0 22 f5 7c be 70 d7 fd bd 98 43 cd bd 2a a7 48 3e
       -0.24702886 -0.12394607 -0.10022658 0.19595018
0000b0 d0 eb 19 bd 98 fd 5f be 00 58 23 3d 64 a5 16 3e
       -0.037578404 -0.21874082 0.039878845 0.14711529
0000c0 48 9f 67 3e 34 71 6f be c2 f9 79 3e 1c 7a cb bd
       0.22619355 -0.23383027 0.24411681 -0.099354
0000d0 fc 67 7c 3e e0 a7 7e 3e 2a 28 15 be f8 b3 5a be
       0.24649042 0.24868727 -0.14566103 -0.21357715
0000e0 20 05 4e bc 88 f4 5b 3d 1a af 5b 3e c2 76 4e 3e
       -0.012574464 0.0537 0.21453515 0.2016249
0000f0 38 be 3a 3e e8 b9 4e 3e 60 c6 ef bc 58 de 1b 3e
       0.18236625 0.20188105 -0.029269397 0.15221536
000100 b0 e3 45 bd 68 29 f0 bd d0 09 5a 3e a2 3b 64 be
       -0.048312843 -0.117266476 0.21292806 -0.22288373
000110 f6 9e 01 be 74 6a 49 3e 74 31 fa 3d c6 f3 1d be
       -0.12658295 0.19669515 0.12216464 -0.15425023
000120 40 66 51 3c ba 1a 0a be 00 ba 09 3e d8 4b 59 bd
       0.012780726 -0.13486758 0.1344986 -0.053050846
000130 3c fc c1 bd 42 b1 01 be 2e 1c 5c 3e 56 27 2c 3e
       -0.09471938 -0.12665275 0.21495125 0.1681188
000140 a2 c6 42 be a0 b8 e2 3d b4 15 fa bd d0 ec b3 3d
       -0.19021085 0.11070371 -0.12211171 0.08785403
000150 10 14 89 bc cc 25 59 3e 70 78 20 bd 1c 38 34 be
       -0.0167332 0.21205825 -0.03917736 -0.17599529
000160 6c a8 b5 3d a0 50 01 bc 96 cf 2f be 76 aa 5c 3e
       0.088700145 -0.007892758 -0.17169032 0.215494
000170 6c b9 b4 bd 48 8b 6f be b2 85 05 be 30 ed 9f 3c
       -0.08824429 -0.23392975 -0.13039282 0.01952228
000180 90 9a b2 bd d0 74 91 3d 28 8c c0 3d 7c ee ad bd
       -0.08720887 0.07102358 0.09401733 -0.08492753
000190 68 e6 59 3e aa 0c 2e be f8 73 29 3e f8 35 4d 3e
       0.212793 -0.16997018 0.16548145 0.20040119
0001a0 e8 a2 34 bd 14 3b 53 be c6 ee 78 be b8 91 09 3d
       -0.044100672 -0.20628005 -0.24309835 0.033586234
0001b0 52 8b 1d 3e 78 cb 33 bd 92 b2 4f be c8 a8 73 bd
       0.15385178 -0.043895215 -0.20282963 -0.059487134
0001c0 14 7b 73 be d4 6f d6 3d 84 d2 6f be d8 b9 22 3d
       -0.2377742 0.10470548 -0.23420149 0.039728016
0001d0 d0 9f 08 be 20 4c c4 bc a4 0a 4a be 08 77 22 3d
       -0.13342214 -0.02396208 -0.19730622 0.0396643
0001e0 74 87 f6 bd c8 05 22 be 18 05 22 3e 98 00 78 bd
       -0.120375544 -0.15822518 0.15822256 -0.06054744
0001f0 e6 35 7d 3e 10 8d e9 bd 7c fd bf 3d 00 ac c5 3d
       0.24727592 -0.11403859 0.0937452 0.09651947
000200 68 20 cc bd 9c 43 6b 3e 1c 00 5b be 54 b3 04 3e
       -0.099671185 0.2297501 -0.2138676 0.12959033
000210 d4 52 0a 3e 60 06 3f 3c 00 5d 6b 3e 4c b3 bd bd
       0.13508159 0.011659235 0.22984695 -0.09262714
000220 34 3a 00 3e ac 06 b2 3d ae 0b 60 3e 5c 2f 6c be
       0.12522203 0.08692679 0.21879455 -0.23064941
000230 a0 d7 79 3e 08 9a 3c bd 48 bd 35 3e 16 be 56 be
       0.2439866 -0.046045333 0.17747986 -0.2097095
000240 b6 6c 2b 3e 70 f5 89 3c b4 79 05 be 6c c6 ae 3d
       0.16740689 0.016840667 -0.13034707 0.0853394
000250 f8 2a 52 bd e4 26 f7 3d 08 72 7e 3e 3a ba 70 be
       -0.05131051 0.12067965 0.24848187 -0.2350854
000260 00 80 d4 bd a8 a7 b5 3d bc 74 83 bd 8e 80 38 3e
       -0.103759766 0.088698685 -0.0641875 0.1801779
000270 c8 48 8d bd 7c b5 f4 3d 98 58 e9 3d bc 8b 99 bd
       -0.068986475 0.11948678 0.11393851 -0.07497355
000280 7a 53 43 be f8 6f 46 bd 9c d5 e0 bd 96 f8 3e be
       -0.19074813 -0.048446625 -0.10978243 -0.18649516
000290 20 1e c5 bd e0 36 67 bc fa bc 11 3e 88 8a 64 bd
       -0.096248865 -0.014112204 0.14232245 -0.055796176
0002a0 00 31 8c 3d 20 05 55 bc e8 86 54 3d d4 d4 82 bd
       0.068452835 -0.01300171 0.05188647 -0.0638825
0002b0 1e c5 09 3e 32 76 6a 3e d4 1b 31 3e 8c 16 94 3d
       0.134541 0.2289665 0.17295772 0.07230863
0002c0 dc c4 06 be 10 a5 27 bd 20 0c 48 3c d8 a2 ee bd
       -0.13161033 -0.0409289 0.012209922 -0.11652154
0002d0 5a 1a 12 3e a0 99 73 be b2 b6 62 3e bc 13 8d bd
       0.14267865 -0.23789072 0.22140005 -0.0688853
0002e0 40 bc d8 3b 0e 49 03 be 18 86 18 be 08 b5 0e bd
       0.006614238 -0.12820837 -0.14894903 -0.034840614
0002f0 b8 22 44 bd a8 0d 2b bd a0 57 c1 bc be 70 68 3e
       -0.047884673 -0.04176107 -0.023601353 0.22699258
000300 56 7d 59 be 34 62 8b bd b6 9a 6a be f2 c7 3c be
       -0.21239218 -0.0680584 -0.2291058 -0.18435648
000310 9c 00 7f be 90 61 37 be 54 31 c0 bd bc 3b a0 bd
       -0.24902576 -0.17908311 -0.093844086 -0.078238934
000320 fa 46 16 3e c0 af 86 bd 56 2d 2e 3e 66 d4 00 3e
       0.14675513 -0.065764904 0.17009482 0.12581024
000330 80 a8 02 bb ac e4 92 bd 2c 77 a7 bd b6 f0 23 be
       -0.001993686 -0.07172522 -0.08177027 -0.16009793
000340 3e 7f 74 3e 6e df 24 be 34 90 0a be c6 8b 31 be
       0.23876664 -0.16100857 -0.13531572 -0.17338476
000350 6c 3b 27 be ac b1 69 3e 1c f3 84 bd 80 c6 2a 3c
       -0.16331261 0.22821683 -0.06491682 0.010423303
000360 9e 70 7e 3e b8 c3 00 3e 18 c1 b0 bd ac 9f de bd
       0.24847648 0.12574661 -0.0863058 -0.10870299
000370 c2 5c 73 3e fe 8b 62 be 12 d6 52 3e fe a9 39 be
       0.23765853 -0.22123715 0.20589474 -0.18131253
000380 c0 d9 66 be 5c 32 9f 3d 40 fb 08 be 40 33 d3 3b
       -0.22544003 0.07773277 -0.13377094 0.0064453185
000390 c0 71 a1 3d de 61 3b 3e 84 cd e8 3d 76 1c 63 3e
       0.07883024 0.18299052 0.11367324 0.22178826
0003a0 3a e9 79 3e 3c 86 8a bd 3e 91 56 be 88 53 3f 3d
       0.24405375 -0.067638844 -0.20953843 0.04671052
0003b0 70 e1 3a bd 68 6b 96 bd 08 ba ca bd 00 69 8f bd
       -0.04562515 -0.07344705 -0.09898764 -0.07002449
0003c0 54 10 d7 bd 78 ce 12 3d c0 16 e1 bd f0 21 4e 3e
       -0.10501161 0.035841435 -0.10990667 0.20130134
0003d0 e2 ee 20 3e f2 ec 6c be bc 48 da bd 34 6a 04 3e
       0.15716127 -0.23137262 -0.10658404 0.12931138
0003e0 38 53 31 3d 70 d5 9c bc 40 22 1d bc c6 24 3e be
       0.043292254 -0.019144744 -0.009590685 -0.18568715
0003f0 c6 7d 31 be 84 14 2e 3e 58 02 35 be 26 97 7a be
       -0.17333135 0.17000014 -0.17676675 -0.24471721

bias_ih_l1 f4 [64]
000000 a7 c5 69 3e 56 56 bd bc 72 3a 3d bd fe b8 a5 3e
       0.22829305 -0.023112457 -0.046198316 0.323677
000010 76 42 f1 3d e2 b5 d9 3e cd 04 85 3e c3 c2 2b bb
       0.117802545 0.42521578 0.25980225 -0.0026208616
000020 e3 14 d3 3e 8e e6 9d bd d1 1b 41 3e 07 db 7e bb
       0.41226873 -0.077099904 0.18858267 -0.0038887875
000030 c5 87 8f bd 43 ce a0 3e 8c b0 d7 3e 5e a3 c9 3e
       -0.07008318 0.31407365 0.42126882 0.39382452
000040 92 06 12 3e 60 a2 3f be b8 b9 0d bd 00 15 b5 3c
       0.14260319 -0.18714285 -0.034600943 0.02210474
000050 26 98 00 be f0 ac aa bc 00 d7 19 bd 38 e9 b8 3d
       -0.1255804 -0.020834416 -0.037558556 0.09028858
000060 ae f6 09 be f6 62 45 be 30 46 72 3d e0 ac 9a bc
       -0.13473007 -0.19276032 0.059148967 -0.018881261
000070 c6 f1 06 be 80 e2 c9 3d 5e 3e 75 be b4 a3 af 3d
       -0.13178167 0.098576546 -0.23949572 0.08576146
000080 3e cf 8e 3e 4c 2f 9d 3e ed 22 c1 3d 37 80 b2 3e
       0.27892488 0.30700147 0.0943049 0.34863445
000090 5f 43 1b be e6 d8 b6 be 71 79 80 3e 1b ed 6d 3e
       -0.15162419 -0.35712355 0.25092652 0.2323498
0000a0 2c aa 20 3e 13 65 9a 3e 11 a8 f5 3d d7 96 33 3e
       0.15689915 0.30155239 0.11994947 0.1753801
0000b0 1f 99 27 be e9 58 6d 3d 63 96 86 3e bc 88 d3 3d
       -0.16367005 0.05794612 0.2628661 0.103288144
0000c0 1b 8e 95 bd bc c2 d7 3e cb 98 f8 3d ec e7 8d 3b
       -0.07302495 0.42140758 0.12138518 0.0043306258
0000d0 f5 1a 8f 3e 92 25 91 bc 50 82 1c 3e 18 bf 35 3e
       0.27950254 -0.01771811 0.15284085 0.17748678
0000e0 b3 65 25 3d 46 86 c9 3d 55 21 06 3f bb f7 fb bc
       0.04038019 0.09840064 0.5239461 -0.030757776
0000f0 5f e3 ac 3e fb 9b e4 3e cd 6b f3 3e 57 41 18 3e
       0.3376722 0.44650254 0.47543183 0.14868675

bias_hh_l1 f4 [64]
000000 fe df 84 3d ae 84 bd 3e ac af 75 bd 04 2f 59 3e
       0.064880356 0.3701529 -0.059981987 0.21209341
000010 b4 54 91 bd 36 ca 0e bd e4 53 6a 3e 4d f2 fc 3c
       -0.07096234 -0.034860812 0.22883564 0.030877257
000020 72 55 90 bd ea 5c 46 3e 36 5c 76 3e 88 d3 84 3e
       -0.070475474 0.19371381 0.24058613 0.25942636
000030 93 fa cd 3e ae 58 d3 3e 4d 42 e1 3e f9 d6 8c 3d
       0.40230235 0.41278595 0.43995896 0.0687694
000040 e8 64 1a bd d0 a6 17 3d 44 f7 b4 bd c0 89 29 3e
       -0.037693888 0.03702432 -0.08836225 0.16556454
000050 76 47 2c be 6a 0f 53 be d6 40 3b 3e c8 f1 70 be
       -0.16824135 -0.20611349 0.18286452 -0.23529732
000060 44 e4 6b 3e 0a 1a 55 be 58 bd 04 3d a4 26 62 be
       0.23036295 -0.20810714 0.032407135 -0.22085053
000070 38 2e 5f 3e b0 05 a9 bc b0 ae e3 3c 20 62 6d be
       0.21794975 -0.020632595 0.027793258 -0.23181963
000080 0c 54 98 3e 5f ea 49 3e d6 4f 7b be 8f 69 df 3d
       0.29751623 0.19718312 -0.24542174 0.109088056
000090 0e 65 41 be 45 6e a5 be 8a 7e 9e 3d 91 50 b6 3e
       -0.18886206 -0.3231069 0.07738979 0.35608342
0000a0 54 e3 62 be 9d c5 9f bd 7b 61 b9 3d 2d 00 7d 3d
       -0.22157031 -0.078013636 0.09051796 0.061767746
0000b0 53 04 17 be 71 89 82 3d 89 99 d2 3c 86 ed 21 3d
       -0.14747743 0.06373871 0.025707977 0.03953316
0000c0 81 62 53 3e 95 a3 a1 3e 8f ed cd bd a6 52 c9 3e
       0.20643045 0.31570116 -0.10055076 0.39320868
0000d0 c0 08 f4 3d 26 e4 79 3e 2f e7 b2 3e d4 c2 7d 3e
       0.119157314 0.24403438 0.34942004 0.24781352
0000e0 4f 2b 97 3e 58 a3 0f 3e ef 5b f6 3e 25 74 b9 3e
       0.2952523 0.14027154 0.48117015 0.36221424
0000f0 a8 d0 29 bd 84 84 29 3e c9 8c b8 3e f1 43 c8 3b
       -0.041458756 0.16554457 0.3604491 0.006111615

weight_ih_l2 f4 [64, 16]
000000 b2 ea 07 3c 46 c4 ac 3e 62 c7 40 be a9 35 77 3e
       0.008295702 0.33743495 -0.18826059 0.24141563
000010 ee 9a 49 be aa b7 d5 be 4a 42 4e 3e 1a 38 91 3e
       -0.19688007 -0.41741687 0.20142475 0.28363115
000020 4c eb dd be b4 6d 05 3d fc 02 ac be df 27 e4 3e
       -0.4334358 0.032575324 -0.33596027 0.4456167
000030 27 c9 d4 be 64 26 a6 be b7 53 b0 3d 11 cb 24 3e
       -0.41559717 -0.32451165 0.08609717 0.16093089
000040 43 ca bf 3e dd e6 ed 3e e1 84 c0 be 70 6b 61 3c
       0.37459 0.46465197 -0.3760138 0.013758525
000050 66 e5 97 be 1b 83 08 3d b4 e7 98 3d 62 48 b4 3e
       -0.29667205 0.033328157 0.07466069 0.35211474
000060 e5 f6 4b be d5 cf d8 3e bd 05 cd be 9b 88 29 3e
       -0.19918402 0.42346063 -0.4004344 0.16556017
000070 4d 0b 2c be 2c 58 9c be 06 83 d0 3e 1b 02 d8 3e
       -0.16801186 -0.3053602 0.40724963 0.42189106
000080 96 4d 91 3d bd e1 93 3e d3 4c 79 bb 48 4a 8a 3e
       0.070948765 0.28883162 -0.0038040176 0.27009797
000090 68 f3 c8 be 98 b2 cf be 40 78 1f 3d 0e 29 9d 3d
       -0.39248204 -0.40565944 0.03893304 0.07673846
0000a0 5c a0 8e be bd ba 73 3e 76 66 b0 bc 24 4a 4b 3e
       -0.2785672 0.23801704 -0.021533232 0.19852501
0000b0 13 14 b5 bd 5f ab 67 be 50 30 80 bd e8 6d 1c 3e
       -0.088417195 -0.22623967 -0.06259215 0.15276301
0000c0 ff eb 74 3c 6d a3 91 3d c5 09 c9 bc 84 ac e5 bc
       0.014948844 0.07111249 -0.024540791 -0.028036363
0000d0 54 f2 5d be fc 9d 01 3d 0c bd 75 3e 09 0c 30 3e
       -0.21674472 0.031644806 0.23997897 0.17192091
0000e0 51 8f 89 be b3 79 86 3d 47 70 d3 be d8 19 3d 3e
       -0.26867154 0.06566181 -0.41296598 0.1846689
0000f0 26 cf 4c be 4e a2 c7 be 7f 60 e7 3b 74 2c 62 3e
       -0.20000896 -0.38991016 0.007061064 0.2208727
000100 52 f2 6f 3e 48 af b4 3c ca fa 1f be 8b 5b 1e 3e
       0.23432282 0.022056237 -0.15623012 0.15464608
000110 6b d1 c2 bd 73 d4 95 be 4d b4 e5 3e fb 87 80 3e
       -0.095125996 -0.29263648 0.4486412 0.25103745
000120 5d d2 ad be 2d fe 81 3e 08 89 4b be c9 a4 d9 3d
       -0.33949557 0.25389233 -0.19876492 0.106271334
000130 54 e6 aa be d6 65 b8 be e3 82 da 3e d7 39 74 3e
       -0.3337885 -0.36015195 0.42677984 0.23850189
000140 5b 52 49 3e 8e 38 42 3e 2b 78 85 be 00 e0 bf 3d
       0.19660322 0.18966886 -0.26068243 0.093688965
000150 df 9c ed 3d 90 cf ca be 15 85 53 bd ac 62 21 3d
       0.116021864 -0.39611483 -0.05164059 0.03940074
000160 57 e5 36 be 2c be 5c 3e 48 3e 2a 3e ed 12 1d bc
       -0.17860924 0.2155692 0.16625321 -0.009587032
000170 ed 6e 5e be 42 87 6e 3d c9 78 1d 3e 67 6f 85 bd
       -0.21722002 0.05823446 0.15378107 -0.06515389
000180 3f f0 8d 3c 0d c4 cb 3e 0e 3e d5 be f7 3a b5 3d
       0.017326472 0.39798012 -0.41648906 0.08849137
000190 bc 3e 1c be a1 1d 1a bb cf 0f ae 3d 64 53 ce 3e
       -0.15258306 -0.0023516195 0.08499109 0.40297997
0001a0 35 5d 37 be 6c 76 87 3e 98 14 4e 3d c7 c5 d2 3e
       -0.1790665 0.26457536 0.05031261 0.41166517
0001b0 a7 43 7b be 29 01 a7 be f1 ff 66 3e de 3e bf 3e
       -0.24537526 -0.32618073 0.22558571 0.3735265
0001c0 65 85 bc 3e d3 ed 8e 3e 39 0b 3c be 6a 9a 3f 3e
       0.36820522 0.2791582 -0.18363656 0.18711248
0001d0 d1 60 c5 3d 59 84 8c be eb 51 11 bd 7a 57 4e 3e
       0.09637607 -0.27444723 -0.035478514 0.20150557
0001e0 83 af ed 3d 7c b9 06 3d 7a 5b 79 3e 9f 04 2f 3e
       0.11605742 0.032891735 0.24351302 0.17091607
0001f0 a7 63 ca 3b 04 b4 92 be 50 f5 29 3e 86 a9 43 3d
       0.0061764303 -0.28652966 0.16597486 0.047769092
000200 48 bf 00 3c f2 b3 70 3c b5 87 9c be e9 71 81 3e
       0.007858105 0.01469134 -0.30572286 0.2528222
000210 16 91 b4 be 13 4e 65 bd bf ec a6 3d 14 f1 b8 3d
       -0.35266942 -0.05598266 0.081506245 0.09030357
000220 bb 2e c1 bd da ae bc 3e eb ef 32 bc cb 7f 4d 3d
       -0.09432741 0.3685215 -0.010921459 0.0501707
000230 c6 67 0c be 35 23 ad be 25 9f 60 3d 9b 2d e4 3e
       -0.13711461 -0.33815923 0.054839272 0.44566044
000240 47 36 83 bc e3 cd b0 3e 24 0d 63 be 5f 51 01 be
       -0.016017092 0.3453208 -0.22172982 -0.12628697
000250 ef 7b 80 be 79 da 29 ba 9d 3d 6d bd 26 82 e2 bd
       -0.25094554 -0.00064793933 -0.057920087 -0.1105998
000260 84 ce bd bd 57 55 12 bc a6 e9 73 3e 7d 00 1e be
       -0.09267905 -0.008931479 0.23819599 -0.15429874
000270 df 20 40 be 60 bc ac 3d 90 26 54 3e 1a 8f 12 3e
       -0.1876254 0.08434367 0.20717835 0.14312401
000280 14 fd d1 3e d0 c0 26 3e a9 35 41 be b1 8b a5 3e
       0.41013396 0.1628449 -0.18868126 0.3233314
000290 5c 0a 11 be 5a d1 43 be 87 82 1f 3c 61 b6 12 3e
       -0.14164108 -0.1912283 0.00973571 0.14327385
0002a0 a2 27 a4 be 82 4c 8f 3d 67 d6 1c bd 03 5c 54 3e
       -0.32061487 0.069970146 -0.038290408 0.20738225
0002b0 f5 b2 d0 be d4 93 ec be 14 95 de 3e d9 e4 ef 3e
       -0.40761533 -0.46206534 0.43473113 0.46854284
0002c0 d8 a7 82 3e 74 97 a8 3e 6b d2 b5 bd 87 23 1b bd
       0.2551868 0.3292805 -0.08878025 -0.03787568
0002d0 b4 f1 de bc 5d 7e c6 be be 43 00 be 44 58 cb ba
       -0.027214862 -0.38768283 -0.12525842 -0.0015513976
0002e0 ae b7 e0 3b af fe 21 bd c5 bd 9c 3e 1b 30 e9 bd
       0.006857834 -0.039549526 0.30613533 -0.113861285
0002f0 6b 99 df bd 32 d6 e3 3d 07 7b bf 3e 90 8b 29 3e
       -0.10917934 0.11124839 0.3739855 0.16557145
000300 70 0f 22 3e 23 c8 64 3e a7 e3 07 bf b3 99 10 3e
       0.15826201 0.22341971 -0.53081745 0.14121132
000310 92 a8 cc bd 7c b3 e4 bd c6 79 ad 3e 84 95 a0 3e
       -0.0999309 -0.111670464 0.33881968 0.3136407
000320 02 f8 c5 bd 75 35 de 3e 5b 18 c5 bd 52 2a 9d 3e
       -0.09666444 0.4340016 -0.09623786 0.3069635
000330 a1 9e e7 be 2b a3 43 bb 80 ce 91 3e 00 2c d2 3d
       -0.45238212 -0.0029851894 0.2847786 0.102622986
000340 dc 39 1b 3d 6b 25 d9 3e db 85 81 be c4 3a 70 3e
       0.037896976 0.4241136 -0.25297436 0.23459917
000350 de 42 6a bd 92 e1 58 bc 51 0a 4f 3d a2 f5 bf 3e
       -0.057192676 -0.013237374 0.050546948 0.3749209
000360 76 d3 87 be 09 d1 61 3d 75 17 8d be d7 be 8a bc
       -0.2652852 0.055130992 -0.2755696 -0.016936703
000370 1c 24 03 be 11 a5 82 be 77 20 e2 3c b8 54 45 3e
       -0.12806743 -0.2551656 0.027603371 0.19270599
000380 2f 93 cc bd 44 2e 9a 3e 65 22 8b 3e b9 dd 06 be
       -0.099890105 0.30113423 0.27174678 -0.13170518
000390 6e eb 87 3d fb 93 e1 bd d9 5d e4 39 b9 6b a4 3c
       0.066367015 -0.11014553 0.0004355747 0.020070897
0003a0 32 6c 0a 3d dd 40 50 3e da 73 83 3e 36 e0 db bc
       0.03379459 0.20337243 0.25674325 -0.02684031
0003b0 bf 90 90 3e e8 53 c8 3e 68 91 8e 3e 3f ff 3d bd
       0.28235433 0.39126515 0.2784531 -0.046386
0003c0 c2 98 9a 3d a9 f4 32 3e 6b 24 b8 bd 4e 56 f7 3e
       0.075486675 0.17476143 -0.08991321 0.48308033
0003d0 02 63 25 be 33 9b 29 be a0 1e 01 3f f7 cc 51 3e
       -0.1615105 -0.1656311 0.50437355 0.20488344
0003e0 5e 48 94 be 9b 92 2f 3e 45 81 e3 be e1 1b 6c 3e
       -0.28961462 0.1714577 -0.44434562 0.2305751
0003f0 48 64 7b be 31 1a c2 be bb 35 84 3e 19 5e ef 3e
       -0.24549973 -0.37910607 0.25822243 0.46751478

weight_hh_l2 f4 [64, 16]
000000 58 05 20 3d b8 81 9f 3d ca 47 11 be 0e 91 10 3e
       0.039067596 0.07788414 -0.14187542 0.14117834
000010 a8 cf dc 3d 2c 71 f9 bd 28 49 a5 bd 16 c5 66 3e
       0.10781795 -0.12179789 -0.08070594 0.2253612
000020 a0 2c 4b 3d 92 0e 00 3e a0 62 19 3c ee 85 7f 3e
       0.049603105 0.12505558 0.009361893 0.24953434
000030 10 08 1a 3e ea 6c 26 3e 4c 16 db 3d fe dc 3f 3e
       0.15042138 0.16252485 0.10697612 0.18736646
000040 6e 23 25 3e c0 4c 9b bb 38 28 02 bd b8 6f 42 bd
       0.16126797 -0.004739374 -0.031776637 -0.047469825
000050 50 fa 43 3e 90 fe ed 3d d0 38 fb bd e0 06 9f bc
       0.19138455 0.116208196 -0.122666955 -0.019412458
000060 18 e0 d9 3d 66 8d 55 3e 4a 32 5b 3e 7e 2a 06 3e
       0.106384456 0.2085472 0.21405903 0.13102147
000070 76 b8 6b be f2 ab 0b be f4 97 eb bd 58 b8 74 3d
       -0.23019585 -0.1363981 -0.11503592 0.059746116
000080 52 fd 52 be 60 d2 7b be 0e 18 52 3e b6 b6 72 3e
       -0.20604447 -0.2459197 0.20516989 0.23702511
000090 98 a4 29 bd f4 5e 3f 3e 3e 0c 1d be b8 14 32 be
       -0.041416734 0.18688565 -0.15336701 -0.17390716
0000a0 34 02 6f be 02 68 3e be 86 f9 17 be 04 e6 33 3e
       -0.23340684 -0.18594363 -0.1484128 0.17568213
0000b0 f6 08 37 be c8 25 b7 bd 00 9d 3b bc dc bc 9f bd
       -0.17874512 -0.08942753 -0.011451006 -0.07799694
0000c0 24 d6 7a 3e e6 bf 32 be 3e 28 4f 3e 00 71 e6 3c
       0.2449575 -0.17456016 0.20230195 0.028130054
0000d0 dc 18 dc 3d b0 10 28 bd a2 76 1c be 58 11 14 3e
       0.10746929 -0.04103154 -0.1527963 0.14459741
0000e0 c0 13 81 3d 00 16 1e ba 8a f5 2e be 74 d1 36 be
       0.06302595 -0.00060305 -0.17085853 -0.17853338
0000f0 bc 5e 79 be bc b6 90 3d b4 c2 23 3e 64 b8 31 3e
       -0.24352545 0.07066104 0.15992242 0.17355496
000100 98 e8 6a be 40 3e a8 3d a0 23 0b bc 80 4e cc 3b
       -0.2294029 0.08214998 -0.00849238 0.006234944
000110 40 d4 c3 3b 5a ce 75 3e 38 ed a9 bd 0a ed 49 3e
       0.00597623 0.24004498 -0.08297199 0.1971933
000120 0e ec 47 3e 90 a0 7a 3d 82 bc 64 be 22 9d 24 3e
       0.19523641 0.06118828 -0.22337535 0.16075566
000130 d2 0b 5c 3e 6e c8 76 be b8 67 61 bd 90 37 8c 3d
       0.21488884 -0.24099895 -0.055030555 0.06846535
000140 20 c0 04 3e 06 d7 3a be 5e 91 0e be 58 31 32 3e
       0.12963915 -0.18246087 -0.1392264 0.17401636
000150 0c 7b a7 3d 50 ee 93 bd 14 3a 07 3e 08 7d af bd
       0.08177766 -0.07223189 0.13205749 -0.0856877
000160 40 b0 31 bc d0 7a df bc f4 a4 54 3e 80 44 ef 3c
       -0.010845244 -0.027280241 0.2076605 0.029207468
000170 68 17 fa 3d 54 91 2f be 48 46 0d be 80 c0 b3 bb
       0.12211496 -0.17145282 -0.13796341 -0.0054855943
000180 b0 ba da bc 12 62 73 3e 12 15 02 be 0c 87 79 3e
       -0.026700348 0.2376788 -0.1270335 0.24367923
000190 00 62 69 3a dc 00 d4 3d 70 06 43 bd a0 38 1b bd
       0.0008902848 0.103517264 -0.04761356 -0.0378958
0001a0 60 60 98 bc 68 95 00 3d b4 9f 04 be 86 fb 5b 3e
       -0.018600643 0.031392485 -0.12951547 0.21482667
0001b0 b8 bd e0 bd 00 6a 98 bb a0 7a e8 bd d6 98 11 3e
       -0.10973686 -0.004651308 -0.11351514 0.14218459
0001c0 4c 10 c9 bd 18 8a 0b bd ac 8e 44 3e 80 19 27 3e
       -0.098175615 -0.034067243 0.1919505 0.16318321
0001d0 70 58 3a be 80 08 a8 3b e4 29 10 3e 54 45 96 3d
       -0.18197799 0.0051279664 0.1407848 0.07337442
0001e0 7c 95 cf 3d fc cc 24 3e 20 08 26 bc b8 c7 3b bd
       0.10135934 0.1609382 -0.010133773 -0.045844764
0001f0 c0 7e 78 bc 9e db 3f be e4 d3 bb bd 54 68 fd bd
       -0.015166938 -0.18736121 -0.09171274 -0.12373415
000200 40 56 32 be fe 69 75 3e e2 17 12 be 08 88 51 be
       -0.17415714 0.23966214 -0.14266923 -0.20462048
000210 18 87 14 bd c4 ed 48 3e c8 79 82 bd 7a a9 29 be
       -0.036261648 0.1962195 -0.06370884 -0.16568556
000220 c0 78 01 be 14 0b 71 be 36 ec 77 be 3c 0e cb bd
       -0.12643719 -0.23539382 -0.24211201 -0.09914824
000230 18 35 04 be d0 d5 7a be 58 f9 21 3d 10 07 ae 3c
       -0.12910879 -0.24495625 0.039544433 0.021243602
000240 24 c2 84 bd 20 58 66 bd b4 d8 cb bd a0 f4 77 3d
       -0.06482342 -0.056236386 -0.09953442 0.060536027
000250 7c 7c 0f 3e 86 36 36 be e0 1e 8a bd 44 1b cd 3d
       0.14012331 -0.17794237 -0.0674417 0.10014966
000260 f8 be b0 3d 78 9a 53 be e4 13 68 3e 94 98 31 3e
       0.086301744 -0.20664394 0.22663838 0.1734336
000270 d0 fe 47 bd 50 ed 94 3d f8 0b b8 3d 7c 72 80 bd
       -0.048826993 0.07271826 0.08986658 -0.06271836
000280 78 82 32 3d d8 a1 6b be ce 2b 1e be 00 39 b6 bb
       0.043581456 -0.23010957 -0.15446398 -0.005560994
000290 d0 fa a3 bc 68 00 a7 3d 50 4e c4 3c a4 5e f0 bd
       -0.020017058 0.08154374 0.023963124 -0.11736801
0002a0 64 27 ef bd 94 e8 d2 3d 00 07 28 3d 84 58 4f 3e
       -0.11677435 0.10298267 0.0410223 0.2024861
0002b0 d4 8b 27 3e 30 d6 81 bc 08 86 39 3d c0 ff 95 bb
       0.16361934 -0.015849203 0.045293838 -0.004577607
0002c0 f0 16 2c bd d0 e4 23 3e 7e 9b 16 3e 20 16 fa 3d
       -0.042014062 0.16005254 0.14707753 0.12211251
0002d0 7e 5e 04 be 54 e8 74 be ce 40 7a 3e 46 ca 5b be
       -0.12926671 -0.23916751 0.24438784 -0.2146388
0002e0 84 e3 8d bd ac 75 06 3e 80 24 bf bb 60 c5 88 3c
       -0.06928161 0.13130826 -0.0058332086 0.016695678
0002f0 d6 87 6f 3e 2e b4 44 3e a0 00 4a 3c 24 78 18 be
       0.23391661 0.19209358 0.012329251 -0.1488958
000300 5c 1b c6 bd c0 f1 b1 bb a8 b1 af 3d 2a 60 71 be
       -0.09673187 -0.00543043 0.08578807 -0.2357184
000310 2c 16 85 3d 14 ca 50 3e 00 78 6d bc 58 43 28 bd
       0.064983696 0.20389587 -0.014493942 -0.04107985
000320 e4 6b 27 3e 1c bc 58 be f2 87 59 be 50 9b 65 3d
       0.16349751 -0.21165508 -0.21243265 0.05605632
000330 40 16 eb 3c e8 44 33 be 92 71 03 3e d0 93 33 be
       0.028697133 -0.17506754 0.12836292 -0.17536855
000340 76 7f 31 3e 9a 63 34 3e 7c 22 1b 3e 10 17 0b bd
       0.17333779 0.1761612 0.15149873 -0.03395754
000350 ec 02 c3 3d 70 64 d4 3c 7e f1 06 be 54 e0 15 be
       0.09522042 0.025926799 -0.1317806 -0.14636356
000360 f4 07 c5 3d d8 20 6c 3d f8 82 7f 3d a4 be 7d be
       0.096206576 0.05764851 0.06238076 -0.24779755
000370 42 05 71 be 60 a8 23 3c 00 77 72 bb 68 2c 5e 3e
       -0.23537162 0.009988874 -0.00369972 0.21696627
000380 a0 59 4b be 50 ac 8d 3d 74 37 62 be ec 28 5a be
       -0.19858408 0.069176316 -0.22091466 -0.21304673
000390 e8 71 13 be 4c 4e ff bd 98 3d 22 3d 34 2b f4 3d
       -0.1439892 -0.12466106 0.03960952 0.11922303
0003a0 8e 1e 42 3e 58 42 3b bd ea 45 4b be 4c 4d 88 bd
       0.18956968 -0.045717567 -0.19850889 -0.06655368
0003b0 32 c3 26 be d0 dc c4 3c 30 7a bf 3c 90 be 75 bd
       -0.16285399 0.024031073 0.023373693 -0.059996188
0003c0 a0 57 1f bd 24 78 4e be e6 10 6f 3e b0 3b 14 3e
       -0.038901925 -0.20163018 0.2334629 0.14475894
0003d0 90 74 3e 3d ee ed 32 3e 48 15 11 3d 82 70 62 be
       0.04649788 0.17473575 0.035420686 -0.22113231
0003e0 c4 e1 ff bd 20 4e 33 3e e8 eb 78 be c0 db 4f 3c
       -0.12494233 0.17510271 -0.24308741 0.01268667
0003f0 20 dd 01 3e c4 3e c0 3d 70 d2 03 3d e8 6b ca 3d
       0.12682009 0.093869716 0.03218311 0.09883863
