Temperature/data/model.pt (torch, 14703 bytes, 8 tensors)

weight f4 [25, 5]
00000000: e475 bfbe e0df 01bc 6425 b1bd 6cf8 d0bd
00000010: 14a0 ae3e c848 b13e 3dff 313e 7a9e 6d3c
00000020: 2bb2 883e 4598 63be 774a 22be 216d 8e3d
00000030: 3421 babe 081e 013e 7e97 4e3e 0f84 dd3e
00000040: 38da bf3e ad31 4bbe c1ec b03e 0e48 c33e
00000050: 6986 b13e 7de1 6cbe 9871 c5bd 7bce 68be
00000060: 7e88 da3e c4a3 d03e 5777 993e 741e f3bc
00000070: 83f9 86be 1865 49be 809a c8bd 4f28 cc3d
00000080: bd81 0a3d 7578 e43e aa2e d3bd 7954 d53e
00000090: 14db ad3e 40bb 403e e938 6f3d 2cbd 03be
000000a0: 9014 c4be f6a7 77bd 490b 833e 26b9 bb3e
000000b0: 2c8c e4be d577 d9be e30f 45bc 1fbc 8dbe
000000c0: cb6d 1fbd e805 963d dbfb dc3e 9daf 93be
000000d0: 07dc 37be db99 ba3e 1f43 a63e b0fc a93e
000000e0: b3a3 d9be ca47 123e 9e4b d13e e548 e2bb
000000f0: d05b 3a3e 7222 9abe 8fc6 27be 0af7 82be
00000100: 0143 773e f618 ca3e 17ac 203e 0440 d3be
00000110: 64b9 01be b7fc d33d 50ac a9bd 8e9c 58be
00000120: 8ca0 97be 1fea d1be 4c9a 0cbe 0006 db3e
00000130: c4c8 abbe 591d 47be 308e 30bd 3155 6abe
00000140: 99fc 553e e576 bebe 8fd6 533e 5b63 a33e
00000150: e384 9c3e 37b7 c2be 6429 113e 7597 ee3e
00000160: 508c ac3e a9c3 b13e a7bd cbbe bca1 b4be
00000170: 36ea 8c3e eac4 db3e dda4 e93e afea 8c3e
00000180: d1b5 b23e f2ab b63e 15c4 453e d124 763e
00000190: 00a3 653b 9707 8ebe 04e7 9dbd 6091 48bd
000001a0: b4c1 6b3e d119 763e db0d 9cbe b281 fdbe
000001b0: 5937 9dbe de29 cf3d 1040 a53e a861 c8bd
000001c0: bff8 3cbe a96b 5a3e 56c4 d9be d271 3bbe
000001d0: 9aa4 0abe fc70 063e 9cc7 1c3e 6ee7 d0be
000001e0: 980f 8fbe 4b15 9b3e d763 ef3e b34c 633e
000001f0: f4ef ce3e
-0.3739463 -0.007926911 -0.0864971 -0.10203633 0.34106505 0.3462584 0.17382522 0.014503116
0.2669843 -0.22226055 -0.15848719 0.069544084 -0.36353457 0.12609112 0.20174977 0.43264815
0.37471175 -0.19843169 0.3455563 0.3814091 0.3467286 -0.23132892 -0.09640807 -0.22735016
0.4268226 0.40749943 0.29973862 -0.029677607 -0.26362237 -0.1966747 -0.097950935 0.09968626
0.033815134 0.4462315 -0.10311635 0.4166601 0.33956206 0.1882143 0.058403883 -0.12865132
-0.38296938 -0.060462914 0.25594547 0.36664695 -0.44638193 -0.42474237 -0.0120277135 -0.27682588
-0.038923066 0.07325345 0.431609 -0.2884492 -0.17955028 0.36445507 0.32473084 0.33200598
-0.42507705 0.14285198 0.40878004 -0.0069056624 0.18199086 -0.30104405 -0.16384338 -0.255791
0.24146654 0.3947217 0.15690647 -0.41259778 -0.12668377 0.10350936 -0.08284819 -0.21153471
-0.29614675 -0.40998933 -0.13730735 0.42778015 -0.3355161 -0.19444789 -0.04310435 -0.2288406
0.2089714 -0.37200084 0.20687316 0.3191174 0.30570135 -0.38030407 0.14175946 0.46599928
0.337008 0.3471959 -0.3979313 -0.35279644 0.2752244 0.4292367 0.45633593 0.275228
0.3490434 0.3567806 0.1931308 0.24037482 0.0035039783 -0.27740166 -0.07710078 -0.048966765
0.2302311 0.24033286 -0.3047932 -0.49513012 -0.3070629 0.101154074 0.32275438 -0.097842515
-0.18454264 0.21330132 -0.42532605 -0.18305138 -0.13539353 0.13129038 0.1531052 -0.40801567
-0.27941585 0.30289683 0.4675586 0.22197227 0.40417445

bias f4 [25]
00000000: d7b9 71be e60a 96be 3a80 dd3e c043 9a3e
00000010: 6bd9 aa3e ee53 2fbe 7ae7 373e a076 d7be
00000020: 6eb3 31be 0e24 233e 10d8 ac3e d1d9 59be
00000030: 9199 313e 220b d63e ca92 a1be cb76 123e
00000040: a0a9 833e 0400 90be fd91 933e 963d d6be
00000050: 5272 d2be e3ad bf3d 5c9e 82be fa5d bfbe
00000060: 156b 7ebd
-0.23606049 -0.2930519 0.43261892 0.30129814 0.33369002 -0.1712186 0.17959395 -0.4208269
-0.17353603 0.15931723 0.33758593 -0.21274497 0.17343737 0.4180537 -0.31557304 0.14303128
0.2571535 -0.28125012 0.28822318 -0.4184386 -0.41102844 0.09359338 -0.25511444 -0.37376386
-0.06211384

weight f4 [50, 25]
00000000: ea54 9cbd 6579 80bd 1080 543e a56e 84bd
00000010: ba1a c1bd 8b0f ef3d 0c3c 1cbd 5a10 bebd
00000020: 5313 a4bd f3da 17bc 1cea 41bd 0fb0 423e
00000030: daa9 653d 4128 8ebd 3084 7e3c 470a b93d
00000040: ed6e 74bd 9b82 4abe 3790 753d 2f27 57bd
00000050: f355 203e 727f 47bb 3cb5 afbd 61b7 2a3e
00000060: 684e d63d 15fe 0f3e 972c 533d 95d0 853d
00000070: eddb 6b3d ebaf a9bd f314 bc3c 6dd2 2bbe
00000080: 0b45 68be cc90 22be ceea 993d 80ef 353e
00000090: c41e 68bd 84a1 343e 9222 413e 9f97 493e
000000a0: aab7 2ebe 9094 48bd bb23 603d 4009 053e
000000b0: 0420 fc3d 663a a63d 433d 5cbe 640f 883a
000000c0: ad3b 18be 90d1 713d 5066 203c 5283 d43d
000000d0: 31fb 79bc 9cb1 123d 4b81 273e 60f3 ea3d
000000e0: f53f 47be d8c7 3dbe 96d3 e13d f183 66be
000000f0: 1de3 d2bd 429c 2a3e 9f38 21be 8294 683b
00000100: 16db 04be 793b e3bc a340 133e 8e9f 21be
00000110: a5f7 60bd d149 353d 9e9d 04be 50e0 143e
00000120: 89ba f2bd de6b e83d caa6 25be 7923 123e
00000130: 22df 043e 6365 263d 9037 f1bc 9c2c 1e3d
00000140: 5019 21be 9d72 a5bd cb7b 42be 3457 e8bd
00000150: 757c 71be 39b6 453e b69d 853d d763 06bd
00000160: 5c4a 01be cc1f 70bd 4a2c 9a3c 1ce3 8cbd
00000170: b4f9 ac3d e6b0 e1bd 0024 00bd 27ee 143e
00000180: 6f1a a7bd e553 af3c a4d4 8fbd 8e7c 443e
00000190: 1af6 f7bd 1217 a8bd b9f8 443e 7ddd 403e
000001a0: 0b8e 2b3d f5c4 743c 3336 59bd aae5 2dbe
000001b0: bc08 69bd 8a09 4bbe 7714 8fbd fb08 083e
000001c0: 287e c3bc a21b 1e3e c6f1 c73d 59f1 153d
000001d0: e4f2 1dbe 0afb 373e 9278 37be d853 be3d
000001e0: 68c7 dfbc 15ea d03d 15b5 41be f04c bbbc
000001f0: 0baf d83d 2024 2c3c 2a06 0b3e 4418 44bd
00000200: b64a d33c bf9c 2d3e a30d 4d3b f5c3 8abd
00000210: 3977 f23d b5b1 7d3e 7fe2 66be 8a8d d83d
00000220: 20e8 273e ca30 37be 6637 8e3d f075 b6bc
00000230: d0ec 0cba c396 2c3e d1c5 45be 4d6d d53d
00000240: 048c 2d3e 1970 303e 3f84 3ebd 6052 03be
00000250: d254 943d 5ba2 433e a9f3 473e 89f8 b1bd
00000260: 49e5 d9bd de6b 863d 2da6 09be b18e 11be
00000270: 3caf 463d 5373 1fbe e633 ae3d 6554 cfbd
00000280: 8b49 0a3b 08b9 debd b4e4 233e 7233 3f3e
00000290: b349 cebd cd6b 393e af8c 36be a51e b5bd
000002a0: 0be5 283e a97b 273e 0ffc 2dbe 7275 06be
000002b0: eccb 37be 39aa 4c3e 54c6 83bd 490b 0d3e
000002c0: 8494 033e 4b65 53bd 7031 093e 0e7a 05be
000002d0: 3f37 b13d 2b71 ecbd b602 e3bd d6e3 6bbe
000002e0: c1be 073b 98de 643d 1215 023e 8a5a c7bd
000002f0: 8c1e ffbd 685f bbbc 9646 143e 566a 13be
00000300: 8fc5 cbbd faea 123d 5075 4e3e 4da4 413e
00000310: db44 e23d 7f03 37be e731 2dbe b409 81bd
00000320: b070 d4bd 86ce ebbd f70a 10be b3d8 12be
00000330: 28ef b3bd 103e 32bd 0f04 3c3e 02d3 4b3e
00000340: 0ac3 e63d ad39 703e 0515 f73d 98a1 ca3c
00000350: 770c 9a3d ae91 213e 7a19 a2bd 13ac 4f3e
00000360: 395b 3d3e 926d 11be 5675 f5bc 6991 203e
00000370: 206f 1cbc e519 403d c651 0a3e c34d 2c3e
00000380: 6186 2f3d 7ad8 9c3d 1a0f 063d 4d36 08bd
00000390: cb71 35be 24b2 9e3d a552 b7bd 8d26 e4bd
000003a0: 0699 9c3d d5b9 efbd 754b e63d 887b fd3d
000003b0: e3e1 ddbc a1f1 043d 5893 cb3d e26b 913d
000003c0: 3507 f63d 1c21 c93d 7ad7 813d c735 54bc
000003d0: 1ecf 09be bec4 d43d 1e10 6f3c dd74 013d
000003e0: 1e93 a33d f4c8 f23d d62c df3d 961f 503d
000003f0: fcf3 213e cc86 b23d ed34 18be 89bd 933d
-0.076333836 -0.06273154 0.20751977 -0.06466416 -0.09428926 0.116728865 -0.038143203 -0.092804626
-0.08011498 -0.00926851 -0.047342405 0.19012474 0.056070186 -0.069412716 0.015534446 0.090351634
-0.0596761 -0.19776385 0.059951987 -0.052527603 0.15657787 -0.0030440954 -0.085794896 0.16671516
0.104641736 0.14061768 0.051556196 0.065339245 0.057582784 -0.08285507 0.022959208 -0.1677949
-0.22682588 -0.15875548 0.075154886 0.17767143 -0.056669965 0.17639738 0.18860844 0.19686745
-0.1706225 -0.048969805 0.054721575 0.1299181 0.12310794 0.08116607 -0.21507744 0.0010380563
-0.14866515 0.059037745 0.009790018 0.1037661 -0.015257643 0.035813913 0.16357915 0.11472201
-0.19457991 -0.18533266 0.11026685 -0.22511269 -0.10297225 0.1666117 -0.15744255 0.0035488908
-0.129742 -0.02773832 0.14380126 -0.15783522 -0.054923672 0.04425985 -0.12950751 0.14538693
-0.11851985 0.11348699 -0.16176906 0.14271344 0.12975743 0.040624034 -0.02944544 0.03861676
-0.15732312 -0.080785014 -0.18992536 -0.11344758 -0.23582633 0.19307794 0.065242216 -0.03281006
-0.12626022 -0.058624074 0.018819947 -0.06879255 0.084460646 -0.11020069 -0.031284332 0.14543973
-0.08159339 0.021402309 -0.0702298 0.19188139 -0.12107487 -0.08207525 0.19235505 0.18834491
0.04188351 0.014939536 -0.053030204 -0.16982141 -0.056893095 -0.19827858 -0.06986325 0.13284676
-0.023863867 0.15440229 0.097629115 0.03660712 -0.15424687 0.17966858 -0.17917088 0.09293336
-0.027316764 0.102008976 -0.18916734 -0.022863835 0.10580262 0.01050666 0.1357657 -0.047874704
0.02579246 0.16954325 0.0031288646 -0.06775657 0.11839146 0.24774821 -0.22547339 0.105738714
0.16397142 -0.17889705 0.0694416 -0.022273034 -0.0005375864 0.16854386 -0.19313742 0.10421238
0.16947943 0.17230262 -0.04651284 -0.12824392 0.07242741 0.19104902 0.19526543 -0.086899824
-0.10639436 0.06563543 -0.13442297 -0.14214589 0.04850696 -0.15571336 0.085059926 -0.10123519
0.0021100964 -0.10875136 0.16005212 0.18671969 -0.10072651 0.18107529 -0.17827104 -0.088437356
0.16493623 0.16355766 -0.16990684 -0.1313074 -0.17948884 0.1998681 -0.064343125 0.13773836
0.12849623 -0.051610272 0.13397765 -0.13034841 0.086531155 -0.115450226 -0.110845014 -0.23036131
0.0020713063 0.055876344 0.1270335 -0.09734066 -0.12456998 -0.022872642 0.14480051 -0.14396033
-0.09949791 0.035868622 0.20161939 0.18910332 0.110482894 -0.17872427 -0.16913567 -0.06300679
-0.10373056 -0.115140006 -0.14066683 -0.14340477 -0.0878585 -0.04351622 0.18360923 0.19904712
0.112676695 0.23459502 0.12064556 0.024735257 0.07521909 0.15778229 -0.079150155 0.20280485
0.1849183 -0.14201954 -0.029963177 0.1568047 -0.009547979 0.046899695 0.13507757 0.16826539
0.042852763 0.07658477 0.032729246 -0.03325491 -0.1771919 0.077488214 -0.0895131 -0.111401655
0.076463744 -0.117053665 0.11244861 0.12377077 -0.02708525 0.032456998 0.09940213 0.07100655
0.120130934 0.09820768 0.06339927 -0.012952275 -0.13457915 0.10389088 0.014591245 0.03160559
0.07987045 0.11854735 0.10897224 0.050811373 0.15815729 0.08717117 -0.1486394 0.07213885

bias f4 [50]
00000000: 2068 333e f824 abbb c9ba 66bb 9277 033d
00000010: eda0 8f3c 96db 5dbd 6f79 0b3e fd92 3e3e
00000020: dec9 98bd 86ba 003e fa0c 75bd 7322 323d
00000030: 474a f8bc a140 913d e27b 193e 552b 963d
00000040: 2d18 2ebe caf8 093c 83cc f5bd 9d61 f5bd
00000050: 1a9e 08bd 8220 75bd 2957 28be 5269 63bd
00000060: c411 303d f060 edbd d723 d1bd bb98 9c3d
00000070: 627a 043e 9886 ecbc f595 06be e5c7 b9bd
00000080: 9d05 523e 5e5d 5ebd 3945 28be 6b5b 1e3e
00000090: 0ce6 fdbd 3654 33be a547 b4bc 0406 c4bd
000000a0: c990 463e 9d83 0fbc fbfa 093e be17 fdbd
000000b0: 9f57 2f3c 0200 853d c27b ffbd b356 263e
000000c0: 5a56 b23d 4982 d8bd
0.1752019 -0.005222913 -0.0035206547 0.032096453 0.01753279 -0.05416449 0.13620542 0.18610759
-0.07460378 0.12571153 -0.05982683 0.043489885 -0.030308856 0.07092405 0.14988664 0.07332484
-0.1700141 0.008421132 -0.12001898 -0.11981509 -0.033353902 -0.059845455 -0.16439499 -0.055520363
0.042985693 -0.11590755 -0.10211914 0.076463185 0.1293731 -0.028872773 -0.13143142 -0.0907133
0.20509954 -0.05428826 -0.16432656 0.1546456 -0.123973936 -0.17512593 -0.022006819 -0.0957146
0.19391169 -0.008759406 0.13474648 -0.12358044 0.010702043 0.06494142 -0.12474777 0.1624401
0.087078765 -0.10571725

weight f4 [25, 50]
00000000: 76a2 f13d a92c 38bd 2485 ecbc f5a1 ca3d
00000010: faf2 883d e638 243d 5674 133e 8b6e 1fbb
00000020: 867d ee3c b432 893d 1965 14bd 0842 e6bd
00000030: f608 fe3d 6df0 e33d c836 013e c3d1 38bd
00000040: 3aca 06bd 8b71 02be 5c68 63bd 3d37 9a3d
00000050: c075 933d 0507 603c 6d0a 0abe 2576 02be
00000060: 95da 523d 8c40 79bb fbc1 b83d 2860 e23d
00000070: b0fd f8bd 0bf1 74bd 05c7 80bc bd28 3c3d
00000080: 7337 203d a0cb 7bbd 33e0 2a3d 79e6 a03d
00000090: 37dd df3d 0243 10be 33db 933d 6612 59bd
000000a0: 3027 963c 3a99 193d af32 83bd 2c3b 3dbd
000000b0: 63e0 b73d 7332 0f3c 7fa1 443d 55d6 abbb
000000c0: 21b2 0ebd f1b0 38bd ac76 ecbd d865 8a3d
000000d0: f46d e53d e6fa ce3c b2e8 0b3e 8468 d8bd
000000e0: 0f0b c53d ad49 8e3d 112c 93bc 1744 d4bd
000000f0: f4d1 8c3d 72c9 063d e72f 793d f744 c9bd
00000100: 735c 233c 1d7e fd3c cfd3 fd3d 406f a73c
00000110: 75ab 3bbd 6ea8 80bd 2a42 d33d 4a29 1dbe
00000120: a89c 86bd 530b 9c3d 1160 06be 6478 acbd
00000130: d6ae da3c fba0 f6bd 3350 253b 1f4c e73c
00000140: b494 97bd d18d a7bd f6e9 dabc 7dbd 92bc
00000150: bfcf 873d 0262 ce3d 16bf e3bd 033a b33d
00000160: 1775 3ebd 7731 1e3d 8ead 42bd 63e3 69bd
00000170: b8b9 a13d df71 98bd 9c36 b0bd f2d3 0cbd
00000180: 0674 0dbe f32e 96bc e2c8 9fbd 30e6 443c
00000190: 3254 99bd e29b f93d 5e69 c4bd 7651 b0bc
000001a0: c2d0 0d3e 637a 0c3e ba25 bcbc 549e 07be
000001b0: 3d86 ee3d 3ddc 813d 538f 8ebb 6ccd 3c3d
000001c0: 7385 cebc d836 b7bd 7ae9 97bd cdac dcbd
000001d0: d17a 79bc ce6c 8c3b 3d8c 91bd a182 f2bd
000001e0: 6781 dcb7 1087 d83d 5ca0 f43d 2e47 acbd
000001f0: 798a d83c 995b ca3b ed02 de3d bb9c d53d
00000200: 3f10 95bd 7574 a23d 1262 d5bd 8ac5 9fbd
00000210: 08bd 0cbe b6a9 ad3d 4760 08be 21b6 763b
00000220: 84a5 f33d 3cf5 fb3d 1d8b c13d 9447 003e
00000230: e516 e3bd 77a4 d03d 91ca 98bd 46c9 093e
00000240: b487 7fbc e745 863d b7b2 3abd a8f4 98bc
00000250: c02d 883d cbd7 d4bd a56f 253d c02c e0bd
00000260: 7824 1fbc c143 b63d 2666 513d f7c3 ccbc
00000270: 6bab d0bd dfd5 c03d c29f 193e df14 fdbc
00000280: 7de1 14bd a8c1 ccbd b709 85bd 7cef a83d
00000290: d728 923d bad1 07be 472d 06be a051 4c3b
000002a0: 3241 bfbc 27a4 a1bd a169 71bd 6746 87bd
000002b0: d497 04be f1bd fcbd 966a 7cbd d865 573c
000002c0: 93c0 f63d 1dbd 6ebd 9893 7abd 101e edbd
000002d0: 4b54 be3c 9ec3 a73c c0d9 ab3c bdfc edbd
000002e0: aa07 bd3c a46a 293d 2c6b eb3d 623b 06be
000002f0: 773f b7bd 0407 ab3b 947e 023e a319 2dbd
00000300: 0053 e93c 0810 063e f278 f73c 3feb 3ebd
00000310: 3ca7 bebd 9066 74bd 7a2a 8c3d b7e5 76bd
00000320: f04e 123e 6b9e aa3d e02c dd3d 58bd 003e
00000330: c3f1 f03c ae17 4fbd 11f1 5d3d c583 9f3d
00000340: 621a 7dbd eab1 0d3e 5c81 0cbe 8457 1abd
00000350: 43f8 32bd 4c51 ef3d 008a f13d 51e9 f03d
00000360: d2c6 0fbe d2cf 9ebd 5640 c43d e2ce 823a
00000370: edb1 9ebd c070 c83d 9af9 fabd 1ef9 d43d
00000380: 2419 f53d 7aa3 a8bd 33a5 d1bd 5fd4 0d3b
00000390: f205 51bc a9f7 e73d dc30 033e 4240 dd3d
000003a0: f50a b0bc 1da2 de3d 57f3 00bd 2846 98bd
000003b0: 2ccd 873d eab4 20bd 8bc9 b63d a7fa eebd
000003c0: 8f08 42bd 3571 01be ab8a babd 4470 73bd
000003d0: d4a8 0c3e 748e 0fbe eb79 e4bd 14ec 52bd
000003e0: 33e1 b23d bd66 9d3d 5682 a23d a70f d0bd
000003f0: 3539 19be 5487 86bd 8744 03be 3201 7ebc
0.11798565 -0.044964466 -0.02887208 0.09894172 0.06686969 0.040093325 0.14399847 -0.0024327363
0.029112589 0.06699124 -0.036229227 -0.11243063 0.12404053 0.11129842 0.12618554 -0.04512192
-0.032907702 -0.12738626 -0.055519447 0.07530067 0.072001934 0.013673549 -0.1348054 -0.12740381
0.051477987 -0.0038032858 0.09021374 0.110534966 -0.12157762 -0.05980019 -0.0157199 0.04593729
0.03911538 -0.06147349 0.04171772 0.07856459 0.10930865 -0.14088061 0.07219543 -0.05299606
0.018329233 0.037499644 -0.064061515 -0.04619901 0.08978345 0.008740055 0.048005577 -0.005244056
-0.034837846 -0.04509062 -0.11546072 0.067577064 0.112026125 0.025266122 0.13662985 -0.1056681
0.0962125 0.06947646 -0.017965348 -0.103645496 0.06875983 0.032906957 0.0608367 -0.09827607
0.009970772 0.030943925 0.12393915 0.02043879 -0.04581781 -0.062821254 0.10315354 -0.15347782
-0.065728486 0.076193474 -0.13122584 -0.084214 0.026694696 -0.12042423 0.0025224804 0.02823454
-0.0740141 -0.08181346 -0.02672289 -0.01791262 0.06631421 0.10077287 -0.11120431 0.08751299
-0.046498384 0.038621392 -0.047528796 -0.05710162 0.07896751 -0.07443594 -0.08604166 -0.034381814
-0.1381379 -0.018332934 -0.07801987 0.012017772 -0.07486762 0.121879354 -0.0959041 -0.021523219
0.13849166 0.13718562 -0.022967208 -0.13243991 0.11646698 0.06340835 -0.0043505817 0.046094343
-0.025210118 -0.089460075 -0.07417579 -0.10775147 -0.015227036 0.0042854315 -0.071068265 -0.11841322
-2.6286301e-05 0.10572636 0.119446486 -0.08412014 0.026433216 0.00617547 0.10840402 0.104302846
-0.07278489 0.07932369 -0.10419096 -0.078013495 -0.13743985 0.084796354 -0.13317977 0.0037645178
0.11896804 0.12302634 0.09450362 0.12527305 -0.11088351 0.10187619 -0.074605115 0.13455686
-0.015596319 0.065563016 -0.045580592 -0.018671349 0.06649351 -0.10392722 0.040389676 -0.109460354
-0.009713285 0.08899642 0.051122807 -0.024995787 -0.101889454 0.09415793 0.15002349 -0.030893741
-0.036347855 -0.099978745 -0.064959936 0.08248803 0.07136696 -0.13263598 -0.1310321 0.0031176582
-0.023346517 -0.07892638 -0.058938626 -0.06605225 -0.12948543 -0.12340916 -0.061625086 0.01314684
0.12048449 -0.05828582 -0.061175913 -0.115779996 0.023233553 0.02047902 0.020977855 -0.116204716
0.023074944 0.041361466 0.11495051 -0.1310859 -0.08947652 0.005219342 0.12743598 -0.042260777
0.02848196 0.13092053 0.030209038 -0.046611067 -0.09309241 -0.059668124 0.06844039 -0.060277667
0.14287925 0.08330997 0.10799575 0.12572229 0.029412156 -0.050559692 0.054184977 0.07788805
-0.06179274 0.138374 -0.13721222 -0.037681118 -0.043693792 0.11685428 0.117938995 0.117632516
-0.14040688 -0.07754482 0.095825836 0.0009979869 -0.077487804 0.0978713 -0.12254639 0.10399078
0.11967686 -0.08234306 -0.102365874 0.0021641476 -0.012757765 0.11326534 0.12811607 0.10803272
-0.0214896 0.108707644 -0.031482067 -0.07435256 0.0663093 -0.039235033 0.0892516 -0.11668902
-0.047371443 -0.12640841 -0.0910848 -0.059433237 0.13736278 -0.14019185 -0.111560665 -0.051494673
0.087343596 0.076856114 0.07935016 -0.101592354 -0.14963229 -0.065687805 -0.1281911 -0.015503215

bias f4 [25]
00000000: de28 09bd 8775 68bd 2263 a33c 96a3 4fbd
00000010: b54d fc3d 2bb6 cb3d 7d06 06be 7d0f 85bd
00000020: 0471 8d3d e34e 953c e06f 31bc b137 043c
00000030: ee51 d9bd 665e cebd 5f4f cd3d dac9 ccbd
00000040: 5fc1 0dbe 17e4 173c 3a89 bc3d 5499 023e
00000050: f610 a63d bc3a 413b e6e1 543d baa4 d0bd
00000060: bf4b 8d3c
-0.03348624 -0.056752708 0.019944731 -0.050693117 0.12319509 0.09946855 -0.13088413 -0.06497095
0.06906322 0.018226093 -0.010829896 0.0080699185 -0.1061133 -0.10076599 0.100249045 -0.09999438
-0.13843296 0.009270689 0.092058614 0.12753803 0.08108704 0.0029484471 0.051973246 -0.10187669
0.017248033

weight f4 [3, 25]
00000000: ce04 423d 0c9b a2bd 5e2d 87bd a59b 32bd
00000010: 95a6 0f3e 1c5c 823d 26a3 b13d f585 24bd
00000020: 06ad c4bd bdab d8bc a0f2 44bc b91e d33d
00000030: ef90 4c3e e0cf 0fbe 9d74 e23d 1153 0c3e
00000040: 619c 173e 023c 053c d75c 31be 4485 8abc
00000050: d471 9fbd 77dc b23d 58a5 48bd 4c77 6bbd
00000060: e113 463e afb6 ce3c e04f b6bc b413 fd3d
00000070: cc7f 35be 87bd 8dbd d0c1 1dbe f48c 4cbd
00000080: 82eb 1c3e b325 abbd 8b8a 043e e215 8f3d
00000090: 071e fabd ea99 163e 7f1a 2b3e 77e7 d53d
000000a0: 5076 d0bd 0a4f 16be 127f 3e3e e3f9 733d
000000b0: 112c c83d fdc8 1ebb 2410 b9bc 951f 2b3e
000000c0: 14b6 21bd c626 45bd 6056 5cbd 8e5a 35be
000000d0: 3341 883d a543 0fbe 324c 94bd e3ce cdbd
000000e0: 20c7 2dbc cb6a 173e 5512 fabc 9721 ff3d
000000f0: 928d 0cbe d981 37be 5387 a03d 6a65 303e
00000100: 785e eabd e4eb 573d 871e 44be 4b94 e2bd
00000110: 4f0b f13d bcfe 15be 0b67 2ebe 69b4 5dbd
00000120: 9f0b 153e 27b4 ddbd 00dd 31be
0.047367863 -0.07939729 -0.0660045 -0.043605465 0.1402839 0.06365225 0.08673696 -0.040166814
-0.09603314 -0.026449079 -0.012020737 0.10308594 0.19977163 -0.14044142 0.110573985 0.13703562
0.14805748 0.008131983 -0.17320572 -0.01690925 -0.07785383 0.087334566 -0.04898581 -0.057486817
0.1934352 0.025233595 -0.022254884 0.12357274 -0.17724532 -0.06920915 -0.15405965 -0.04993911
0.15324214 -0.083568 0.12943475 0.06986596 -0.122127585 0.14707151 0.16709326 0.10444539
-0.10178816 -0.14678589 0.18603161 0.059564482 0.0977403 -0.0024228685 -0.022590704 0.16711266
-0.039480284 -0.04813268 -0.05379331 -0.17710325 0.06653061 -0.13990648 -0.072410956 -0.10049226
-0.010606557 0.14786832 -0.03052632 0.12457579 -0.1372588 -0.17920627 0.07838311 0.17226186
-0.114438 0.052715197 -0.1915227 -0.11063441 0.11769735 -0.14647955 -0.17031495 -0.05412713
0.14555214 -0.10825377 -0.17369461

bias f4 [3]
00000000: 5dbe aebd 8de4 223c 7404 d53d
-0.08532403 0.009942186 0.1040124
