Temperature_with_LSTM/data/model.pt (torch, 91527 bytes, 14 tensors)

weight_ih_l0 f4 [128, 5]
0	0x3955531d	0.00020344225
1	0x3cdfd31d	0.027322346
2	0xbc0a5687	-0.008443481
3	0x3dbaee44	0.09127477
4	0x3ea0f50f	0.31436965
5	0x3e806e4c	0.2508415
6	0x3e95e805	0.2927858
7	0x3e631f6a	0.22179952
8	0x3d85080b	0.06495675
9	0x3e565f36	0.20934758
10	0x3dfba5e9	0.12287504
11	0x3e215c06	0.1575776
12	0x3e7ce367	0.24696122
13	0x3d709f10	0.058745444
14	0x3de75049	0.1129461
15	0x3e64ae40	0.22332096
16	0x3e636bac	0.22209042
17	0x3df1cd11	0.118066914
18	0xb98e9d88	-0.0002720172
19	0x3e126080	0.14294624
20	0xbcf84590	-0.030306607
21	0x3e37a4b3	0.17933922
22	0xbc451a3d	-0.0120301815
23	0xbd967f2a	-0.07348473
24	0x3db3f69b	0.08787271
25	0x3d80ba0c	0.062854856
26	0x3d95f3f1	0.07321919
27	0xbdfc733a	-0.12326665
28	0x3d7f458d	0.06232219
29	0x3e1dc0aa	0.15405527
30	0x3df45a77	0.11931317
31	0x3d14649d	0.036228765
32	0x3ea4f767	0.32220003
33	0x3dc28647	0.094982676
34	0x3db3b5ba	0.08774896
35	0x3e4333ed	0.19062777
36	0x3e192d8d	0.14958782
37	0x3c87c2a7	0.01657231
38	0x3cc2f779	0.023799645
39	0x3c7fad36	0.015605262
40	0x3e583f20	0.2111783
41	0x3dde9212	0.108677045
42	0x3e26d7e0	0.16293287
43	0x3d84bc77	0.06481259
44	0xbe0c6f6d	-0.1371438
45	0x3d505767	0.050864603
46	0x3e8e9a7f	0.27852246
47	0xbe268d96	-0.16264948
48	0xbd88d884	-0.06681922
49	0x3df3ef39	0.119108625
50	0xbe02945d	-0.12751909
51	0x3d039c02	0.032131203
52	0xbd1449cd	-0.036203194
53	0xbe1730cd	-0.1476471
54	0x3d9cd02f	0.07656895
55	0x3e66eb32	0.22550657
56	0x3dc3d824	0.0956271
57	0xbdeb509b	-0.11489984
58	0xbcb2ae62	-0.021811668
59	0x3eae7a0e	0.34077495
60	0xbe055f2b	-0.13024585
61	0xbc9776f5	-0.01848934
62	0x3df3a745	0.118971385
63	0x3e2840e8	0.1643101
64	0x3e2431ce	0.16034624
65	0x3ea2d926	0.31806296
66	0x3e27bfd9	0.16381778
67	0x3e432887	0.19058429
68	0x3ea6045d	0.32425204
69	0x3eacbd94	0.33738387
70	0x3db388d4	0.08766332
71	0x3d2cfcf3	0.04223342
72	0x3da5e5d3	0.08100476
73	0x3e6a2804	0.22866827
74	0x3eb17883	0.34662256
75	0x3d9557c8	0.072921336
76	0xbd33fba0	-0.04394114
77	0x3ab7a355	0.0014010469
78	0x3e04ee42	0.12981513
79	0x3dacf1b5	0.084445395
80	0x3d032bc9	0.03202418
81	0x3e42a3ce	0.19007799
82	0x3e578d5a	0.21050015
83	0x3d7459ca	0.059655942
84	0x3eb27099	0.3485153
85	0x3e782165	0.24231489
86	0x3e8a86bc	0.2705592
87	0xbd8dcbb4	-0.06923619
88	0x3e1f8e3b	0.155816
89	0x3e12a8fa	0.14322272
90	0xbd1a7796	-0.037711702
91	0xbcac760e	-0.021052387
92	0x3c9b5a39	0.01896392
93	0x3dfff985	0.12498764
94	0x3d79b634	0.060964778
95	0x3ea55319	0.3228996
96	0x3e0e5fcc	0.13903731
97	0x3db2e533	0.087351225
98	0x3e98096f	0.29694697
99	0x3e91717d	0.28406897
100	0x3ec4828e	0.38380855
101	0x3de716b1	0.11283625
102	0x3e85329d	0.26015177
103	0x3e16f82c	0.14743108
104	0x3dbe628d	0.09296141
105	0x3e6d19c0	0.23154354
106	0x3c8c3aa9	0.017117815
107	0x3ea1711b	0.31531605
108	0xbd0daabe	-0.03458666
109	0x3cfb4f4a	0.030677456
110	0xbd754e94	-0.05988939
111	0x3e2fe5b3	0.17177467
112	0x3d54bd08	0.051938087
113	0xbd407e8a	-0.046995677
114	0x3debebd5	0.11519591
115	0xbdbbc14b	-0.09167727
116	0x3d9702f1	0.07373608
117	0xbe0ff7db	-0.14059393
118	0xbe25ccb1	-0.16191365
119	0x3e8eae8f	0.27867553
120	0x3e7bf98d	0.24606915
121	0x3e9852b4	0.29750597
122	0x3e9ea3dd	0.30984393
123	0x3e302e41	0.17205144
124	0x3e5d22b9	0.21595277
125	0x3db9d8c9	0.090745516
126	0x3dc2b0ee	0.09506403
127	0x3d8ea4bc	0.06965014
128	0xbe08d193	-0.13361196
129	0x3e025d37	0.12730871
130	0x3dce99ce	0.1008793
131	0x3cdc2ca2	0.026876751
132	0x3ec5dde7	0.3864586
133	0x3e3334d2	0.17500618
134	0x3d9bea89	0.076130934
135	0xbd9a2bfe	-0.07527922
136	0x3e80c8ff	0.25153348
137	0x3e701fae	0.23449585
138	0x3e1950f1	0.14972283
139	0x3e8bdbda	0.2731617
140	0x3e3eee6b	0.18645637
141	0x3d9bc6c4	0.07606271
142	0x3de32255	0.11090533
143	0x3aeae38a	0.0017920595
144	0x3dd3dffa	0.103454545
145	0x3e233118	0.15936697
146	0x3e7e019e	0.24805304
147	0x3e3a73a0	0.1820817
148	0x3ecbc4b6	0.39798516
149	0x3de9ca8a	0.114155844
150	0x3e30386e	0.17209026
151	0x3e8eda12	0.2790075
152	0x3e9f0630	0.31059408
153	0x3ea119fe	0.31465143
154	0x3d0c4b35	0.03425141
155	0xbdb3a304	-0.08771327
156	0xbe2a1cd3	-0.16612558
157	0xbe0373aa	-0.12837091
158	0x3d9d860a	0.076915815
159	0x3eb6cd0c	0.35703313
160	0x3d0cdcec	0.034390375
161	0xbce439c0	-0.027859569
162	0x3dc0f92a	0.09422524
163	0x3dbdd79a	0.09269638
164	0x3d9c85ea	0.076427296
165	0x3d449cc4	0.048001066
166	0xbe1b2708	-0.15151608
167	0x3e14b76b	0.14523093
168	0xbd0ccff4	-0.034378007
169	0xbdb349c5	-0.08754305
170	0xbdc46860	-0.095902205
171	0x3e2b2fe1	0.16717483
172	0xbcad0368	-0.021119788
173	0x3d07d91c	0.033166036
174	0x3db9ef5a	0.09078856
175	0x3de67ef6	0.112546846
176	0xbdba391e	-0.090929255
177	0x3e0d7f01	0.1381798
178	0xbd6d06b6	-0.05786773
179	0xbddef7c8	-0.10887104
180	0xbd4f0d48	-0.050549775
181	0xbe1521c0	-0.14563656
182	0x3d1454bc	0.03621362
183	0xbd3c13b8	-0.045917243
184	0xbdfc0412	-0.12305464
185	0xbb9294a0	-0.004473284
186	0xbdc3c108	-0.09558302
187	0x3dd1c602	0.10242845
188	0x3e13ef5f	0.14446782
189	0xbe178de5	-0.14800222
190	0x3ca65e80	0.020308733
191	0x3922e800	0.0001553595
192	0x3d4521b4	0.048127845
193	0xbcd9c1d0	-0.026581675
194	0xbdcc6bf5	-0.09981529
195	0x3e24f65d	0.16109605
196	0xbc21cce0	-0.009875506
197	0x3d304c60	0.043041587
198	0x3e032e57	0.12810646
199	0x3e34020d	0.17578907
200	0x3d76e990	0.060281336
201	0x3d3ee5f4	0.04660602
202	0xbdf16d3b	-0.11788412
203	0xbd3386c4	-0.043829694
204	0x3e1ea217	0.1549152
205	0x3e26b463	0.1627975
206	0x3d8d3176	0.068941996
207	0x3d81fb1c	0.063467234
208	0x3e1e8415	0.15480073
209	0xbd4bfdac	-0.049802467
210	0x3c0c6b20	0.008570462
211	0xbdb98b47	-0.09059768
212	0xbd3fa0e8	-0.04678431
213	0xbd069fc0	-0.032867193
214	0x3ca61478	0.020273432
215	0xbd04c054	-0.03240998
216	0x3c2d8990	0.0105918795
217	0x3e0be8ab	0.13662975
218	0xbd4a721c	-0.04942523
219	0xbd086fd8	-0.033309788
220	0x3dd268da	0.10273905
221	0x3d395600	0.04524803
222	0x3d313c80	0.043270588
223	0x3e251f19	0.16125144
224	0xbc1d3d60	-0.0095971525
225	0xbd2d86e8	-0.042364985
226	0x3dbc88a6	0.09205751
227	0xbe29ab7b	-0.16569321
228	0xbe12b5ea	-0.14327207
229	0x3d30e7d8	0.043189853
230	0x3d9b4732	0.07581939
231	0xbd5a681a	-0.053321935
232	0x3dfac5fa	0.12244792
233	0xbdd89e4f	-0.1057707
234	0x3dcc0a36	0.09962885
235	0xbe071555	-0.13191731
236	0xbcd39b98	-0.025831029
237	0xbdecfea8	-0.11572009
238	0xbd6010a8	-0.054703385
239	0x3c668120	0.014068872
240	0xbd333afc	-0.043757424
241	0x3d549f00	0.051909447
242	0xbe21ca54	-0.15799838
243	0xbd1b8048	-0.037964135
244	0x3c047810	0.008085266
245	0xbc5dcf20	-0.013538152
246	0xbcfc0758	-0.03076522
247	0xbe189d64	-0.1490379
248	0x3c4b7390	0.012417689
249	0xbd9e6ed4	-0.077359825
250	0xbd16a288	-0.036776096
251	0xbd02a92c	-0.031899616
252	0xbddcc577	-0.10779851
253	0x3d36ca24	0.04462637
254	0x3d8cbe46	0.06872229
255	0xbe26aa8c	-0.16275996

weight_hh_l0 f4 [128, 32]
0	0x3dedb9ae	0.11607681
1	0xbc3ba7c0	-0.011453569
2	0x3cad9bc8	0.021192446
3	0xbd517c8c	-0.051144168
4	0x3d8cf0a4	0.06881836
5	0x3e18ccdb	0.14921896
6	0x3dea769a	0.11448403
7	0x3d267650	0.040640175
8	0xbd00943c	-0.031391367
9	0xba86b680	-0.0010277778
10	0xbd154654	-0.036444023
11	0xbdd18bd1	-0.10231746
12	0x3d0f4a94	0.034983233
13	0x3d50d7e8	0.050987154
14	0xbc13c1d0	-0.0090183765
15	0x3d897baa	0.0671304
16	0xbd97e121	-0.07415987
17	0x3e2a16b9	0.1661023
18	0x3e1f6fdd	0.15570016
19	0x3d5860dc	0.052826747
20	0xbe2aa5ee	-0.1666486
21	0xbe26893b	-0.16263287
22	0xbe0facaf	-0.14030717
23	0xbcc61cb0	-0.024183601
24	0xbe27a617	-0.16371952
25	0xbd9fe8da	-0.07808085
26	0x3d525068	0.051346213
27	0x3e029587	0.12752353
28	0xbbbd3e00	-0.0057752132
29	0xbe21491e	-0.15750548
30	0x3d840aa8	0.06447345
31	0xbd4d050c	-0.05005364
32	0xbd8f7a3b	-0.070057355
33	0x3e2392ef	0.1597402
34	0x3e295d91	0.16539599
35	0x3e0ef343	0.13959984
36	0x3e2ee017	0.17077671
37	0xbdfa1ef3	-0.12212934
38	0x3e009881	0.12558176
39	0x3ccdab08	0.025105968
40	0x3e1279c1	0.14304258
41	0xbe116a78	-0.14200771
42	0x3c987b98	0.018613622
43	0x3d659c88	0.056057483
44	0x3e2ee431	0.17079236
45	0x3e31c261	0.17359306
46	0xbde43740	-0.111433506
47	0xbbb9c8e0	-0.005669698
48	0x3e315443	0.173173
49	0x3ddc100e	0.1074525
50	0x3e0aaf3f	0.13543414
51	0xbce33900	-0.02773714
52	0x3c094ac0	0.008379638
53	0x3de9c9d6	0.1141545
54	0x3dd10b0a	0.10207184
55	0xbe1e96e5	-0.15487249
56	0xbd1ee338	-0.03879091
57	0xbdf4d93c	-0.11955497
58	0x3d38dc78	0.04513213
59	0xbcbe2d30	-0.023214906
60	0xbdb35f6a	-0.08758433
61	0x3dad4be2	0.08461739
62	0xbe2346de	-0.15945002
63	0xbcdbac80	-0.026815653
64	0xbd2ffcac	-0.042965576
65	0x3e051927	0.12997876
66	0x3e258115	0.16162522
67	0x3d08da60	0.033411384
68	0x3dc76a66	0.09737091
69	0xbd07b4cc	-0.033131406
70	0xbe14cd94	-0.14531547
71	0x3c281a30	0.01026015
72	0x3e2c621b	0.168343
73	0x3d1c2f98	0.038131326
74	0xbe222368	-0.15833819
75	0x3df61286	0.12015252
76	0xbdd4723f	-0.10373353
77	0x3bd20680	0.0064094663
78	0x3cc67e50	0.024230152
79	0x3d9c2dea	0.07625945
80	0xbdaf28c7	-0.085526995
81	0xbda8de03	-0.082454704
82	0xb9315800	-0.00016912818
83	0x3de666f2	0.11250104
84	0x3e1b3caf	0.15159868
85	0xbe2150f4	-0.15753537
86	0x3c3bec30	0.011469886
87	0xbe108878	-0.14114559
88	0xbe086a38	-0.13321769
89	0x3dfd57e2	0.12370278
90	0x3e09a447	0.13441573
91	0xbd64e382	-0.05588103
92	0xbd9dbb4a	-0.07701738
93	0x3dc81922	0.09770419
94	0x3d69b4e0	0.05705726
95	0xbcdb6908	-0.026783481
96	0xbcbc5288	-0.022988573
97	0x3d732fb0	0.05937165
98	0x3dbb5396	0.09146802
99	0xbe02d18e	-0.12775251
100	0x3d941ec2	0.07232429
101	0x3e3445f5	0.17604811
102	0x3c1b97b0	0.009496614
103	0x3d3ec06c	0.046570227
104	0xbbdc6ba0	-0.006726697
105	0x3d7bb34c	0.061450288
106	0x3d83b556	0.064310715
107	0x3e222e7d	0.15838046
108	0x3d5f0448	0.054447442
109	0x3e0bf335	0.13666995
110	0x3ddb7646	0.10715918
111	0x3cd48c38	0.025945768
112	0x3df02576	0.11725895
113	0x3def524a	0.11685617
114	0x3dfd82b2	0.12378444
115	0xbdf3b274	-0.118992716
116	0x3e0025a3	0.12514357
117	0x3e2327f5	0.15933211
118	0xbd5c19ac	-0.05373542
119	0x3cce8b80	0.025213003
120	0xbd0aa9b0	-0.033853233
121	0xbe2e7984	-0.17038542
122	0xbddba809	-0.107254095
123	0x3e0de5eb	0.13857238
124	0xbd0515b0	-0.032491386
125	0x3e084b4d	0.13309975
126	0xbbd93660	-0.0066287965
127	0x3ddea29a	0.108708575
128	0x3e0928c5	0.13394459
129	0x3d9aed4e	0.075647935
130	0x3e16a9fd	0.14713283
131	0xbdc93c9e	-0.09826015
132	0xbddf9388	-0.10916811
133	0x3d9ee65e	0.07758783
134	0xbe073956	-0.13205466
135	0x3e056a2b	0.13028781
136	0xbd81d8c2	-0.063401714
137	0xbe055892	-0.13022068
138	0xbdea8f44	-0.11453107
139	0xbde76943	-0.11299374
140	0x3d33317c	0.043748364
141	0x3ddb37a2	0.107039705
142	0xbe2ececf	-0.17071079
143	0x3de20626	0.11036329
144	0x3dffe09a	0.12494011
145	0x3df9b85a	0.121933654
146	0x3d444174	0.047913983
147	0x3dc973c2	0.09836532
148	0x3dc1c8ba	0.09462114
149	0xbe0c522a	-0.13703218
150	0x3e245e01	0.16051485
151	0x3df81cca	0.12114866
152	0xbd283ff8	-0.04107663
153	0xbe201a61	-0.15635063
154	0xbd6253fa	-0.055255868
155	0x3d16d938	0.03682825
156	0x3e2bfdf1	0.1679609
157	0xbe10c9fa	-0.14139548
158	0x3d91b9a4	0.07115486
159	0x3ace2700	0.0015728176
160	0x3c50eb70	0.012751445
161	0xbe16b250	-0.14716458
162	0xbd2bb240	-0.04191804
163	0xbd9ac320	-0.075567484
164	0xbe08905d	-0.1333632
165	0xbd78527e	-0.060625546
166	0x3df2559e	0.118327364
167	0x3e2226ab	0.15835063
168	0x3c7f6000	0.015586853
169	0xbe2676a0	-0.1625619
170	0xbd8fb4c4	-0.070169
171	0x3bcaea60	0.0061924905
172	0x3c67b030	0.0141411275
173	0x3de7cc9e	0.113183245
174	0x3d497e90	0.049192965
175	0x3d9d3ae2	0.07677247
176	0xbdd70931	-0.104998
177	0xbe13b3d7	-0.14424072
178	0x3dda6ebe	0.10665654
179	0x3e1607f7	0.14651476
180	0xbcdb9e60	-0.026808918
181	0x3d1a4340	0.03766179
182	0x3e0de939	0.13858499
183	0x3bca3a20	0.00617148
184	0x3e26edbb	0.16301624
185	0x3e18e2af	0.14930223
186	0x3cc0ed10	0.02355054
187	0x3df9e0fa	0.12201114
188	0xbe1ea026	-0.1549078
189	0xbe0cd935	-0.13754733
190	0x3d9993e2	0.074989095
191	0x3d0b0398	0.033938974
192	0xbe26f38e	-0.16303846
193	0xbd86b448	-0.06577355
194	0xbe14355e	-0.14473483
195	0x3e180211	0.14844538
196	0xbe34a587	-0.17641269
197	0x3dd74d82	0.1051283
198	0x3e271f7b	0.16320603
199	0xbd8b966a	-0.068157986
200	0x3b216400	0.0024626255
201	0x3d5243ec	0.051334307
202	0x3e07b265	0.13251646
203	0xbda15d41	-0.07879115
204	0xbdd19395	-0.10233227
205	0x3cec4ec0	0.028846145
206	0xbdc5b7a1	-0.09654165
207	0xbd65f298	-0.05613956
208	0x3dd65622	0.10465647
209	0xbde2fead	-0.11083732
210	0xbd00b2d4	-0.031420544
211	0x3dad85b6	0.08472769
212	0xbe1fa554	-0.15590411
213	0xbe04fe78	-0.12987697
214	0xbdd69c5d	-0.10479043
215	0xbdfe095f	-0.12404131
216	0x3e13eb5b	0.1444525
217	0x3d820f70	0.06350601
218	0x3da96982	0.08272077
219	0x3d7e5a08	0.06209758
220	0x3cf6f838	0.030147657
221	0xbd0701d4	-0.032960728
222	0x3d7b67dc	0.061378345
223	0xbdf2e5fc	-0.11860272
224	0xbd30d2c8	-0.043169767
225	0xbdbb8906	-0.091569945
226	0xbda2aacf	-0.079427354
227	0x3dc14482	0.09436895
228	0x3e0bd499	0.13655318
229	0x3d0c01fc	0.03418158
230	0x3dc48fbe	0.09597729
231	0xbd2764a8	-0.040867478
232	0x3bc47a40	0.0059960186
233	0xbe1bdad8	-0.15220201
234	0xbe34fee4	-0.17675358
235	0x3c0cd020	0.008594543
236	0xbdf7fd9e	-0.121089205
237	0xbdba3dfd	-0.090938546
238	0x3c1ba630	0.009500071
239	0x3e0ac4f3	0.13551693
240	0xbccc8d98	-0.02496986
241	0x3b784e00	0.0037888288
242	0x3bd2cfa0	0.0064334422
243	0x3e055de7	0.13024102
244	0x3d015488	0.031574756
245	0x3dd31a36	0.10307734
246	0xbe0d5fa7	-0.1380602
247	0xbdfed67d	-0.12443254
248	0x3e1546b7	0.14577757
249	0x3e2f6c67	0.17131196
250	0x3e2a9fe9	0.16662563
251	0xbd445128	-0.04792896
252	0x3d8f031e	0.069830164
253	0x3d5b7dcc	0.053586766
254	0x3e187b9b	0.14890902
255	0xbe1cf24f	-0.15326808

bias_ih_l0 f4 [128]
0	0x3da13a41	0.07872439
1	0x3e99c692	0.3003431
2	0x3e041d02	0.1290169
3	0x3d13df7a	0.036101796
4	0x3e1880bf	0.14892863
5	0x3e4768ae	0.19473526
6	0xbd9c998c	-0.07646474
7	0x3ce741fc	0.028229706
8	0x3e30866f	0.17238782
9	0xbd790cee	-0.060803346
10	0xbe29d4fc	-0.16585153
11	0x3d41a361	0.04727495
12	0xbdf53809	-0.119735785
13	0x3e857256	0.26063794
14	0x3e85425c	0.2602719
15	0xbdc40a4c	-0.095722765
16	0x3e29cbe2	0.16581681
17	0x3eac35ee	0.33634895
18	0xbd9bcae5	-0.076070584
19	0x3d51c0df	0.051209327
20	0x3d899933	0.067186736
21	0xbdc70419	-0.097175784
22	0xbcdb40b9	-0.02676426
23	0xbdd546a2	-0.10413863
24	0x3eabbd99	0.3354309
25	0xbcc930cf	-0.024559407
26	0x3e4b4afd	0.19852825
27	0x3e5e54f1	0.2171209
28	0x3db3b9e8	0.08775693
29	0x3ea3f6d5	0.32024255
30	0x3e6e28ce	0.23257753
31	0xbe2fef47	-0.17181121
32	0xbc6b4a20	-0.0143609345
33	0xbdfff0a6	-0.12497072
34	0x3df0115e	0.117220625
35	0x3e1407e3	0.14456134
36	0x3e02b72d	0.12765189
37	0xbdf2e9da	-0.1186101
38	0xbde6a271	-0.11261452
39	0xbe2b9716	-0.16756853
40	0x3e13392f	0.14377283
41	0xbc95ddc0	-0.018294215
42	0xbe10105a	-0.14068738
43	0x3d935cbc	0.07195422
44	0xbd5032a4	-0.050829545
45	0x3dfe0432	0.12403144
46	0x3e0fc40d	0.14039631
47	0x3e16e505	0.14735802
48	0x3df22556	0.118235275
49	0xbe0d0172	-0.13770083
50	0x3dbda32a	0.09259637
51	0x3c9895f0	0.018626183
52	0xbd6c71de	-0.05772578
53	0xbe1aefb5	-0.15130503
54	0xbe13da0d	-0.14438649
55	0xbd7f42f6	-0.06231972
56	0x3bb2ac80	0.0054526925
57	0xbd26a870	-0.04068798
58	0xbd934b71	-0.07192124
59	0x3e33a4b7	0.17543302
60	0x3e045251	0.12922026
61	0x3df40d02	0.119165435
62	0xbdbe9c4a	-0.093071535
63	0x3c903a48	0.017605916
64	0x3e53433d	0.20631118
65	0xbe0299fc	-0.12754053
66	0xbe235a33	-0.15952377
67	0x3df5f353	0.12009301
68	0xbc987c41	-0.018613936
69	0x3c0f8318	0.0087592825
70	0xbcfd7d72	-0.030943606
71	0x3e1febc7	0.15617286
72	0xbe274651	-0.16335417
73	0x3e331e47	0.17492019
74	0x3e0f917d	0.14020343
75	0xbb6a0458	-0.0035708155
76	0x3df33607	0.11875539
77	0xbdb0e8fe	-0.0863819
78	0xbdd47a08	-0.10374838
79	0x3df43175	0.11923496
80	0x3e4c18cd	0.19931336
81	0x3e08a0f4	0.13342649
82	0x3da9427e	0.082646355
83	0x3dbaf537	0.09128802
84	0x3d543600	0.05180931
85	0x3e0971dd	0.13422342
86	0xbd36785a	-0.04454837
87	0xbdd540de	-0.10412763
88	0xbe2d437c	-0.16920274
89	0x3dbe3376	0.09287159
90	0xbc06d3d2	-0.008229213
91	0x3d4191c3	0.04725815
92	0xbdef3e69	-0.11681826
93	0xbe573587	-0.21016513
94	0x3e2ca775	0.16860755
95	0x3e0bf828	0.13668883
96	0x3dfc7dc8	0.12328678
97	0x3ebf1206	0.37318438
98	0x3eae1569	0.3400071
99	0x3dcff0ed	0.10153375
100	0xbca4ac88	-0.0201018
101	0xbd4c0881	-0.049812797
102	0xbdad6534	-0.084665686
103	0x3ea9bd23	0.33152112
104	0x3c53dd88	0.012931235
105	0xbca3767b	-0.019953957
106	0x3adfe865	0.0017082809
107	0x3ea42cab	0.3206533
108	0x3e26829b	0.1626076
109	0x3c4cb2fe	0.012493847
110	0x3e11d091	0.14239718
111	0xbdf427fa	-0.119216874
112	0x3e032931	0.12808682
113	0x3e0921da	0.1339182
114	0xbdc5b677	-0.09653943
115	0x3dd0055d	0.10157273
116	0x3e032ade	0.12809321
117	0x3e5d13a9	0.21589531
118	0x3ddd0fdb	0.1079404
119	0x3caa1514	0.020762004
120	0x3e553afe	0.20823285
121	0x3d23ac15	0.039959032
122	0x3ea52b24	0.32259476
123	0x3e9de1ca	0.30836326
124	0x3e96292e	0.29328293
125	0x3ed0e69e	0.40800947
126	0x3e1b8d3a	0.15190592
127	0xbc8edd14	-0.017439403

bias_hh_l0 f4 [128]
0	0x3e8b1aa4	0.27168763
1	0x3db71073	0.08938684
2	0x3e85c8fa	0.26129895
3	0xbbd45b7c	-0.0064806323
4	0x3d3d08c8	0.046150953
5	0x3d8bae0c	0.06820306
6	0x3d60bab1	0.054865543
7	0x3e6f9d0d	0.23399754
8	0xbd970794	-0.07374492
9	0x3e01f168	0.12689745
10	0x3cdbccfc	0.026831143
11	0xbce4f10f	-0.027946977
12	0x3e355a85	0.17710312
13	0x3e18a124	0.1490522
14	0x3d890383	0.06690123
15	0xbe1e0ded	-0.15435
16	0x3d370851	0.044685666
17	0x3e3b3941	0.1828356
18	0x3e0e295c	0.13882965
19	0x3eaae710	0.33379412
20	0x3ebb06e1	0.36528686
21	0xbd9fbc3b	-0.07799574
22	0x3e7aced0	0.24492955
23	0xbe406d1e	-0.18791625
24	0x3d851432	0.064979926
25	0x3e363506	0.17793664
26	0x3e3ee32c	0.18641347
27	0x3e052533	0.13002472
28	0x3eb34acd	0.35018006
29	0x3e99dd7a	0.30051786
30	0x3e848c8b	0.25888476
31	0x3e0ad4e0	0.13557768
32	0x3e0dbe8d	0.1384222
33	0xbe0d0fca	-0.13775554
34	0xbdd3f94c	-0.10350284
35	0xbcfc3618	-0.030787513
36	0xbc5c5610	-0.013448253
37	0x3dd942a6	0.10608415
38	0xbc4eabe0	-0.01261422
39	0x3da798ea	0.08183463
40	0x3be75660	0.0070598572
41	0xbcb803a0	-0.022462666
42	0xbd4726b4	-0.048620895
43	0x3d5513b8	0.05202076
44	0x3cbef798	0.023311421
45	0x3e19f3d1	0.15034415
46	0xbdc93c54	-0.0982596
47	0x3d98c0e2	0.074586645
48	0x3df784ce	0.12085877
49	0x3d94cd0e	0.072656736
50	0xbe034db1	-0.12822606
51	0x3d847998	0.06468505
52	0xbe15cf2a	-0.14629808
53	0x3d5831cc	0.052781865
54	0x3e170581	0.14748193
55	0xbde2f083	-0.1108103
56	0xbd817432	-0.063209906
57	0x3cb153c8	0.021646395
58	0x3ba928a0	0.0051623136
59	0x3da242a2	0.079228655
60	0xbd917458	-0.07102269
61	0x3c6d4af0	0.0144831985
62	0xbd8dd94b	-0.06926211
63	0xbe130c37	-0.14360128
64	0x3d438422	0.047733434
65	0x3e11e88a	0.14248863
66	0xbe06e37a	-0.13172713
67	0xbcac2617	-0.021014256
68	0x3b13516c	0.002247895
69	0xbdae62d4	-0.08514944
70	0x3dd68b39	0.10475773
71	0x3c1e5484	0.009663705
72	0xbe55d8e0	-0.20883512
73	0x3cb8b62c	0.022547804
74	0xbd8cc83e	-0.06874131
75	0x3de54492	0.111947194
76	0xbdcef433	-0.10105171
77	0x3d4885c8	0.04895571
78	0x3d186595	0.03720625
79	0x3e1766fc	0.14785379
80	0xbd1b9472	-0.037983365
81	0xbdf76aee	-0.12080942
82	0xbd2295b9	-0.039693568
83	0xbd8ba4aa	-0.068185166
84	0xbdc9bc12	-0.09850325
85	0xbdca231f	-0.0986998
86	0xbd7817c7	-0.06056955
87	0x3cfbca3f	0.030736087
88	0x3c287128	0.010280885
89	0x3d7c2afa	0.061564423
90	0x3bfa6656	0.007641594
91	0xbe5f6a0e	-0.218178
92	0xbc918357	-0.017762823
93	0xbd3d1699	-0.04616413
94	0xbe2988a7	-0.16556035
95	0xbe47e581	-0.19521143
96	0x3dc15b9d	0.09441302
97	0x3ecf9829	0.40545776
98	0x3e947eca	0.29002982
99	0x3e6e7d77	0.23290049
100	0x3d313aeb	0.04326908
101	0xbdb45dcd	-0.088069536
102	0xbd9eacd5	-0.07747809
103	0x3ea7e1cd	0.3278946
104	0x3a6ecc09	0.0009109383
105	0xbb990f41	-0.004671008
106	0xbe4ed68e	-0.20199034
107	0x3c03afe6	0.008037543
108	0xbd06df83	-0.032928
109	0x3e8c222a	0.27369815
110	0x3e79c100	0.2439003
111	0xbe170200	-0.14746857
112	0x3e3aced3	0.1824296
113	0x3dc12118	0.0943014
114	0xbcc19d0d	-0.023634458
115	0x3e83fb9e	0.25777906
116	0x3e2a3669	0.16622318
117	0xbd64f8f5	-0.055901486
118	0x3d81b4ec	0.06333336
119	0x3d5430d8	0.051804394
120	0x3e95f39b	0.2928742
121	0xbbb0c785	-0.0053948783
122	0x3bef63ab	0.0073055825
123	0x3da65130	0.08120954
124	0x3dc7b54e	0.09751378
125	0x3ed29c51	0.41134885
126	0x3e82fde5	0.2558433
127	0xbd7d7ffb	-0.06188963

weight_ih_l1 f4 [128, 32]
0	0xbd83217e	-0.064028725
1	0x3cff765f	0.031184373
2	0x3d58f006	0.05296328
3	0xbd28fd4d	-0.04125719
4	0x3d2ff2e8	0.042956263
5	0x3e869dca	0.26292259
6	0xb954924c	-0.00020272395
7	0xbe8c63df	-0.27419946
8	0xbe0e525f	-0.1389861
9	0xbd28e03e	-0.04122948
10	0x3d46a216	0.04849442
11	0xbe76afe0	-0.24090528
12	0x3d16714a	0.036729135
13	0x3e5f27a8	0.21792471
14	0x3e4ee786	0.20205507
15	0x3e926c2a	0.28598148
16	0x3d0fcb76	0.035106145
17	0x3d8ef723	0.06980731
18	0xbe49b61b	-0.19698374
19	0x3dbfaf1b	0.093595706
20	0xbd521f9b	-0.051299673
21	0x3e73a6d4	0.23794109
22	0xbe831ed0	-0.25609446
23	0xbe13fc23	-0.14451651
24	0x3e0d1204	0.13776404
25	0x3dde17e5	0.10844401
26	0xbe1ea997	-0.15494381
27	0xbd5cd825	-0.05391707
28	0x3d89d78f	0.06730568
29	0xbc4301a1	-0.011902244
30	0x3d32ce22	0.043653615
31	0xbe457794	-0.19283897
32	0xbd3d4e32	-0.04621715
33	0xbe23490b	-0.15945832
34	0xbc6229be	-0.013803897
35	0x3c45d357	0.012074313
36	0xbc98d4f0	-0.018656224
37	0x3dbb2eba	0.09139772
38	0xbc91f828	-0.017818525
39	0xbe7083b2	-0.23487738
40	0x3c476106	0.012169128
41	0xbc4e417f	-0.012588858
42	0xbc13f484	-0.009030465
43	0xbd9e32df	-0.07724547
44	0x3dccf6d9	0.1000802
45	0x3dec403a	0.11535688
46	0xbd0e9f7c	-0.034820065
47	0x3e3210dc	0.17389244
48	0xbe35279f	-0.17690895
49	0x3c36db8b	0.011160742
50	0xbe377f3f	-0.17919634
51	0x3e677ff1	0.226074
52	0xbe5ea319	-0.21741904
53	0xbdaaf070	-0.08346641
54	0xbe29d1c3	-0.16583924
55	0x3dcb85f0	0.09937656
56	0x3d7da8bc	0.061928496
57	0x3e42cf54	0.19024402
58	0xbe570b4a	-0.210004
59	0x3d8a72bf	0.06760167
60	0x3d115bdd	0.035488
61	0x3e88c1c3	0.26710328
62	0xbe203420	-0.15644884
63	0xbd2201f1	-0.039552633
64	0x3d506078	0.05087325
65	0xbdc2e117	-0.09515589
66	0x3dad4de9	0.08462126
67	0xbdbd464d	-0.092419244
68	0x3c74dd6f	0.014945372
69	0x3d89f52a	0.067362145
70	0x3e40e7af	0.1883838
71	0x3d216731	0.03940505
72	0xbda31515	-0.079630055
73	0x3d903344	0.07041028
74	0xbdc191ab	-0.09451612
75	0x3db3f261	0.087864645
76	0xbb873700	-0.0041264296
77	0xbd8e3034	-0.06942788
78	0xbde4560c	-0.11149225
79	0x3e204181	0.15649988
80	0xbb82ec59	-0.00399546
81	0xbaf9a293	-0.0019045643
82	0xbe47e5d0	-0.1952126
83	0x3e22d937	0.15903173
84	0xbe1c746d	-0.15278788
85	0x3e4df99f	0.20114754
86	0xbe16fff7	-0.1474608
87	0xbe385fb1	-0.18005253
88	0x3e2abec1	0.1667433
89	0x3e5fac66	0.21843109
90	0xbd47c423	-0.048771035
91	0x3d900a62	0.0703323
92	0x3b133f9c	0.0022468334
93	0x3d8960d7	0.06707924
94	0xbdad99eb	-0.08476623
95	0x3dd07c06	0.101799056
96	0xbccf3081	-0.025291683
97	0xbd1398f0	-0.036034524
98	0xbdc44d83	-0.09585097
99	0xbdcc23c1	-0.09967757
100	0x3e4ad6b0	0.1980846
101	0x3e88761f	0.2665262
102	0xbc9979fc	-0.018734924
103	0xbdcba714	-0.09943977
104	0x3d1a9b4d	0.037745763
105	0x3c207f38	0.009795956
106	0xbc43fb6b	-0.011961798
107	0xbe096bc2	-0.13420013
108	0x3c3286ea	0.010896424
109	0xbd909c43	-0.070610546
110	0xbe1128f2	-0.14175776
111	0x3e506df8	0.2035445
112	0xbcf4bab4	-0.029874183
113	0xbd17ffc1	-0.03710914
114	0xbdb21a88	-0.08696467
115	0xbc9c204a	-0.019058365
116	0xbe4a5a71	-0.19761063
117	0xbc53326c	-0.0128904395
118	0xbd4f959a	-0.05067978
119	0xbd022858	-0.031776756
120	0x3b0c818f	0.0021439528
121	0xbd1829f5	-0.03714939
122	0x3d730ba0	0.05933726
123	0x3e329173	0.17438297
124	0x3dfa54ea	0.12223227
125	0x3e1d0ccc	0.15336913
126	0xbd916659	-0.070995994
127	0xbddc663b	-0.107616864
128	0xbe3ffc3b	-0.18748562
129	0xbd039c52	-0.0321315
130	0x3dd45ecc	0.103696436
131	0xbda68c5b	-0.081322394
132	0x3e310128	0.17285597
133	0x3d25135d	0.04030167
134	0x3e49c985	0.1970578
135	0xbe70316e	-0.23456356
136	0xbe3a785c	-0.18209976
137	0xbc94eea7	-0.018180205
138	0x3e0aedf3	0.13567333
139	0xbdace94b	-0.084429346
140	0xbbf6f62a	-0.0075366693
141	0x3e344d1f	0.17607544
142	0xbd100818	-0.03516397
143	0x3e262694	0.16225654
144	0xbe80c625	-0.25151172
145	0x3e6839a4	0.22678238
146	0xbe80d700	-0.25164032
147	0x3d364cd6	0.04450687
148	0xbe924703	-0.28569803
149	0x3df2ff95	0.11865155
150	0xbe8eed75	-0.2791554
151	0xbe737713	-0.23775892
152	0x3d82943b	0.06375929
153	0x3d83836e	0.064215526
154	0x3c7ebd35	0.01554804
155	0x3d8dc2a1	0.06921888
156	0x3d4eab40	0.050456285
157	0x3d8d15da	0.068889335
158	0xbe89e559	-0.2693279
159	0xbdf1262a	-0.11774857
160	0xbde88583	-0.1135359
161	0x3dfbe109	0.122987814
162	0xbc467448	-0.012112685
163	0xbe28c44e	-0.16481134
164	0x3d8019e1	0.06254936
165	0x3e3bd796	0.18343958
166	0x3e8beb7e	0.27328104
167	0xbc4c80d3	-0.012481886
168	0xbbd652ff	-0.0065406556
169	0xbe5d7c8b	-0.2162954
170	0x3e3fa5f2	0.18715647
171	0xbe86656b	-0.2624925
172	0xbe0be4dd	-0.13661523
173	0x3cf08b8d	0.029363418
174	0xbca918d4	-0.020641722
175	0xbc217aca	-0.009855935
176	0x3cfeabdc	0.031087808
177	0x3e5c1527	0.21492444
178	0x3d8ae8ea	0.06782706
179	0x3e6c56ce	0.23079988
180	0xbe530c3f	-0.2061014
181	0x3e5e665b	0.21718733
182	0x3d2ac7cb	0.041694444
183	0x3ca3e375	0.02000592
184	0x3e4c084b	0.19925039
185	0x3dc29a14	0.09502044
186	0xbd2ab109	-0.04167274
187	0x3e65a653	0.22426729
188	0x3e043a81	0.12912942
189	0x3deaf040	0.11471605
190	0x3d9ad6d7	0.07560509
191	0xbe0d0b51	-0.13773848
192	0x3c6698ae	0.014074488
193	0x3e16618f	0.14685653
194	0x3e935bae	0.28780884
195	0x3c266fe7	0.010158516
196	0x3e7f8884	0.2495442
197	0xbc64c783	-0.013963583
198	0x3dfe7477	0.12424558
199	0xbe6c97ad	-0.23104735
200	0x3de8e16d	0.113711216
201	0xbdb1bf19	-0.08679027
202	0x3e118904	0.14212424
203	0xbdb503dd	-0.088386275
204	0xbc12f673	-0.008969891
205	0x3d11a326	0.03555598
206	0xbccb545c	-0.0248205
207	0x3e7c2c36	0.2462624
208	0xbe2e48d0	-0.17019963
209	0x3e0c6e00	0.13713837
210	0xbe0d5ce5	-0.13804968
211	0x3d3e0539	0.0463917
212	0xbd3f74b4	-0.046742156
213	0x3e6697c1	0.22518827
214	0xbe1cfb11	-0.15330149
215	0xbe4e3a02	-0.20139316
216	0xbd3f8aa8	-0.046763092
217	0x3d6567b0	0.056007087
218	0xbd27d2ab	-0.040972393
219	0x3e5ef34c	0.21772498
220	0x3e4b5bc2	0.19859222
221	0xbd1e5575	-0.038655717
222	0xbdfa0dcd	-0.122096635
223	0xbde059be	-0.10954617
224	0xbe53e517	-0.2069286
225	0xbdb55a37	-0.08855098
226	0x3da76eda	0.0817544
227	0xbe671ba7	-0.22569142
228	0x3e56c4b4	0.20973474
229	0xbd6bb70d	-0.057547618
230	0x3e117d4a	0.1420795
231	0xbc9b085c	-0.018924884
232	0x3be4dd1e	0.006984367
233	0x3d7aec21	0.061260346
234	0xbcefe7e8	-0.029285386
235	0xbe7cd8d1	-0.24692084
236	0x3de99aa1	0.11406446
237	0xbc9e553d	-0.019327754
238	0x3d845574	0.064616114
239	0xbbdea07b	-0.006794033
240	0xbe31bb2d	-0.17356558
241	0x3b014987	0.0019727664
242	0xbd5b29a9	-0.053506527
243	0x3cbf1ab5	0.023328165
244	0xbe2b7874	-0.16745168
245	0x3bc8fc47	0.0061335894
246	0x3d6a9550	0.0572713
247	0x3bf81084	0.007570328
248	0x3e85a7ce	0.26104587
249	0xbc4a3bf1	-0.012343393
250	0x3b9a2869	0.0047045243
251	0x3de24e37	0.110500745
252	0x3e11181a	0.1416935
253	0x3e6ba3bc	0.23011678
254	0xbddaa329	-0.106756516
255	0xbdb97443	-0.09055378

weight_hh_l1 f4 [128, 32]
0	0xbbc7e120	-0.006099835
1	0x3db84be2	0.089988485
2	0xbe03648a	-0.12831321
3	0xbc7d3150	-0.015453652
4	0x3d408054	0.046997383
5	0x3d0ae888	0.033913165
6	0xbd8fde0e	-0.070247754
7	0x3e1fc947	0.15604125
8	0xbe2fe6ff	-0.17177962
9	0xbdeec146	-0.11657958
10	0x3e2e91e5	0.17047842
11	0xbd98367d	-0.07432268
12	0x3c478c60	0.012179464
13	0x3e0ae729	0.13564743
14	0x3d95e754	0.07319513
15	0xbe1dd6a9	-0.15413918
16	0x3dab0b56	0.083517715
17	0x3d4c7880	0.049919605
18	0x3df66b8e	0.12032233
19	0x3e231fb1	0.15930058
20	0x3d0d09bc	0.03443311
21	0x3d8a8ff4	0.06765738
22	0xbd1d2858	-0.038368553
23	0xbde6ad92	-0.11263575
24	0xbcab3f00	-0.020904064
25	0x3d05fa80	0.0327096
26	0xbdfa6a3e	-0.12227295
27	0xbd70810c	-0.05871682
28	0x3d8e71b0	0.06955278
29	0x3aaa2d80	0.0012983531
30	0x3e0bffa3	0.13671736
31	0x3e16e739	0.14736642
32	0x3c3bfca0	0.011473805
33	0x3de79eaa	0.1130956
34	0x3e09628b	0.13416497
35	0xbbf3f3e0	-0.0074448436
36	0x3e1f22b9	0.1554059
37	0xbe15b9e0	-0.14621687
38	0xbb74a980	-0.0037332475
39	0xbd8313e5	-0.06400279
40	0xbe20c106	-0.15698633
41	0xbdc2a119	-0.09503383
42	0xbe02be9c	-0.12768024
43	0x3e2cb34d	0.16865273
44	0xbe34270e	-0.17593023
45	0xbde5c0b9	-0.112183996
46	0xbdfaf266	-0.12253265
47	0x3d70221c	0.05862628
48	0xbd553bfa	-0.05205915
49	0x3e0ce25b	0.13758223
50	0x3c957020	0.018241942
51	0xbe22306d	-0.15838785
52	0x3dc2f78e	0.095198736
53	0xbdedaf6e	-0.11605726
54	0x3cefcc00	0.02927208
55	0x3cc45fa0	0.023971379
56	0xbe00eb0c	-0.12589663
57	0xbdaedd35	-0.08538286
58	0x3b477ec0	0.003044054
59	0x3cf14898	0.02945356
60	0x3d5a8080	0.053345203
61	0x3c89f750	0.01684156
62	0xbe210986	-0.15726289
63	0xbdadcff4	-0.084869295
64	0x3c450730	0.012025639
65	0x3ccd1930	0.025036424
66	0x3e2703e7	0.16310082
67	0x3e30e725	0.17275675
68	0x3c2037e0	0.009778947
69	0x3b9d7120	0.0048047453
70	0xbe252987	-0.16129123
71	0xbc0e3f30	-0.008682057
72	0xbe1791ce	-0.14801714
73	0x3de1edd2	0.11031689
74	0xbdbc0b58	-0.09181851
75	0xbd9ae4ec	-0.07563195
76	0x3d030678	0.03198859
77	0x3d3896f8	0.04506585
78	0xbc776620	-0.015100032
79	0x3e1f20ed	0.15539904
80	0x3dd828d2	0.10554661
81	0x3dda5096	0.10659902
82	0xbd8dc52c	-0.06922373
83	0x3dcabff6	0.09899895
84	0xbd12a33c	-0.035800204
85	0x3e32baff	0.17454146
86	0x3ddbcc06	0.10732274
87	0x3e2ae877	0.16690241
88	0xbdd72722	-0.10505511
89	0xbcd44fd0	-0.025916964
90	0x3e1ccd4f	0.15312694
91	0xbe0145b8	-0.12624252
92	0xbddc8f64	-0.10769537
93	0x3e066607	0.13124858
94	0xbe166073	-0.1468523
95	0x3d77a8a8	0.060463578
96	0x3d8bb0a2	0.068207994
97	0xbce225e0	-0.02760595
98	0x3d0bd374	0.034137204
99	0xbe086045	-0.13317974
100	0xbd8be0d3	-0.06829991
101	0xbcb61010	-0.022224456
102	0xbd67eb02	-0.056620605
103	0xbd89773f	-0.067121975
104	0x3dc83436	0.097755834
105	0x3d867ed8	0.06567162
106	0xbe14522c	-0.14484471
107	0x3ce8bdf8	0.028410897
108	0xbe0216b4	-0.12703973
109	0x3e10a861	0.14126731
110	0x3d247a04	0.040155426
111	0x3dc120da	0.09430094
112	0x3b836740	0.004010111
113	0xbe31209c	-0.17297596
114	0xbe029c6a	-0.1275498
115	0xbe27eb0c	-0.16398257
116	0x3ba75260	0.0051062554
117	0xbb15b000	-0.00228405
118	0xbded40ea	-0.11584647
119	0x3ca41d80	0.020033598
120	0x3bbed4a0	0.0058236867
121	0xbe2392d4	-0.15973979
122	0x3df9d8b2	0.121995345
123	0x3da9bea2	0.082883134
124	0xbda2e92b	-0.079546295
125	0x3ca7ab40	0.0204674
126	0xbe2b1eac	-0.16710919
127	0xbdb631e1	-0.088962324
128	0x3dcb36ee	0.099225864
129	0x3d88acca	0.06673582
130	0xbdbf967c	-0.093548745
131	0xbe1079c4	-0.1410895
132	0xbe252a0c	-0.16129321
133	0xbdf6bf2c	-0.12048182
134	0xbd53969c	-0.051657304
135	0x3d48c60c	0.049016997
136	0x3df270a2	0.11837889
137	0xbbb44e20	-0.0055024773
138	0xbded51e2	-0.115878835
139	0x3e0db6a9	0.1383921
140	0x3d32d5a8	0.04366079
141	0xbd5c286e	-0.053749494
142	0xbc33fb00	-0.010985136
143	0x3d6bd85c	0.057579383
144	0xbdfdf4d5	-0.12400214
145	0xbd9e3e6c	-0.0772675
146	0x3d468798	0.048469156
147	0x3dad73de	0.084693655
148	0xbe0ebc27	-0.13938962
149	0xbe315d7e	-0.1732082
150	0x3dd5255e	0.10407518
151	0x3e0cc675	0.1374758
152	0xbdd4986e	-0.10380636
153	0xbd82c491	-0.06385148
154	0xbe340585	-0.1758023
155	0xbda5dcd0	-0.08098757
156	0xbe28b0db	-0.16473715
157	0x3d4e1c0c	0.050319716
158	0xbd3ccf38	-0.046096057
159	0x3ddf3a26	0.10899763
160	0x3dbed7fe	0.09318541
161	0x3c0ebb20	0.008711606
162	0x3e027745	0.1274081
163	0x3d9533d2	0.072852746
164	0x3d97b6ba	0.07407899
165	0x3c285560	0.010274261
166	0xbc120070	-0.008911237
167	0x3d7f6f60	0.062362075
168	0x3c3390d0	0.010959819
169	0xbde43c00	-0.111442566
170	0xbe24fbe7	-0.16111718
171	0xbd291dd0	-0.041288197
172	0x3e259715	0.16170914
173	0x3d831752	0.06400932
174	0x3de9f46a	0.114235714
175	0xbc313c20	-0.010817558
176	0x3e2ea859	0.17056407
177	0x3e28b1f5	0.16474135
178	0xbe1563a9	-0.14588799
179	0x3d945ac2	0.07243873
180	0xbdeff9f2	-0.11717595
181	0x3df7415a	0.12073012
182	0xbd8cad1d	-0.06868956
183	0xbe10d64f	-0.14144252
184	0xbd1c5884	-0.038170353
185	0xbdc1bd44	-0.09459928
186	0x3cadb7d0	0.021205813
187	0xbd8af841	-0.06785632
188	0x3df678ce	0.120347604
189	0xbdb90a1c	-0.09035131
190	0x3e0f4dbf	0.13994502
191	0x3e23db49	0.1600162
192	0x3d2b8b34	0.0418808
193	0xbe0378b0	-0.12839007
194	0xbdc17d67	-0.09447747
195	0x3ddd588e	0.10807906
196	0xbdb3343d	-0.08750198
197	0x3debe566	0.11518364
198	0xbd3634ac	-0.044483826
199	0x3e2c99a1	0.1685548
200	0x3e315299	0.17316665
201	0xbc96b000	-0.01839447
202	0x3df9effa	0.12203975
203	0xbd0d9d64	-0.034573928
204	0xbd9ef47e	-0.07761477
205	0x3d34fd1c	0.044186696
206	0x3acdba00	0.0015695691
207	0xbd968ffb	-0.07351681
208	0x3d8b61fe	0.068058
209	0x3ac93780	0.0015351623
210	0xbd1cc57c	-0.038274273
211	0x3dcc5002	0.09976198
212	0xbc9999d8	-0.018750116
213	0xbce03768	-0.02737017
214	0x3dd44882	0.10365392
215	0x3e03119b	0.12799685
216	0x3dd1618a	0.10223682
217	0x3e087a33	0.13327865
218	0xbdef99b4	-0.116992384
219	0xbd5c3ad6	-0.053767048
220	0x3e157617	0.14595829
221	0x3e23cd31	0.15996243
222	0xbdfc9e0a	-0.12334831
223	0xbcd74290	-0.026276857
224	0x3e05a4f3	0.13051204
225	0xbdbcdd63	-0.09221914
226	0x3e14426b	0.14478461
227	0x3df2948a	0.11844738
228	0xbdfd9a06	-0.12382893
229	0x3da9b932	0.08287276
230	0xbe327831	-0.17428662
231	0x3e0f1bb9	0.13975419
232	0x3ccbc3f8	0.024873719
233	0x3d03cfbc	0.032180533
234	0xbd1b1bc8	-0.03786829
235	0xbe20a478	-0.1568774
236	0xbd2ca2b8	-0.04214737
237	0xbdc69908	-0.09697157
238	0x3e1505a5	0.14552934
239	0xbdae0001	-0.084960945
240	0xbde2754f	-0.11057531
241	0x3e1e7ab9	0.15476502
242	0x3ded476a	0.11585887
243	0xbd1370fc	-0.035996422
244	0x3cbaa5e8	0.022784188
245	0xbdc67868	-0.096909344
246	0xbdb864bf	-0.09003591
247	0xbc1c1b50	-0.009527996
248	0xbb60bec0	-0.0034293383
249	0x3c291530	0.010319993
250	0x3e0d329d	0.13788839
251	0xbe2da9ba	-0.16959277
252	0xbd041228	-0.032243878
253	0xbd48674c	-0.048926637
254	0x3e198e33	0.14995651
255	0x3d5d65e0	0.054052234

bias_ih_l1 f4 [128]
0	0x3e8efadd	0.27925768
1	0x3dcdd8d6	0.10051124
2	0x3c918279	0.01776241
3	0x3e9b3acc	0.30318296
4	0x3e825def	0.2546229
5	0x3e33b0ab	0.17547862
6	0x3e7f4b9b	0.24931185
7	0x3e39dcb4	0.18150598
8	0x3d385a60	0.045008063
9	0x3d0920cc	0.033478543
10	0xbd0ee87b	-0.03488968
11	0xbd74f881	-0.059807304
12	0x3e6e504b	0.23272817
13	0x3e88fdaf	0.26756045
14	0x3b048763	0.0020222298
15	0x3e53c0fc	0.20679086
16	0xbc4ff41a	-0.012692476
17	0x3e616ffd	0.22015376
18	0x3e095f73	0.13415317
19	0x3d74755d	0.05968224
20	0x3d9f1631	0.077679045
21	0xbcaf2db0	-0.02138409
22	0x3e5fbcb2	0.21849325
23	0x3ec26370	0.3796649
24	0x3c01d736	0.007924845
25	0x3d1b77a6	0.037955903
26	0x3de28fc3	0.110625766
27	0x3e99709a	0.2996872
28	0xbd16ea41	-0.036844496
29	0x3e96e817	0.29473945
30	0x3e928d66	0.28623503
31	0x3e5581a7	0.2085024
32	0x3de02cf2	0.10946073
33	0xbdf14526	-0.11780767
34	0x3e289885	0.16464432
35	0xbe07a2c0	-0.13245678
36	0xbcebd258	-0.028786823
37	0xbdb8c0ba	-0.09021135
38	0x3dc911b2	0.09817828
39	0xb9b8a000	-0.00035214424
40	0x3e1b68f7	0.1517676
41	0x3d654f74	0.055983976
42	0x3c4b8170	0.012420997
43	0x3dcffc32	0.10155524
44	0x3df6854e	0.120371446
45	0xbd801120	-0.06253266
46	0x3e0c18e9	0.13681377
47	0xbe1356ce	-0.14388582
48	0xbe1326c4	-0.14370257
49	0xbe2bb9e9	-0.16770138
50	0x3e111247	0.14167129
51	0x3da9534a	0.08267839
52	0x3e2b863d	0.16750427
53	0x3d76dd74	0.060269788
54	0x3cd68928	0.026188448
55	0xbdc147be	-0.09437512
56	0xbe2735c1	-0.16329099
57	0xbdd92453	-0.106026314
58	0x3e283339	0.1642579
59	0x3e3094cd	0.17244263
60	0x3e33c803	0.17556767
61	0x3cd15380	0.025552511
62	0xbda83971	-0.08214081
63	0xbddb0057	-0.10693424
64	0x3c695352	0.0142410565
65	0x3e5097d4	0.20370418
66	0x3e0a6aca	0.135173
67	0xbdc820fe	-0.09771918
68	0xbd962a2e	-0.07332264
69	0x3cee9490	0.029123574
70	0xbca4856e	-0.020083155
71	0xbe192651	-0.14956023
72	0x3dc2fe25	0.095211305
73	0x3d64b58d	0.055837203
74	0x3cb67961	0.022274675
75	0xbdd05b6e	-0.10173689
76	0x3e092297	0.13392101
77	0x3cf0e485	0.029405842
78	0xbd0c9cf1	-0.03432936
79	0x3db106e7	0.08643895
80	0xbcd0c74b	-0.025485655
81	0x3dec9866	0.11552505
82	0xbe386de3	-0.18010668
83	0x3e03e337	0.12879644
84	0xbe4d0eae	-0.20025131
85	0x3e1070d5	0.14105542
86	0xbd7a59c5	-0.061120767
87	0x3c80f7e8	0.01574321
88	0x3dded074	0.10879603
89	0x3dfd1eac	0.12359366
90	0xbd839723	-0.064253114
91	0xbd6f6b11	-0.058451716
92	0x3e12234d	0.14271279
93	0x3deb05c3	0.11475708
94	0xbd17fb1e	-0.03710472
95	0xbddffbcf	-0.109367006
96	0x3e949f34	0.29027712
97	0xbd0f3ddc	-0.034971103
98	0x3e693301	0.22773363
99	0x3da11023	0.07864406
100	0x3e8212e0	0.25405025
101	0x3e988233	0.29786834
102	0x3d7e5a0b	0.06209759
103	0x3e899edf	0.26879022
104	0x3eb7d862	0.35907274
105	0x3e9f045e	0.3105802
106	0x3d577f46	0.05261161
107	0xbb0b6ae2	-0.0021273424
108	0xbd3088b8	-0.043099135
109	0x3b340f62	0.002747499
110	0x3e4d9032	0.20074537
111	0x3e77f0c9	0.24212946
112	0xbcd546bb	-0.026034703
113	0x3e0584de	0.13038966
114	0xbdd0572a	-0.10172875
115	0x3e24b9c1	0.16086484
116	0x3e21605e	0.15759417
117	0x3e90a32d	0.28249493
118	0x3d9bf9de	0.07616018
119	0x3eb9896e	0.36237663
120	0x3e5e7908	0.21725857
121	0xbccb3c91	-0.024809154
122	0x3e62e7bf	0.22158717
123	0x3df893df	0.12137579
124	0x3c71e61f	0.014764338
125	0x3dc94636	0.09827845
126	0x3e19e9f0	0.15030646
127	0x3e23cc14	0.15995818

bias_hh_l1 f4 [128]
0	0x3e3fa31b	0.18714564
1	0x3d4e60d7	0.050385322
2	0x3dc12ab6	0.094319746
3	0x3e4f108b	0.20221154
4	0x3e3d35d2	0.18477562
5	0xbbb0671f	-0.0053833867
6	0x3e767676	0.24068627
7	0x3e2ad88c	0.16684169
8	0x3dbd1322	0.09232165
9	0x3c9cdc1a	0.019147921
10	0x3e86f486	0.26358432
11	0x3e6f6563	0.2337852
12	0x3deaee3a	0.11471219
13	0x3e8ba26c	0.27272356
14	0x3d957260	0.07297206
15	0x3e50f4b1	0.20405842
16	0x3e85e846	0.26153773
17	0xbd220a78	-0.039560765
18	0xbb592246	-0.0033132
19	0x3df701c1	0.120608814
20	0x3e20cd08	0.15703213
21	0x3e943f21	0.28954414
22	0x3d9129ca	0.07088049
23	0x3e97c558	0.2964275
24	0x3d183985	0.03716423
25	0x3ce1d473	0.027567124
26	0x3e4139dc	0.18869728
27	0x3e663557	0.22481285
28	0x3e85a584	0.2610284
29	0x3e7717d3	0.24130182
30	0x3e2fabbb	0.17155354
31	0xbc391e49	-0.011298724
32	0xba987100	-0.0011630356
33	0xbd5c0288	-0.05371335
34	0xbe01b68c	-0.12667292
35	0x3db70b1e	0.08937667
36	0x3bf8ae60	0.0075891465
37	0x3da4f5de	0.08054708
38	0x3e209571	0.15682007
39	0xbe2ad5a6	-0.16683063
40	0x3e13b80d	0.14425679
41	0xbdcfeaad	-0.10152183
42	0x3dc0b0be	0.09408711
43	0x3d9ae716	0.075636074
44	0xbd996781	-0.07490445
45	0x3e0f2f05	0.1398278
46	0x3e1778ff	0.1479225
47	0xbde3632c	-0.111029
48	0x3de12d7a	0.10995002
49	0xbd21e670	-0.039526403
50	0xbdaa6a4d	-0.083210565
51	0xbe20d4e3	-0.1570621
52	0x3dc50222	0.096195474
53	0x3d8d945a	0.069130614
54	0xbdabdff9	-0.08392329
55	0x3c2b3450	0.010449484
56	0x3e23a357	0.15980278
57	0xbe12f9bc	-0.14353079
58	0x3cf11168	0.029427245
59	0x3e2294c1	0.15877058
60	0xbd60a290	-0.05484253
61	0x3e1be66b	0.15224616
62	0x3e1134d5	0.1418031
63	0xbde31c32	-0.11089362
64	0xba5a9961	-0.0008338895
65	0x3dafb482	0.08579351
66	0x3ddc5cc8	0.10759884
67	0xbceb542e	-0.028726663
68	0x3e14c2f7	0.14527498
69	0xbd009103	-0.031388294
70	0x3c06f895	0.0082379775
71	0x3e0dbbd9	0.1384119
72	0xbe2b137b	-0.1670665
73	0xbd752afd	-0.05985545
74	0x3d69c536	0.05707284
75	0xbc28f58d	-0.01031245
76	0x3e265e9d	0.1624703
77	0x3d8f8f87	0.070097975
78	0xbd1c9450	-0.03822738
79	0xbdbf2657	-0.093334846
80	0xbd0a0f37	-0.033705916
81	0x3dee4d10	0.11635792
82	0xbe18ed47	-0.14934264
83	0xbd5cd692	-0.053915568
84	0xbda8348c	-0.082131475
85	0xbd9caf02	-0.076505676
86	0xbd0dace5	-0.034588713
87	0x3d6a7cd0	0.057247937
88	0x3dae3ebb	0.08508059
89	0x3ce2361b	0.02761369
90	0x3d56e935	0.052468497
91	0x3dd7d161	0.10537983
92	0x3d4ba3e2	0.049716838
93	0xbdb3138c	-0.08743963
94	0xbd15dc7e	-0.03658723
95	0xbdd34d02	-0.103174224
96	0x3e3f0425	0.18653925
97	0x3e2f4ccf	0.17119144
98	0xbd01ca35	-0.03168698
99	0x3e6e78c0	0.2328825
100	0x3e624bfc	0.22099298
101	0x3e35f6dd	0.17769952
102	0x3e579fe3	0.21057086
103	0xbc6e9ba6	-0.014563477
104	0x3e6becb3	0.23039512
105	0x3e1b8aac	0.15189618
106	0x3e1d1c92	0.1534293
107	0x3e8b1d52	0.27170807
108	0x3e362843	0.17788796
109	0x3e27da07	0.16391765
110	0x3d59b443	0.053150427
111	0x3e028048	0.12744248
112	0x3e9bc12c	0.30420816
113	0xbdd1809a	-0.10229607
114	0xbd9a1c16	-0.07524888
115	0x3e41c92f	0.18924402
116	0x3e4f1fca	0.2022697
117	0x3e8c195c	0.27363098
118	0x3db8331a	0.08994122
119	0x3e46e44c	0.19423026
120	0xbd3c0991	-0.04590756
121	0x3cf462fb	0.029832354
122	0x3c073510	0.008252397
123	0x3dde8ade	0.108663306
124	0x3e618e00	0.22026825
125	0x3e36d33e	0.1785402
126	0x3e1e2109	0.1544229
127	0x3d85b9ef	0.06529605

weight_ih_l2 f4 [128, 32]
0	0x3c3272c6	0.010891622
1	0x3dbfbda8	0.09362346
2	0x3e534f58	0.20635736
3	0x3e53415e	0.20630404
4	0xbd9e5909	-0.07731826
5	0x3d960d4f	0.07326757
6	0xbdb8f972	-0.09031953
7	0xbdfa3d63	-0.1221874
8	0x3e7f9438	0.24958885
9	0xbe20077f	-0.1562786
10	0x3b4b109f	0.0030985249
11	0x3e033eb3	0.12816887
12	0x3d88d6be	0.06681584
13	0x3e1f1bb8	0.15537918
14	0xbe08bdbd	-0.1335363
15	0x3d2a3ee6	0.04156389
16	0xbe79e062	-0.24402002
17	0x3e432fe6	0.1906124
18	0x3d509e78	0.050932378
19	0x3d97102b	0.07376131
20	0xbd431df4	-0.047635987
21	0x3ded3b33	0.11583557
22	0xbda13562	-0.0787151
23	0xbe096598	-0.13417661
24	0x3e002355	0.12513478
25	0xbbc23b70	-0.0059274957
26	0xbe4a9e10	-0.19786859
27	0x3df5c734	0.120008856
28	0x3e3fb265	0.18720396
29	0x3cda6f46	0.026664387
30	0xbdca58d6	-0.09880225
31	0xbdd259b0	-0.10271013
32	0xbe50722f	-0.20356058
33	0x3de9abe5	0.114097394
34	0xbd70628b	-0.058687728
35	0x3e24adeb	0.1608197
36	0xbd24087e	-0.04004716
37	0x3ced4982	0.028965715
38	0x3e39bd4e	0.1813862
39	0xbdcacf33	-0.09902801
40	0x3e02dd35	0.12779696
41	0x3cfcca42	0.030858163
42	0xbdb93b4c	-0.09044513
43	0x3d936952	0.07197823
44	0xbdc18d86	-0.094508216
45	0x3db32fcb	0.0874935
46	0x3dd09810	0.101852536
47	0x3e0af979	0.13571729
48	0x3c73f35d	0.014889565
49	0xbdf64a4b	-0.12025889
50	0xbe17b4d2	-0.14815071
51	0x3d95b114	0.073091656
52	0xbe3d6202	-0.18494418
53	0xbd4c424c	-0.049867913
54	0xbe49c956	-0.1970571
55	0x3c92d7b3	0.017925119
56	0x3e102f95	0.14080651
57	0x3a11b22c	0.0005557861
58	0x3df04361	0.117316015
59	0x3dabb5e3	0.083843015
60	0x3e37c25f	0.1794524
61	0xbd0abaad	-0.033869434
62	0x3d9b173f	0.07572793
63	0xbe174348	-0.1477176
64	0x3db0e10d	0.08636675
65	0x3e7ead5a	0.24870816
66	0x3d649a75	0.055811364
67	0x3e43b7a7	0.19113027
68	0x3dee3f2b	0.11633142
69	0x3e0ba262	0.13636163
70	0x3dfcb63a	0.123394445
71	0x3b313605	0.0027040255
72	0x3e51f660	0.20504141
73	0x3c927597	0.017878337
74	0x3e57a7c6	0.21060094
75	0x3db03b86	0.08605103
76	0x3e168345	0.14698513
77	0x3e5cb71e	0.21554229
78	0xbb4695cc	-0.0030301688
79	0x3e078fa3	0.13238387
80	0xbdd3e519	-0.10346431
81	0x3cbc7d5d	0.023008997
82	0xbdd61a67	-0.104542546
83	0xbd8cd2c7	-0.0687614
84	0x3cf02fd1	0.029319676
85	0x3db00c82	0.08596136
86	0xbe8c2246	-0.273699
87	0x3ca30f7b	0.019904843
88	0x3e56bb1e	0.20969817
89	0x3dd46e38	0.10372585
90	0xbe0979fc	-0.1342544
91	0xbd4447f4	-0.047920182
92	0x3e318118	0.17334402
93	0xbe660152	-0.22461441
94	0xbc152e84	-0.0091053285
95	0x3c8304dc	0.015993528
96	0x3d80f21b	0.06296178
97	0xbe242509	-0.16029753
98	0xbdb1a8c9	-0.08674771
99	0x3d90204f	0.070374124
100	0x3da1c308	0.078985274
101	0xbe278981	-0.16361047
102	0x3d195d9b	0.037442785
103	0x3d6a5b80	0.057216167
104	0xbdc5805a	-0.09643622
105	0x3d8b3b55	0.06798426
106	0xbdbd2269	-0.09235079
107	0xbc8f3ef8	-0.01748608
108	0x3de7b14c	0.113131136
109	0x3d4e6150	0.050385773
110	0x3dadd8df	0.084886305
111	0xbe071e0d	-0.13195057
112	0x3e15b8ec	0.14621323
113	0xbe2a7516	-0.16646227
114	0x3d414cc3	0.047192346
115	0xbe4c2abc	-0.19938177
116	0xbcd0dacd	-0.025494957
117	0xbe695b1a	-0.22788659
118	0x3e827999	0.25483397
119	0x3d952145	0.07281736
120	0xbe675e72	-0.22594622
121	0xbce63f40	-0.028106332
122	0x3d1ec673	0.038763475
123	0xbdcbed83	-0.09957411
124	0xbe027c42	-0.12742713
125	0x3cda61e1	0.026658
126	0x3e6c18d5	0.23056348
127	0x3e0605d4	0.13088161
128	0xbdcb4ec5	-0.099271335
129	0x3e7b9d81	0.24571802
130	0xbd289ea4	-0.041166916
131	0x3e61e615	0.22060426
132	0xbbd1937b	-0.006395755
133	0xbd415962	-0.047204383
134	0x3d2a6bb2	0.041606613
135	0xbde1b4eb	-0.110208355
136	0xbc30bb6d	-0.010786873
137	0x3ceb311a	0.028709937
138	0x3de426da	0.11140223
139	0xbe84fb51	-0.2597299
140	0x3e3cb825	0.1842962
141	0x3dc218c0	0.09477377
142	0xbddc8f17	-0.1076948
143	0x3e072eaa	0.13201395
144	0x3d528762	0.051398642
145	0x3e2832a6	0.16425571
146	0xbd2a53a0	-0.041583657
147	0x3d83db35	0.06438295
148	0xbca83434	-0.020532705
149	0x3d21d916	0.03951367
150	0xbe7d2863	-0.24722438
151	0xbe43e8e4	-0.1913181
152	0xbccd387b	-0.025051346
153	0x3e3a13bc	0.1817159
154	0xbc2f0133	-0.010681438
155	0x3e6c599b	0.23081057
156	0xbc975b54	-0.018476166
157	0x3d5fa024	0.05459608
158	0x3be809bc	0.0070812386
159	0xbe804bbc	-0.2505778
160	0x3c920d42	0.017828587
161	0x3da16555	0.07880656
162	0xbc136bd9	-0.008997881
163	0xbc337f3f	-0.010955631
164	0xbdce970c	-0.10087404
165	0xbdb7cbeb	-0.08974441
166	0x3c027af6	0.0079638865
167	0xbe36ba81	-0.17844583
168	0x3e1d6003	0.15368657
169	0xbe2abf11	-0.16674449
170	0x3d90674e	0.07050954
171	0xbe3a01bc	-0.18164724
172	0x3d38ff84	0.045165554
173	0x3dca045b	0.09864112
174	0xbc9863cf	-0.01860228
175	0xbccda789	-0.025104301
176	0xbe29b613	-0.16573362
177	0x3d8e6b20	0.06954026
178	0x3c96033c	0.01831209
179	0xbdd3a99e	-0.10335086
180	0x3d22f175	0.039781053
181	0x3e1b51ac	0.15167874
182	0x3e15d7ef	0.14633153
183	0x3e19c6a1	0.15017177
184	0x3de4c4d3	0.11170354
185	0xbdb22ef7	-0.08700364
186	0x3dc21628	0.09476882
187	0xbdd58dce	-0.10427438
188	0x3e39daa8	0.18149817
189	0x3a349aff	0.00068895513
190	0xbdfaab02	-0.122396484
191	0xbe1aff7b	-0.1513652
192	0xbdf7d93f	-0.12101983
193	0x3cb82527	0.022478653
194	0x3c43393d	0.011915502
195	0x3e695dbd	0.22789665
196	0x3e8dcf4d	0.2769722
197	0x3e8da7a2	0.27666956
198	0x3d970278	0.07373518
199	0x3d7acf20	0.061232686
200	0xbc80227b	-0.015641442
201	0xbdfe1b4d	-0.12407551
202	0x3d316f65	0.043319125
203	0xbe766f40	-0.24065876
204	0x3d40d52f	0.047078308
205	0xbd0ee48a	-0.03488592
206	0xbd85b989	-0.06529529
207	0x3dfad44b	0.12247523
208	0xbe428f85	-0.19000061
209	0x3e0982da	0.13428822
210	0xbe78c6d3	-0.24294595
211	0x3e515b11	0.20444895
212	0xbe8f9fff	-0.28051755
213	0x3e7df7ae	0.24801514
214	0xbe8b853c	-0.27250087
215	0xbddf0c03	-0.10890963
216	0x3e749b8e	0.23887464
217	0x3e32b118	0.17450368
218	0xbd4945e4	-0.04913892
219	0x3e7b8de7	0.2456585
220	0x3d57352a	0.052540936
221	0xbdd83d08	-0.10558516
222	0xbdcbf232	-0.099583045
223	0xbd3417d4	-0.043968037
224	0xbd7c9ec8	-0.061674863
225	0x3e0c088e	0.13675138
226	0x3e43c7d5	0.19119199
227	0xbb9ee99d	-0.004849626
228	0x3b4eed37	0.0031574497
229	0x3d92cfc0	0.071685314
230	0xbceecfaa	-0.029151756
231	0xbe504c09	-0.20341505
232	0x3e223cc1	0.15843488
233	0x3c6aaad4	0.014322955
234	0x3d1f25dc	0.038854465
235	0xbe15c1b4	-0.14624673
236	0x3e488469	0.1958176
237	0xbc5a4d7a	-0.013324136
238	0x3da6e9ba	0.081500486
239	0x3e4799e0	0.19492292
240	0xbe4b7486	-0.19868669
241	0xbcf9ca4a	-0.030491967
242	0xbe2075d8	-0.15669954
243	0x3e0b4ffd	0.13604732
244	0xbcc3cdce	-0.023901846
245	0x3e0b8330	0.13624263
246	0xbe73cfa6	-0.2380968
247	0xbd6bcd4a	-0.057568826
248	0x3bfa0c89	0.007630889
249	0x3e4131bd	0.1886663
250	0xbdad32ed	-0.08456979
251	0x3ddbe074	0.107361704
252	0x3dec7739	0.115461774
253	0xbdcc34e3	-0.09971025
254	0x3d414826	0.047187947
255	0x3c8890e3	0.01667065
